test/results/breakout_0/DQN/models_best.pth (torch, 172985 bytes, 12 tensors)

layer1.weight f4 [128, 28]
0	0x3e1ca62d	0.15297766
1	0xbd8f5f61	-0.07000614
2	0xbe2eaa9c	-0.1705727
3	0xbe321846	-0.17392072
4	0xbe267714	-0.16256362
5	0xbe29ef0f	-0.165951
6	0xbdeb148c	-0.114785284
7	0x3f1c35d0	0.6101961
8	0x3d3e1746	0.046408914
9	0x3e150fdf	0.14556836
10	0xbd0b3792	-0.033988543
11	0x3e0a143d	0.13484283
12	0xbe2196c3	-0.15780167
13	0x3cb423b8	0.021989688
14	0x3d464780	0.04840803
15	0x3da32a38	0.07967037
16	0x3da951ba	0.08267541
17	0xbd26a882	-0.040688045
18	0x3dccd862	0.10002209
19	0x3bd8ca2f	0.006615899
20	0xbd088742	-0.033332117
21	0xbe21b069	-0.15789951
22	0x3e0c7cbe	0.1371946
23	0x3dbbe88d	0.09175215
24	0x3dceb85a	0.10093756
25	0x3e2145cb	0.1574928
26	0xbda651dd	-0.08121083
27	0x3f476d53	0.7790119
28	0xbde71ad5	-0.11284415
29	0xbdfaf1ec	-0.12253174
30	0x3e25fab7	0.16208921
31	0xbd42a5b2	-0.0475213
32	0xbe33de15	-0.17565186
33	0xbe25ad9e	-0.16179511
34	0xbe37df4c	-0.17956275
35	0xbdcc62a8	-0.09979755
36	0xbdc47005	-0.095916785
37	0xbe1f454b	-0.15553777
38	0x3e1db2b2	0.15400198
39	0x3d8a1de4	0.067439824
40	0x3d884af4	0.06654921
41	0x3dfe1be5	0.12407664
42	0xbe38f116	-0.18060717
43	0x3e22b33f	0.1588869
44	0xbe0765fd	-0.13222499
45	0xbdf91805	-0.121627845
46	0xbd1556e0	-0.036459804
47	0xb955dbe6	-0.00020395181
48	0xbd8487ab	-0.06471189
49	0xbd042846	-0.03226497
50	0x3de61a0b	0.11235436
51	0xbceeb1e0	-0.029137552
52	0xbe04bd9f	-0.1296296
53	0xbe1aab6b	-0.15104453
54	0x3e21b953	0.15793352
55	0xbe17daf3	-0.14829616
56	0x3da944cb	0.08265074
57	0xbd07f5fa	-0.033193566
58	0xbe1dadfd	-0.15398403
59	0x3de28214	0.11059967
60	0x3d7896a2	0.06069053
61	0xbdd36242	-0.103214756
62	0x3c36f178	0.011165969
63	0xbe120f7c	-0.1426372
64	0xbcc48ebe	-0.023993846
65	0xbde7a68e	-0.11311065
66	0x3de513e1	0.11185432
67	0x3dad2a03	0.08455279
68	0x3e392d81	0.18083765
69	0xbdb62096	-0.08892934
70	0x3d9fbf34	0.07800141
71	0xbdba14d8	-0.09086007
72	0xbc1d5cc7	-0.009604639
73	0x3dc18df4	0.094509035
74	0x3df36799	0.11884994
75	0x3ddc5130	0.10757673
76	0x3d85561c	0.06510565
77	0xbd0a1dce	-0.03371983
78	0xbde7fecf	-0.11327898
79	0x3cae12c0	0.021249175
80	0xbd6aeb94	-0.05735357
81	0xbca58512	-0.020205054
82	0xbb29062b	-0.002579103
83	0x3c39d2d1	0.011341766
84	0x3e244bef	0.16044591
85	0x3d955e52	0.07293381
86	0xbd1bc7a3	-0.038032185
87	0x3e1fba57	0.15598427
88	0xbe1d6d53	-0.15373735
89	0x3e2887e5	0.1645809
90	0x3c737fc1	0.014862002
91	0x3f4566a8	0.77109766
92	0x3e1d9205	0.15387733
93	0xbcaf3d90	-0.02139166
94	0x3c1b8d07	0.009494073
95	0x3ba2f0c2	0.004972548
96	0x3dfb96fc	0.12284657
97	0xbdf2a6f8	-0.11848253
98	0x3dd3f96a	0.10350306
99	0x3e0f7e51	0.1401303
100	0x3d8812e0	0.06644225
101	0xbcf90f2e	-0.030402746
102	0x3db15c86	0.086602256
103	0xbe199e46	-0.15001783
104	0xbdd6bc8c	-0.10485181
105	0x3ce1316a	0.027489383
106	0x3deb0856	0.11476199
107	0x3e16d045	0.14727886
108	0x3d3bf487	0.045887496
109	0x3ccd0cac	0.025030456
110	0xbd44710a	-0.047959365
111	0x3f48867f	0.78330225
112	0x3ddb0b80	0.10695553
113	0x3d56767f	0.0523591
114	0xbe17026c	-0.14747018
115	0x3cb13588	0.021631971
116	0x3d14e70c	0.036353156
117	0x3d14ae88	0.03629926
118	0xbd057b22	-0.03258813
119	0x3f0847c8	0.5323453
120	0xbe1d902f	-0.15387033
121	0xbd6b1e4c	-0.05740194
122	0xbdc32730	-0.09528959
123	0xbd82058b	-0.063487135
124	0xbde6378f	-0.11241066
125	0x3d5d6f46	0.054061197
126	0xbe201b5a	-0.15635434
127	0x3d87e330	0.066351295
128	0xbca0443a	-0.019563783
129	0x3e2aa5dd	0.16664834
130	0xbdd957dc	-0.10612461
131	0x3e06c3d5	0.13160641
132	0x3cfdb89e	0.030971821
133	0xbe220b7a	-0.1582469
134	0x3dee941e	0.11649345
135	0xbca6a582	-0.020342592
136	0x3d6a119c	0.0571457
137	0x3d2ef86c	0.042717382
138	0xbe2a7f3d	-0.166501
139	0x3f1de798	0.6168151
140	0xbdb6e199	-0.08929748
141	0x3d90f0da	0.07077189
142	0xbe04d453	-0.1297162
143	0x3ccebba4	0.025235958
144	0xbcca9e77	-0.024733765
145	0xbcd2772c	-0.025691591
146	0xbbb9cfc2	-0.0056705186
147	0xbde9ad6f	-0.11410033
148	0x3e0b4e73	0.13604145
149	0x3cbc58c6	0.02299155
150	0xbd83a2f4	-0.06427565
151	0xbd8e8cf7	-0.06960481
152	0xbd5917c0	-0.053001165
153	0xbe299cf0	-0.16563773
154	0x3d93e5a2	0.07221533
155	0x3e2a1ec7	0.16613303
156	0x3d5b0d8a	0.05347971
157	0x3df3ba47	0.11900764
158	0xbe1d8792	-0.15383747
159	0xbe115f26	-0.14196452
160	0xbdcefeb6	-0.10107176
161	0x3e1a51ab	0.15070216
162	0x3e2748b3	0.16336326
163	0x3e39b07e	0.18133733
164	0xbe31f944	-0.17380244
165	0x3e2b2527	0.16713391
166	0xbe2ece0e	-0.17070791
167	0x3dab2003	0.08355715
168	0x3dab752d	0.08371959
169	0x3d9096fa	0.070600465
170	0x3d5cb7ea	0.05388633
171	0x3e1b2951	0.1515248
172	0x3e0a5153	0.13507585
173	0xbe2c7b0b	-0.16843812
174	0xbd314c5c	-0.043285713
175	0x3ef56f3b	0.47936425
176	0x3d1649e8	0.036691576
177	0x3af33adf	0.0018556974
178	0x3e3b9424	0.1831823
179	0xbb2451e2	-0.002507322
180	0xbe13ed1c	-0.14445919
181	0xbdd02fcc	-0.101653665
182	0xbe1bf563	-0.15230326
183	0xbd6c6b30	-0.05771941
184	0xbdc82740	-0.09773111
185	0xbdf742ab	-0.12073263
186	0xbe1bca24	-0.1521383
187	0xbbfe9d68	-0.007770229
188	0xbc822246	-0.015885483
189	0xbd620f52	-0.05519039
190	0xbd9ed80b	-0.07756051
191	0xbd2ca6cb	-0.042151254
192	0xbe21513c	-0.15753645
193	0xbddad519	-0.106851764
194	0x3cef9888	0.029247537
195	0x3f202854	0.62561536
196	0x3c7787c1	0.01510805
197	0x3d5cd5ba	0.053914763
198	0x3e1a7d22	0.15086797
199	0xbdd2e39d	-0.1029732
200	0x3d97e7ce	0.0741726
201	0x3de83d5e	0.1133983
202	0x3e2915e6	0.1651226
203	0x3d0b7dcd	0.03405552
204	0xbafa3031	-0.0019087848
205	0x3da115ac	0.07865462
206	0xbdb3e3a7	-0.087836556
207	0xbe36b1d9	-0.17841281
208	0xbe2644e7	-0.16237222
209	0x3e04ef37	0.12981878
210	0xbdce1d1d	-0.10064147
211	0x3cd79b8d	0.02631929
212	0xbd9802f4	-0.07422438
213	0x3e396fbe	0.18109033
214	0x3bd3d454	0.0064645205
215	0x3e220d85	0.1582547
216	0xbd9e1548	-0.07718903
217	0xbc6fe980	-0.014643073
218	0x3d0e06af	0.034674343
219	0x3e025f73	0.12731723
220	0x3e022013	0.12707548
221	0xbe34b416	-0.17646822
222	0xbdd1b765	-0.10240058
223	0xbd189b80	-0.03725767
224	0xbe2d0e13	-0.168999
225	0x3d50738c	0.050891444
226	0xbd460e08	-0.048353225
227	0xbd0f2ec8	-0.034956723
228	0x3dade1da	0.084903434
229	0xbcfb5b8d	-0.030683303
230	0x3d1c803d	0.038208235
231	0x3f49a47b	0.787666
232	0xbda4ed7b	-0.08053108
233	0xba10f57c	-0.0005529744
234	0x3dc6496c	0.09681973
235	0x3e2e5f3b	0.17028515
236	0x3c762258	0.015022837
237	0x3dfcf659	0.123516746
238	0xbd7adeb9	-0.06124756
239	0xbe30fbd7	-0.1728357
240	0x3d1f62d2	0.0389126
241	0xbdac4709	-0.084119864
242	0x3c9d6d24	0.019217081
243	0x3e0cf353	0.13764696
244	0x3e0d823e	0.13819215
245	0x3d63f219	0.055650804
246	0xbd40f16a	-0.04710523
247	0xbe009124	-0.12555367
248	0x3de52993	0.1118957
249	0x3de81c8a	0.113335684
250	0xbdee6596	-0.1164047
251	0x3f2b8ab3	0.67008513
252	0x3dbf4108	0.093385756
253	0xbda7e3e4	-0.081977636
254	0x3df047fe	0.117324814
255	0xbcd0555c	-0.025431328

layer1.bias f4 [128]
0	0x3f3521e5	0.70754844
1	0xbc9320ac	-0.017959915
2	0x3de054d8	0.10953683
3	0x3f12e095	0.57373935
4	0x3f3bd4c1	0.7337151
5	0xbddef48d	-0.10886488
6	0x3f442613	0.76620597
7	0xbd9fad09	-0.07796676
8	0x3f1fe71b	0.62462014
9	0xbd425702	-0.04744626
10	0xbcbf8a06	-0.023381244
11	0xbd851db2	-0.064998046
12	0x3edc38bd	0.43012038
13	0x3ed65299	0.41859892
14	0xbdfba55a	-0.12287398
15	0xbdbaa271	-0.091130145
16	0xbdd29d32	-0.10283889
17	0x3d5b9dfe	0.05361747
18	0xbbc3d20e	-0.005975968
19	0xbd463f89	-0.048400436
20	0xbe0e1857	-0.13876472
21	0xbe1fdecb	-0.15612333
22	0x3f1eee28	0.6208215
23	0x3f1ac7d7	0.6046118
24	0x3ef7f3a6	0.48428077
25	0x3d0b3c72	0.033993192
26	0x3f16195d	0.5863245
27	0x3f4072d4	0.75175214
28	0xbd9432be	-0.07236241
29	0x3f41c88d	0.7569664
30	0x3f48d897	0.7845549
31	0x3f39be3d	0.72555906
32	0xbe034fb3	-0.12823372
33	0xbda582fa	-0.080816224
34	0x3f17dd61	0.5932217
35	0x3cecea90	0.028920442
36	0x3f374e52	0.7160388
37	0x3f4535e4	0.77035356
38	0xbd97e14e	-0.0741602
39	0x3f2fe928	0.68715143
40	0xbdb79f16	-0.0896589
41	0x3f3c6d42	0.73604214
42	0x3f2b5005	0.66918975
43	0x3de8bcc0	0.11364126
44	0x3f464d5f	0.7746181
45	0xbe1f0d0d	-0.15532322
46	0x3e1cdb02	0.1531792
47	0x3f3b962c	0.7327602
48	0x3f383b0d	0.71965104
49	0xbe2eab86	-0.17057618
50	0xbe16784d	-0.14694329
51	0x3f2cd0c9	0.6750608
52	0x3d809870	0.06279075
53	0xbdba1f82	-0.09088041
54	0x3db27b96	0.087149784
55	0x3f3e5f9c	0.7436464
56	0xbc1d027e	-0.009583114
57	0xbd92fbc9	-0.071769305
58	0x3d8b3458	0.06797093
59	0x3d93549a	0.07193871
60	0x3f0fd151	0.56178766
61	0x3f3f4d88	0.7472768
62	0x3f3cfa8c	0.73819804
63	0xbe079a16	-0.13242373
64	0x3c708ad0	0.014681533
65	0xbd7c94a2	-0.061665185
66	0x3f499ee8	0.78758097
67	0x3f483fde	0.78222454
68	0xbcd287d4	-0.025699534
69	0x3dfb7553	0.12278237
70	0x3f162389	0.5864797
71	0x3f4b8e2d	0.7951382
72	0x3f3b113a	0.7307316
73	0x3d90f136	0.07077257
74	0xbe0e341a	-0.13887063
75	0x3f41313c	0.7546575
76	0x3f3dd362	0.7415067
77	0x3de36528	0.111032784
78	0x3f3ee8be	0.74573886
79	0xbe1c31d0	-0.15253377
80	0x3db09dce	0.08623849
81	0x3e1bbc53	0.15208559
82	0xbe2eb558	-0.17061365
83	0x3f4bd88a	0.7962729
84	0xbdb7b088	-0.089692175
85	0x3dd96974	0.10615817
86	0x3f304e75	0.68869716
87	0x3efb8eb1	0.49132302
88	0xbcb254f8	-0.021769032
89	0x3ee9c978	0.4566152
90	0x3f469e27	0.7758507
91	0xbe361c09	-0.17784132
92	0x3f4658f0	0.7747946
93	0x3f01182c	0.5042751
94	0x3f25dffb	0.6479489
95	0x3d9d080a	0.07667549
96	0xbe2a2be2	-0.16618302
97	0x3f436183	0.76320666
98	0x3dcc87ae	0.09986816
99	0x3f1067b7	0.56408256
100	0x3db6d3f6	0.08927147
101	0x3f451dda	0.76998675
102	0xbdda6a86	-0.10664849
103	0xbe17d9e6	-0.14829215
104	0x3f3b97dc	0.73278594
105	0x3f1ae2be	0.6050223
106	0x3f2f5f75	0.6850503
107	0x3f14ffdd	0.58202916
108	0x3f0b3000	0.5437012
109	0x3f08f9df	0.53506273
110	0xbd3290f0	-0.043595254
111	0x3f447eeb	0.7675616
112	0x3f02413c	0.5088079
113	0x3ef72ff9	0.48278788
114	0xbe16cdda	-0.14726964
115	0x3bc3114e	0.0059529906
116	0x3f36a304	0.7134249
117	0xbc16188c	-0.009161126
118	0xbe19a926	-0.15005931
119	0x3dd295a2	0.102824464
120	0x3f28fba6	0.66008985
121	0x3f353403	0.7078249
122	0x3f037c25	0.51361305
123	0x3f0e24c8	0.55524874
124	0x3f228a3d	0.63492185
125	0x3f253c63	0.6454527
126	0x3f37caab	0.7179362
127	0x3f34cfc9	0.70629555

layer2.weight f4 [128, 128]
0	0x3f131fe5	0.5747054
1	0x3cce7dd0	0.025206476
2	0xbc24b7aa	-0.010053555
3	0x3eef8bd2	0.46786362
4	0x3ee83e77	0.45360157
5	0x3d2e8132	0.04260368
6	0x3f08ccc7	0.53437465
7	0xbda8af0b	-0.08236512
8	0x3f06c7b0	0.5264845
9	0xbd5baf85	-0.053634185
10	0x3cbc656a	0.022997577
11	0xbd8d1247	-0.06888252
12	0x3f0071f0	0.50173855
13	0x3eec1475	0.46109357
14	0x3d1cf17f	0.038316246
15	0x3d8f573b	0.0699906
16	0xbc6aed48	-0.014338799
17	0x3d1c75d5	0.03819831
18	0xbda53559	-0.08066816
19	0xbd22900c	-0.039688155
20	0xbce9d95a	-0.028546024
21	0x3daaf07e	0.083466515
22	0x3f146f7e	0.57982624
23	0x3efbafdb	0.49157605
24	0x3f0ceced	0.5504902
25	0x3daa558b	0.08317097
26	0x3f08bc69	0.5341249
27	0x3ee61a56	0.44941968
28	0x3d16a14a	0.03677491
29	0x3f10e212	0.56594956
30	0x3ee111fe	0.4395904
31	0x3f009680	0.50229645
32	0xbd7bb4b3	-0.061451625
33	0x3d3b989e	0.045799844
34	0x3f070644	0.52743936
35	0xbd564d14	-0.0523196
36	0x3f0712f8	0.5276332
37	0x3f164b76	0.58708894
38	0x3aa45362	0.0012537057
39	0x3f0b155e	0.5432948
40	0x3da79a17	0.08183687
41	0x3f006d6e	0.50166976
42	0x3f05d5aa	0.5227915
43	0xbd9153c8	-0.07096058
44	0x3f069e12	0.52584946
45	0x3d29c402	0.041446693
46	0x3d2e9e4e	0.04263144
47	0x3f16be44	0.5888407
48	0x3ee6b542	0.45060164
49	0x3c3ce7e6	0.011529898
50	0xbca1e142	-0.019760732
51	0x3f13e55e	0.5777186
52	0x3d403eb4	0.0469348
53	0x3d3ed56c	0.046590254
54	0xbd63ba68	-0.055597693
55	0x3f15d6d0	0.585309
56	0xbce5b131	-0.028038593
57	0x3da82559	0.082102485
58	0xbcf7b367	-0.030236913
59	0xbca91257	-0.020638628
60	0x3f06b499	0.5261932
61	0x3f105f83	0.5639574
62	0x3f0ad027	0.54223865
63	0x3c8fcd88	0.01755406
64	0xbd9f3247	-0.077732615
65	0xbd6b7312	-0.057482786
66	0x3f0ec1b3	0.5576431
67	0x3f16c14d	0.58888704
68	0x3d828437	0.06372874
69	0xbd293c51	-0.041317288
70	0x3efae630	0.49003744
71	0x3ef9e7a8	0.48809552
72	0x3eeb2225	0.45924488
73	0x3bcba494	0.0062146876
74	0xbd11cb3f	-0.03559422
75	0x3efb6ef2	0.49108082
76	0x3f1190d8	0.5686164
77	0x3c0696c6	0.008214658
78	0x3f06ff38	0.5273318
79	0xbc0595ee	-0.008153422
80	0x3d72d3a1	0.059283856
81	0x39588180	0.00020647608
82	0xbcd5168d	-0.02601173
83	0x3eead200	0.45863342
84	0xbbf0be20	-0.0073468834
85	0xbd27a111	-0.04092509
86	0x3f08acc8	0.53388643
87	0x3ef322a4	0.47487366
88	0x3d9caa6a	0.076496914
89	0x3f17fe20	0.5937214
90	0x3f15045e	0.5820979
91	0xbd491026	-0.049087666
92	0x3ef1051a	0.47074205
93	0x3ef9c9a6	0.48786658
94	0x3ef33413	0.47500667
95	0xbda136d1	-0.078717835
96	0x3b080cb6	0.002075953
97	0x3f0466d6	0.51719415
98	0x3d10813a	0.03527949
99	0x3f1b6f94	0.6071713
100	0xbd6a0090	-0.057129443
101	0x3ee5b038	0.44861007
102	0xbd136a25	-0.0359899
103	0xbcb5ba90	-0.022183686
104	0x3ee7d96f	0.45283076
105	0x3efc1807	0.4923708
106	0x3ef0355c	0.4691571
107	0x3f0e4f77	0.55590004
108	0x3edfecf0	0.43735456
109	0x3ef2d797	0.47430107
110	0x3d436af4	0.04770942
111	0x3f0c919e	0.54909694
112	0x3f0619d8	0.52383184
113	0x3f06803e	0.5253943
114	0xbd93a5c4	-0.07209352
115	0x3c886c2a	0.01665314
116	0x3ef94523	0.4868556
117	0xbc47a6c7	-0.012185759
118	0x3da9d57b	0.08292671
119	0x3c37fba5	0.01122943
120	0x3eef707d	0.4676551
121	0x3f1b109e	0.6057223
122	0x3eff2f29	0.49840668
123	0x3f13203a	0.5747105
124	0x3f0f8d0e	0.5607461
125	0x3ef6f241	0.482317
126	0x3efd539f	0.4947786
127	0x3ef7d645	0.48405662
128	0x3f1c6478	0.61090803
129	0xbd9434a5	-0.07236604
130	0x3d4cb33e	0.049975626
131	0x3f268b44	0.6505625
132	0x3f1558cb	0.5833861
133	0xbcbe9cc6	-0.023268115
134	0x3f1352a1	0.57547957
135	0x3d985269	0.074375935
136	0x3f13af98	0.5768981
137	0xba688d10	-0.00088711176
138	0xbd988cfb	-0.07448765
139	0x3d897a3d	0.06712768
140	0x3f178520	0.5918751
141	0x3f11f7fc	0.5701902
142	0xbcd4afa8	-0.025962666
143	0x3c606c42	0.013697686
144	0x3d2c0284	0.041994587
145	0xbd8a0258	-0.06738728
146	0xbd9a13c7	-0.075233035
147	0xbd76b33b	-0.06022952
148	0xbd190e77	-0.03736731
149	0xbd5f61a6	-0.054536484
150	0x3f13bdbf	0.57711405
151	0x3f01bd3a	0.5067936
152	0x3f096a6b	0.53678006
153	0x3ce95336	0.02848206
154	0x3f14013a	0.5781437
155	0x3f233d2e	0.6376523
156	0x3bea2360	0.0071453303
157	0x3f21ae98	0.63157034
158	0x3f1acca8	0.6046853
159	0x3f0039a8	0.50087976
160	0xbcfe829a	-0.031068135
161	0xbd3b6e42	-0.045759447
162	0x3f0f5e15	0.5600293
163	0xbc589475	-0.013218989
164	0x3f1d02c7	0.6133236
165	0x3f0c90cd	0.5490845
166	0x3daa84d8	0.08326119
167	0x3f139625	0.5765098
168	0x3d69ccce	0.057080083
169	0x3f24286b	0.6412417
170	0x3f07d5d8	0.53060675
171	0xbd55f113	-0.05223186
172	0x3f1bca0b	0.6085517
173	0xbd9d4df4	-0.07680884
174	0x3a1ad5ad	0.0005906474
175	0x3f013f14	0.50486875
176	0x3f191bed	0.59808236
177	0xbc2c25c2	-0.010507049
178	0x3bb522b8	0.0055278204
179	0x3f185087	0.59497875
180	0xbd1cdbea	-0.038295664
181	0x3d85348b	0.065041624
182	0xbc3b1f54	-0.011421043
183	0x3f0b3ca9	0.54389435
184	0xbd9a62f6	-0.075384066
185	0xbd269976	-0.040673696
186	0x3da3590f	0.07975971
187	0x3d24124c	0.04005651
188	0x3f004af5	0.50114375
189	0x3f0b5035	0.5441926
190	0x3f233221	0.63748366
191	0xbd34b95e	-0.044122092
192	0x3cfe7816	0.03106312
193	0xbd6bf73c	-0.057608828
194	0x3f0e0ae2	0.55485356
195	0x3f0d799f	0.55263704
196	0xbd5ce7ed	-0.05393212
197	0xbd7062ff	-0.05868816
198	0x3f26be7b	0.651344
199	0x3f077479	0.529121
200	0x3f177f08	0.5917821
201	0xbd8661d7	-0.0656163
202	0x3ccbbd20	0.024870455
203	0x3f26ce41	0.6515847
204	0x3f112f3b	0.5671269
205	0xbd448a04	-0.047983184
206	0x3f11bbaf	0.5692701
207	0x3c9a7ab2	0.018857334
208	0xbce335c6	-0.027735602
209	0x3d9c77d5	0.07640044
210	0xbb53ef74	-0.003233877
211	0x3f14c2e5	0.58109885
212	0x3d592d18	0.05302152
213	0x3d6b9ea6	0.057524346
214	0x3f06590d	0.5247963
215	0x3f2a8ce2	0.6662122
216	0xbb7d707c	-0.0038671782
217	0x3f23c174	0.6396706
218	0x3f298fbd	0.6623495
219	0xbd8cdd67	-0.06878167
220	0x3f0c331d	0.5476549
221	0x3f1beecb	0.60911244
222	0x3f275ab0	0.65372753
223	0x3d6774a0	0.056507707
224	0x3c63a244	0.013893668
225	0x3f21c62d	0.6319302
226	0x3d58bff4	0.052917436
227	0x3f0a084d	0.53918916
228	0xbd8138a5	-0.06309632
229	0x3f2928cd	0.6607788
230	0x3d656638	0.056005687
231	0xbd4214cd	-0.04738312
232	0x3f068f06	0.52561986
233	0x3f156ba9	0.583674
234	0x3f1a4cf4	0.6027367
235	0x3f272297	0.65287155
236	0x3f19c242	0.6006204
237	0x3f23bc6f	0.639594
238	0x3d7d8246	0.061891817
239	0x3efa7c38	0.48922896
240	0x3f279a9b	0.65470284
241	0x3f0f9fda	0.5610329
242	0xbd1a7bda	-0.03771577
243	0xbd47583a	-0.048668124
244	0x3f021b1a	0.50822604
245	0xbd9071ec	-0.07052979
246	0x3da6d2a9	0.08145649
247	0x3d0b6f6c	0.034041807
248	0x3f1ee255	0.62064105
249	0x3f19ce0f	0.60080045
250	0x3f2a9ce3	0.6664564
251	0x3f17e5d6	0.59335077
252	0x3f17d387	0.5930714
253	0x3f165527	0.5872368
254	0x3f1d5e63	0.6147215
255	0x3f0940e0	0.53614616

layer2.bias f4 [128]
0	0x3f056911	0.52113444
1	0x3effbb9e	0.49947828
2	0xbc8bd31a	-0.017068435
3	0xbd640e2c	-0.055677578
4	0x3d072c66	0.033001326
5	0xbd606654	-0.054785088
6	0x3efa251d	0.4885644
7	0x3c8a7bae	0.016904678
8	0x3cced127	0.025246216
9	0x3d4d50d6	0.05012592
10	0xbd5875e7	-0.052846815
11	0x3d983630	0.074322104
12	0x3d7946af	0.060858425
13	0x3be0b408	0.006857399
14	0x3ee0bbee	0.4389338
15	0x3f064792	0.5245296
16	0x3f1fb816	0.6239027
17	0x3ed67d8f	0.4189267
18	0x3f1a77d3	0.6033909
19	0xbd7b5254	-0.06135781
20	0xbd8211be	-0.0635104
21	0x3d3b2ac5	0.045695085
22	0xbbea796d	-0.0071555884
23	0x3da30144	0.07959226
24	0x3efa6df1	0.48912004
25	0xbc056aa6	-0.008143103
26	0x3cf23a47	0.029568804
27	0xbd0f367b	-0.034964066
28	0x3d435492	0.047688074
29	0x3f1693af	0.588191
30	0x3d8170c5	0.06320337
31	0x3ce3e8f4	0.027821042
32	0xbd4a60b4	-0.04940863
33	0x3efe0bb0	0.49618292
34	0x3f1a0d7d	0.6017683
35	0xbd785f9d	-0.06063806
36	0x3f111484	0.5667193
37	0xbdae5dd5	-0.08513991
38	0x3eeff459	0.4686611
39	0x3f020524	0.50789094
40	0xbdb0fc99	-0.08641929
41	0x3d11933f	0.035540815
42	0xbd14786a	-0.03624765
43	0xbd7a6d0d	-0.061139155
44	0xbcca35ae	-0.0246838
45	0x3f0511a6	0.51980054
46	0xbd12c08f	-0.03582817
47	0x3f06be81	0.52634436
48	0x3cf66e3d	0.030081863
49	0xbcc0f65b	-0.023554971
50	0x3d9d33b5	0.07675878
51	0xbd7965e7	-0.060888197
52	0xbb9b7441	-0.004744083
53	0x3f09bbb5	0.53802043
54	0xbd4a0cf2	-0.04932875
55	0x3f07a052	0.52979004
56	0x3f1754e7	0.59113926
57	0xbd9a901b	-0.07547017
58	0xbcdf1d94	-0.027235784
59	0x3d5e77b0	0.05431336
60	0x3d54b959	0.051934574
61	0x3f03c6c9	0.514752
62	0xbd978d32	-0.07399978
63	0x3d86b449	0.065773554
64	0x3ccdd970	0.025128096
65	0x3f16ba98	0.5887847
66	0xbd043652	-0.032278366
67	0xbbb3d978	-0.005488571
68	0xbd48cfec	-0.049026415
69	0xbca7b7ce	-0.020473387
70	0xbd272030	-0.04080218
71	0x3f2105fc	0.62899756
72	0x3f14ac2c	0.58075213
73	0xbd8c2023	-0.06842067
74	0x3f05f876	0.52332246
75	0x3f10d038	0.56567717
76	0x3ef3b54f	0.47599265
77	0xbd68b976	-0.056817494
78	0xbc747cb9	-0.014922314
79	0x3ef7d576	0.48405045
80	0xbcd5ad95	-0.026083747
81	0xbbdc0fba	-0.006715742
82	0x3ee7891d	0.45221797
83	0xbcfb3c00	-0.030668259
84	0x3eddf426	0.43350333
85	0x3f0afe44	0.5429423
86	0xbd280550	-0.04102069
87	0x3d266374	0.04062219
88	0xbd0449cf	-0.03229695
89	0x3ed76213	0.42067012
90	0xbcc6597b	-0.02421259
91	0x3f0c1d77	0.5473246
92	0x3f1379dc	0.5760782
93	0xbd7760e9	-0.060395155
94	0x3f190482	0.59772503
95	0x3cf502b8	0.029908523
96	0xbc824c7a	-0.015905607
97	0x3da59e6f	0.080868594
98	0x3f044e20	0.5168171
99	0xbda9b46b	-0.08286365
100	0x3d174caa	0.036938347
101	0x3da44de5	0.0802267
102	0xbd26f740	-0.04076314
103	0x3f120e14	0.5705273
104	0x3f1f4b9d	0.6222475
105	0x3b9bc286	0.0047534136
106	0xbd93732b	-0.07199701
107	0x3f039fbc	0.5141561
108	0xbc932249	-0.017960684
109	0xbc14991c	-0.009069707
110	0x3eff3ceb	0.49851164
111	0x3d25b53c	0.04045604
112	0xbd4883f9	-0.048953984
113	0x3f1cbef9	0.612289
114	0x3f05bb70	0.5223913
115	0xbd977944	-0.073961765
116	0x3ef7e1bf	0.48414418
117	0xbd2b41d7	-0.041810837
118	0xbd0f125f	-0.03492963
119	0x3cb8432b	0.022492966
120	0x3ed85d0d	0.42258492
121	0x3efc38ff	0.49262235
122	0xbd96a508	-0.07355696
123	0x3d7ae3e5	0.061252493
124	0x3f030cfb	0.5119168
125	0x3f1122b5	0.56693584
126	0x3c881cd2	0.016615305
127	0xbbfbe9e6	-0.007687795

layer3.weight f4 [7, 128]
0	0x3edc7a02	0.43061835
1	0x3eb27e03	0.34861764
2	0xbcbe79c2	-0.023251418
3	0xbd4f60fe	-0.05062961
4	0x3ca539ff	0.020169256
5	0xbd961eb8	-0.07330078
6	0x3ebab950	0.36469507
7	0xbb51d7a1	-0.0032019394
8	0x3d9d0da4	0.07668617
9	0x3d3fe670	0.04685062
10	0xbda0dbac	-0.07854399
11	0xbcd6e602	-0.026232723
12	0xbd354c95	-0.044262487
13	0x3d289130	0.041154087
14	0x3ea28ed7	0.31749603
15	0x3ec4f07b	0.38464722
16	0x3e83ef56	0.25768536
17	0x3ec3668c	0.38164175
18	0x3eb684fc	0.35648334
19	0x3d0afc2a	0.03393189
20	0x3d2bd3de	0.0419501
21	0xbcd95cac	-0.026533447
22	0xbcec962c	-0.028880201
23	0x3db76d98	0.0895645
24	0x3ec2e11d	0.38062373
25	0xbd856849	-0.065140314
26	0x3cc445d9	0.023959087
27	0xbcac55b6	-0.021036964
28	0x3d2d0aaf	0.042246517
29	0x3eac589d	0.33661357
30	0x3ac615cf	0.0015112701
31	0x3c188488	0.009308942
32	0x3d6bb8b2	0.057549186
33	0x3ea42e09	0.32066372
34	0x3ed0d8a3	0.4079028
35	0x3c6fc280	0.014633775
36	0x3ed556b7	0.4166772
37	0x3d643bb1	0.05572099
38	0x3eb1c9ce	0.34724277
39	0x3ecd2211	0.40065053
40	0xbd0824a8	-0.033238083
41	0x3d9f8c1e	0.07790397
42	0x3c511144	0.012760464
43	0xbced748c	-0.028986238
44	0x3d021acc	0.031763837
45	0x3ebb684d	0.36603013
46	0x3d999b01	0.07500268
47	0x3eb9d4e4	0.36295235
48	0x3cea2dc8	0.028586283
49	0x3c25f113	0.010128277
50	0x3cee2f00	0.029075146
51	0x3bfb3f30	0.0076674446
52	0x3d75acbf	0.059979197
53	0x3edb23ff	0.428009
54	0xbd43be42	-0.047788866
55	0x3edabcb6	0.427221
56	0x3eda7522	0.4266749
57	0x3d00b276	0.031420194
58	0x3c95d598	0.018290326
59	0x3d378052	0.04480011
60	0xbd38cfab	-0.045119923
61	0x3ec15dc8	0.37766862
62	0xbd03d559	-0.032185886
63	0xbcd561a5	-0.026047537
64	0xbca3049a	-0.019899655
65	0x3ebb00b3	0.3652397
66	0x3d27f294	0.041002825
67	0xbd14bd69	-0.036313448
68	0xbd967230	-0.07345998
69	0xbd1958ce	-0.037438206
70	0xbd13613d	-0.035981406
71	0x3e95037b	0.29104218
72	0x3eb5cc14	0.35507262
73	0xbd946f61	-0.07247806
74	0x3e883d7e	0.26609415
75	0x3ea2cc3f	0.31796452
76	0x3ec332f1	0.38124803
77	0x3c5aeca2	0.013362082
78	0xbbce90d4	-0.006303886
79	0x3eb96aee	0.36214393
80	0x3d9d8497	0.07691305
81	0xbce4601f	-0.027877865
82	0x3eb00361	0.34377578
83	0x3da0bd2f	0.07848584
84	0x3ead40a6	0.33838385
85	0x3eb1053b	0.34574303
86	0xbd860483	-0.06543829
87	0x3d752bcc	0.05985622
88	0x3ca9cc9c	0.020727448
89	0x3ebb8fbf	0.36633107
90	0xbd621620	-0.05519688
91	0x3edbe30d	0.42946663
92	0x3e9dec2d	0.3084425
93	0x3c98009c	0.018554978
94	0x3ea415bd	0.32047835
95	0xbd9024e7	-0.070382886
96	0xbda62b50	-0.0811373
97	0x3d82d06d	0.0638741
98	0x3ebc0f92	0.3673063
99	0x3d59fc40	0.05321908
100	0xbd9d6a83	-0.07686331
101	0x3c3c5c8e	0.011496676
102	0xbd61be0f	-0.055112895
103	0x3ead33d3	0.338286
104	0x3ec2d77b	0.38055024
105	0xbcd641f3	-0.026154494
106	0xbd0eff16	-0.034911238
107	0x3edcabb7	0.43099758
108	0x3ce83860	0.028347194
109	0x3d4703e1	0.048587684
110	0x3ec77a8c	0.38960683
111	0x3da0415f	0.078249685
112	0x3d7e3037	0.0620577
113	0x3ecde797	0.40215752
114	0x3ed54ca5	0.41660038
115	0xbd21c886	-0.039497875
116	0x3e92e06a	0.2868684
117	0x3d76261b	0.060094934
118	0xbc0efaec	-0.008726817
119	0xbd7cfffe	-0.06176757
120	0x3ed2e938	0.41193557
121	0x3eba0c3c	0.3633746
122	0xbd0c9a35	-0.03432675
123	0x3c6a1495	0.014287134
124	0x3ea21900	0.31659698
125	0x3ea650b3	0.32483444
126	0x3b46425a	0.003025195
127	0xbcdc5296	-0.026894849
128	0x3e7e59e9	0.24838986
129	0x3e6545eb	0.22389953
130	0x3c7f6cbe	0.015589891
131	0xbd2b3c4a	-0.041805543
132	0x3c991330	0.018685907
133	0x3d63fc09	0.05566028
134	0x3e423057	0.18963753
135	0xbbc82ca2	-0.0061088363
136	0xbd562afe	-0.052287094
137	0xbbd38244	-0.006454738
138	0x3caae6df	0.020862041
139	0x3c4010d2	0.01172276
140	0xbc8a65c5	-0.01689423
141	0x3d9cb33a	0.07651372
142	0x3e83fdb5	0.257795
143	0x3e6db4d8	0.23213518
144	0x3e8ad537	0.27115795
145	0x3e558671	0.20852067
146	0x3e9c2c1c	0.30502403
147	0xbd509820	-0.050926328
148	0x3cd580ba	0.026062358
149	0xb97aee06	-0.00023930529
150	0x3d9d3fe5	0.076782025
151	0x3d92de26	0.07171278
152	0x3e8d168f	0.27556273
153	0x3d854377	0.065070085
154	0xbcea82dd	-0.028626854
155	0x3bf780c1	0.0075531905
156	0xbd991da4	-0.074763566
157	0x3e9abb9a	0.30221254
158	0x3c914c7b	0.017736664
159	0xbc820161	-0.015869798
160	0x3c834276	0.016022902
161	0x3e91030e	0.28322643
162	0x3e7b86c7	0.24563132
163	0x3cacbc47	0.021085871
164	0x3e514676	0.20437035
165	0xbb343ee0	-0.0027503297
166	0x3e9146ef	0.2837443
167	0x3e8d163c	0.27556026
168	0x3c9c45ff	0.019076345
169	0xbd2f4cca	-0.04279784
170	0xbc973e2c	-0.018462263
171	0x3d36e926	0.04465594
172	0x3d93dcd7	0.07219856
173	0x3ea1c66c	0.31596696
174	0xbcbd8812	-0.023136172
175	0x3e324d62	0.17412332
176	0x3d3b8230	0.045778453
177	0xbd92efe2	-0.0717466
178	0x3cf83ff8	0.03030394
179	0xbc558cbe	-0.013034044
180	0xbd2c477a	-0.042060353
181	0x3e2c03f8	0.16798389
182	0x3cd678fa	0.026180733
183	0x3e683048	0.22674668
184	0x3e81eb83	0.25374994
185	0x3d8f4eb8	0.06997436
186	0x3ceeafd4	0.029136576
187	0xbcbec16f	-0.023285596
188	0x3d9be419	0.076118656
189	0x3e525d82	0.20543483
190	0xbd79506f	-0.060867723
191	0xbda6a114	-0.08136192
192	0x3d4f8a3e	0.050668947
193	0x3e909335	0.2823731
194	0x3d2cae38	0.042158335
195	0x3d193a5a	0.037409164
196	0x3d643551	0.05571491
197	0x3d1941c6	0.037416242
198	0xbb58ca88	-0.0033079702
199	0x3e9a3fad	0.30126706
200	0x3e41de1f	0.18932389
201	0x3d431cb8	0.04763481
202	0x3e732751	0.23745467
203	0x3e617541	0.22017385
204	0x3e950e0b	0.29112276
205	0xbc826b7e	-0.015920397
206	0xbd9738c2	-0.073838726
207	0x3e490018	0.19628942
208	0xbd247086	-0.040146373
209	0x3d3af8cc	0.045647427
210	0x3e623be8	0.22093165
211	0x3d994f51	0.074858315
212	0x3e888de3	0.2667075
213	0x3e2d2e19	0.16912116
214	0x3d4ff306	0.050768875
215	0xbd6629d2	-0.056192227
216	0xbda7fc6f	-0.08202445
217	0x3e1faa21	0.15592243
218	0xbcc22cda	-0.023703028
219	0x3e830140	0.2558689
220	0x3e87f86d	0.2655672
221	0x3d235f0c	0.039885566
222	0x3e83af82	0.2571984
223	0x3c35ef12	0.011104362
224	0x3cb05054	0.021522678
225	0x3cf82f36	0.03029595
226	0x3e9b27d5	0.30303827
227	0x3c18d464	0.009327982
228	0xbc867cea	-0.016416986
229	0x3d009972	0.031396337
230	0xbcf9717f	-0.030449627
231	0x3e4c897a	0.19974318
232	0x3e68d2af	0.2273662
233	0x3c72a316	0.0148093905
234	0x3cbdfbc4	0.02319134
235	0x3e96f9d8	0.2948749
236	0x3c161bc6	0.009161895
237	0xbda848d7	-0.08217018
238	0x3e693fde	0.2277827
239	0xbd9d2c3a	-0.07674451
240	0x3d938cdb	0.072046004
241	0x3e9306df	0.2871618
242	0x3e895a72	0.26826817
243	0x3ca82a22	0.020527903
244	0x3e8e711a	0.27820665
245	0xbb0a9a22	-0.0021149
246	0xbd85ea3f	-0.065388195
247	0xbc88dfbe	-0.016708251
248	0x3e702fba	0.23455706
249	0x3e6be473	0.23036365
250	0x3bbf099e	0.005830004
251	0xbc8bafcc	-0.0170516
252	0x3e9430a0	0.28943348
253	0x3e678b6d	0.2261178
254	0xbd0d2972	-0.034463353
255	0x3d42d4bc	0.04756616

layer3.bias f4 [7]
0	0x3ebe396e	0.3715319
1	0x3dd39342	0.103308216
2	0x3e435643	0.19075875
3	0x3e58d013	0.21173124
4	0x3e29e16a	0.16589895
5	0x3de900c2	0.11377098
6	0x3e1ae2bf	0.1512556

layer1.weight f4 [128, 28]
0	0x3e1cadff	0.15300749
1	0xbd8f672c	-0.070021
2	0xbe2eb3f8	-0.1706084
3	0xbe3221a4	-0.17395645
4	0xbe267fac	-0.1625964
5	0xbe29f7a7	-0.16598378
6	0xbdeb2104	-0.114809066
7	0x3f1bb37e	0.6082076
8	0x3d3e216c	0.046418592
9	0x3e1517a8	0.14559805
10	0xbd0b3e9a	-0.03399525
11	0x3e0a1b45	0.13486965
12	0xbe219f5b	-0.15783446
13	0x3cb42d14	0.021994151
14	0x3d4651a8	0.048417717
15	0x3da332d0	0.07968676
16	0x3da95a52	0.0826918
17	0xbd26b11a	-0.04069624
18	0x3dcce350	0.10004294
19	0x3bd8d51e	0.0066172024
20	0xbd088e4a	-0.033338822
21	0xbe21b901	-0.1579323
22	0x3e0c83c6	0.13722143
23	0x3dbbf1ef	0.091770045
24	0x3dcec348	0.10095841
25	0x3e214e63	0.15752558
26	0xbda65a75	-0.08122722
27	0x3f46ed5d	0.7770594
28	0xbde72691	-0.11286653
29	0xbdfaff31	-0.12255705
30	0x3e26034f	0.162122
31	0xbd42afda	-0.047530986
32	0xbe33e774	-0.17568761
33	0xbe25b636	-0.16182789
34	0xbe37e8ae	-0.17959854
35	0xbdcc6d96	-0.09981839
36	0xbdc47a2d	-0.09593616
37	0xbe1f4de1	-0.15557052
38	0x3e1dba83	0.1540318
39	0x3d8a24ec	0.067453235
40	0x3d8851fc	0.06656262
41	0x3dfe292a	0.12410195
42	0xbe38fa77	-0.18064295
43	0x3e22bbd7	0.15891968
44	0xbe076d05	-0.13225181
45	0xbdf9254a	-0.121653154
46	0xbd155eac	-0.03646724
47	0xb955e6d6	-0.00020399256
48	0xbd848eb3	-0.0647253
49	0xbd042f4e	-0.032271676
50	0x3de625c5	0.11237673
51	0xbceebe5c	-0.029143505
52	0xbe04c4a7	-0.12965642
53	0xbe1ab33d	-0.15107436
54	0x3e21c1eb	0.1579663
55	0xbe17e2bc	-0.14832586
56	0x3da94d63	0.082667135
57	0xbd07fd02	-0.03320027
58	0xbe1db5d3	-0.15401392
59	0x3de28dc7	0.11062198
60	0x3d78a3e7	0.060703184
61	0xbdd36d30	-0.1032356
62	0x3c36fad4	0.0111682005
63	0xbe121742	-0.14266685
64	0xbcc498e6	-0.023998689
65	0xbde7b246	-0.113133
66	0x3de51f9a	0.11187668
67	0x3dad3325	0.08457021
68	0x3e3936e3	0.18087344
69	0xbdb629f4	-0.08894721
70	0x3d9fc7ca	0.078017786
71	0xbdba1e3a	-0.090877965
72	0xbc1d649d	-0.009606508
73	0x3dc1981c	0.09452841
74	0x3df3741b	0.1188738
75	0x3ddc5ce4	0.10759905
76	0x3d855d24	0.06511906
77	0xbd0a24d6	-0.033726536
78	0xbde80a89	-0.113301344
79	0x3cae1c1c	0.021253638
80	0xbd6af80c	-0.057365462
81	0xbca58daa	-0.020209152
82	0xbb290ec3	-0.0025796152
83	0x3c39dc33	0.0113440035
84	0x3e245487	0.1604787
85	0x3d956618	0.072948635
86	0xbd1bcf75	-0.038039643
87	0x3e1fc2ed	0.15601702
88	0xbe1d7523	-0.15376715
89	0x3e28907d	0.16461368
90	0x3c738c43	0.014864984
91	0x3f44e6a2	0.7691442
92	0x3e1d99db	0.15390722
93	0xbcaf46ec	-0.021396123
94	0x3c1b94dd	0.009495941
95	0x3ba2f95a	0.0049735727
96	0x3dfba441	0.12287188
97	0xbdf2b37b	-0.118506394
98	0x3dd40458	0.10352391
99	0x3e0f861c	0.14016002
100	0x3d8819e8	0.06645566
101	0xbcf91c73	-0.030409073
102	0x3db165e4	0.08662012
103	0xbe19a610	-0.15004754
104	0xbdd6c77c	-0.104872674
105	0x3ce13d1e	0.027494963
106	0x3deb14d4	0.11478582
107	0x3e16d80e	0.14730856
108	0x3d3bfde7	0.045896437
109	0x3ccd179a	0.025035668
110	0xbd447b32	-0.04796905
111	0x3f480677	0.78134865
112	0x3ddb1735	0.10697786
113	0x3d56816e	0.052369528
114	0xbe170a36	-0.14749989
115	0x3cb13ee4	0.021636434
116	0x3d14eed6	0.036360584
117	0x3d14b650	0.03630668
118	0xbd05822a	-0.032594837
119	0x3f07c4a4	0.53034425
120	0xbe1d9805	-0.15390022
121	0xbd6b2ac4	-0.05741383
122	0xbdc33158	-0.09530896
123	0xbd820c93	-0.063500546
124	0xbde64348	-0.11243302
125	0x3d5d7afc	0.054072365
126	0xbe2023f2	-0.15638712
127	0x3d87ea38	0.066364706
128	0xbca04cd2	-0.01956788
129	0x3e2aae75	0.16668113
130	0xbdd962cc	-0.10614547
131	0x3e06cadd	0.13163324
132	0x3cfdc5e3	0.030978149
133	0xbe221412	-0.15827969
134	0x3deea09c	0.116517276
135	0xbca6ae1a	-0.02034669
136	0x3d6a1e14	0.05715759
137	0x3d2f01c8	0.042726308
138	0xbe2a87d5	-0.16653378
139	0x3f1d653d	0.614826
140	0xbdb6eaf8	-0.089315355
141	0x3d90f8a8	0.070786774
142	0xbe04db5b	-0.12974302
143	0x3ccec692	0.02524117
144	0xbccaa89f	-0.024738608
145	0xbcd2821a	-0.025696803
146	0xbbb9d923	-0.0056716367
147	0xbde9b9eb	-0.11412414
148	0x3e0b557b	0.13606827
149	0x3cbc62ec	0.022996388
150	0xbd83a9fc	-0.06428906
151	0xbd8e93ff	-0.06961822
152	0xbd5922b0	-0.053011596
153	0xbe29a588	-0.16567051
154	0x3d93ed6a	0.072230175
155	0x3e2a275f	0.16616581
156	0x3d5b193e	0.05349087
157	0x3df3c6cb	0.11903151
158	0xbe1d8f63	-0.15386729
159	0xbe1166ee	-0.14199421
160	0xbdcf09a4	-0.10109261
161	0x3e1a5983	0.15073209
162	0x3e27514b	0.16339605
163	0x3e39b9df	0.1813731
164	0xbe3202a0	-0.17383814
165	0x3e2b2dbf	0.1671667
166	0xbe2ed76c	-0.17074364
167	0x3dab289b	0.08357354
168	0x3dab7dc5	0.08373598
169	0x3d909ec6	0.07061534
170	0x3d5cc3a0	0.0538975
171	0x3e1b3123	0.15155463
172	0x3e0a585b	0.13510267
173	0xbe2c83a3	-0.1684709
174	0xbd3155b8	-0.04329464
175	0x3ef46798	0.47735286
176	0x3d1651ae	0.03669899
177	0x3af34763	0.0018560704
178	0x3e3b9d86	0.18321809
179	0xbb245a7a	-0.0025078342
180	0xbe13f4ea	-0.14448896
181	0xbdd03aba	-0.10167451
182	0xbe1bfd33	-0.15233307
183	0xbd6c77ac	-0.057731315
184	0xbdc83168	-0.097750485
185	0xbdf74f2b	-0.12075647
186	0xbe1bd1f5	-0.15216811
187	0xbbfeaaad	-0.007771811
188	0xbc82294e	-0.015888836
189	0xbd621b07	-0.055201557
190	0xbd9ee0a1	-0.07757688
191	0xbd2caf63	-0.04215945
192	0xbe2159d4	-0.15756923
193	0xbddae0cc	-0.10687408
194	0x3cefa504	0.02925349
195	0x3f1fa6d8	0.6236396
196	0x3c779443	0.015111032
197	0x3d5ce16e	0.053925924
198	0x3e1a84f3	0.15089779
199	0xbdd2ee8a	-0.10299404
200	0x3d97ef96	0.07418744
201	0x3de84918	0.113420665
202	0x3e291e7e	0.16515538
203	0x3d0b84d5	0.034062225
204	0xbafa3d76	-0.0019091803
205	0x3da11e44	0.07867101
206	0xbdb3ed04	-0.087854415
207	0xbe36bb38	-0.17844856
208	0xbe264d7f	-0.162405
209	0x3e04f63f	0.1298456
210	0xbdce280a	-0.100662306
211	0x3cd7a67c	0.026324503
212	0xbd980abc	-0.074239224
213	0x3e39791f	0.1811261
214	0x3bd3df42	0.0064658234
215	0x3e22161d	0.15828748
216	0xbd9e1d5a	-0.07720442
217	0xbc6ff5fc	-0.01464605
218	0x3d0e0db7	0.03468105
219	0x3e02667b	0.12734406
220	0x3e02271b	0.1271023
221	0xbe34bd74	-0.17650396
222	0xbdd1c252	-0.10242142
223	0xbd18a346	-0.037265085
224	0xbe2d16af	-0.16903184
225	0x3d507e7a	0.050901867
226	0xbd461830	-0.04836291
227	0xbd0f3694	-0.03496416
228	0x3dadeb38	0.0849213
229	0xbcfb68d3	-0.030689633
230	0x3d1c8811	0.0382157
231	0x3f492487	0.7857136
232	0xbda4f613	-0.080547474
233	0xba10fd44	-0.00055309036
234	0x3dc65394	0.0968391
235	0x3e2e6898	0.17032087
236	0x3c762edb	0.01502582
237	0x3dfd039e	0.123542055
238	0xbd7aebfe	-0.061260216
239	0xbe310534	-0.17287141
240	0x3d1f6b68	0.03892079
241	0xbdac4fa1	-0.084136255
242	0x3c9d74fb	0.01922082
243	0x3e0cfa5b	0.13767378
244	0x3e0d8946	0.13821897
245	0x3d63fdd1	0.05566198
246	0xbd40fb92	-0.047114916
247	0xbe00982c	-0.12558049
248	0x3de5354d	0.11191807
249	0x3de82843	0.11335804
250	0xbdee7214	-0.116428524
251	0x3f2b0926	0.66810834
252	0x3dbf4b2e	0.09340511
253	0xbda7ec7c	-0.08199403
254	0x3df0547c	0.11734864
255	0xbcd0604a	-0.02543654

layer1.bias f4 [128]
0	0x3f34a11f	0.7055835
1	0xbc932876	-0.01796363
2	0x3de0608c	0.10955915
3	0x3f125e37	0.5717501
4	0x3f3b53f3	0.7317497
5	0xbddf0043	-0.10888722
6	0x3f43a628	0.7642541
7	0xbd9fb59f	-0.07798313
8	0x3f1f6587	0.62264293
9	0xbd42612a	-0.047455944
10	0xbcbf942c	-0.023386084
11	0xbd8524ba	-0.06501146
12	0x3edb303b	0.42810234
13	0x3ed54936	0.41657418
14	0xbdfbb2a0	-0.122899294
15	0xbdbaabd3	-0.09114804
16	0xbdd2a820	-0.102859735
17	0x3d5ba9b2	0.05362863
18	0xbbc3dc36	-0.005977179
19	0xbd4649b1	-0.04841012
20	0xbe0e1f5f	-0.13879155
21	0xbe1fe761	-0.15615608
22	0x3f1e6c64	0.6188414
23	0x3f1a456a	0.6026217
24	0x3ef6ec04	0.4822694
25	0x3d0b437a	0.033999898
26	0x3f1596f4	0.5843346
27	0x3f3ff2d7	0.7497992
28	0xbd943a86	-0.07237725
29	0x3f41488e	0.75501335
30	0x3f485896	0.7826017
31	0x3f393d7c	0.7235944
32	0xbe0356bb	-0.12826054
33	0xbda58b92	-0.080832615
34	0x3f175b17	0.5912337
35	0x3cecf70c	0.028926395
36	0x3f36cd7b	0.7140729
37	0x3f44b61c	0.76840377
38	0xbd97e91a	-0.074175075
39	0x3f2f6847	0.6851849
40	0xbdb7a877	-0.08967679
41	0x3f3beca6	0.7340797
42	0x3f2ace6e	0.66721237
43	0x3de8c87a	0.11366363
44	0x3f45cd45	0.7726634
45	0xbe1f15a3	-0.15535598
46	0x3e1ce2d9	0.1532091
47	0x3f3b1560	0.7307949
48	0x3f37ba26	0.71768415
49	0xbe2eb4e4	-0.17061192
50	0xbe168016	-0.14697298
51	0x3f2c4f4e	0.6730851
52	0x3d809f78	0.06280416
53	0xbdba28e3	-0.0908983
54	0x3db284f4	0.08716765
55	0x3f3ddfc3	0.7416956
56	0xbc1d0a56	-0.009584984
57	0xbd930396	-0.07178418
58	0x3d8b3b60	0.06798434
59	0x3d935c60	0.071953535
60	0x3f0f4ec1	0.55979544
61	0x3f3ecd86	0.74532354
62	0x3f3c7a4a	0.736241
63	0xbe07a11e	-0.13245055
64	0x3c70974c	0.0146845095
65	0xbd7ca1e8	-0.061677843
66	0x3f491f01	0.78562933
67	0x3f47bffe	0.7802733
68	0xbcd292c2	-0.025704745
69	0x3dfb8298	0.12280768
70	0x3f15a13e	0.5844916
71	0x3f4b0e68	0.7931886
72	0x3f3a906f	0.7287664
73	0x3d90f902	0.070787445
74	0xbe0e3b22	-0.13889745
75	0x3f40b14c	0.75270534
76	0x3f3d534e	0.7395524
77	0x3de370dd	0.11105511
78	0x3f3e68cc	0.7437866
79	0xbe1c39a1	-0.15256359
80	0x3db0a72c	0.086256355
81	0x3e1bc42b	0.15211551
82	0xbe2ebeb4	-0.17064935
83	0x3f4b58f1	0.7943259
84	0xbdb7b9ea	-0.08971007
85	0x3dd97464	0.10617903
86	0x3f2fcdc5	0.68673354
87	0x3efa87bc	0.48931682
88	0xbcb25e54	-0.021773495
89	0x3ee8c110	0.45459795
90	0x3f461e59	0.77390057
91	0xbe362568	-0.17787707
92	0x3f45d8f9	0.772842
93	0x3f009532	0.50227654
94	0x3f255e75	0.64597255
95	0x3d9d0fe2	0.07669045
96	0xbe2a347a	-0.1662158
97	0x3f42e190	0.7612543
98	0x3dcc929c	0.09988901
99	0x3f0fe558	0.56209326
100	0x3db6dd54	0.08928934
101	0x3f449db6	0.7680315
102	0xbdda763b	-0.10667082
103	0xbe17e1ae	-0.14832184
104	0x3f3b1741	0.7308236
105	0x3f1a6050	0.6030321
106	0x3f2eded0	0.68308735
107	0x3f147d79	0.58003956
108	0x3f0aacda	0.5417
109	0x3f0876d9	0.5330635
110	0xbd329a4c	-0.04360418
111	0x3f43fefa	0.7656094
112	0x3f01be12	0.5068065
113	0x3ef6283f	0.4807758
114	0xbe16d5a2	-0.14729932
115	0x3bc31b76	0.0059542013
116	0x3f362204	0.71145654
117	0xbc162058	-0.009162985
118	0xbe19b0ec	-0.15008897
119	0x3dd2a090	0.10284531
120	0x3f287a10	0.6581125
121	0x3f34b369	0.7058626
122	0x3f02f916	0.51161325
123	0x3f0da18a	0.55324614
124	0x3f2208c6	0.6329464
125	0x3f24bac6	0.64347494
126	0x3f374a05	0.7159732
127	0x3f344ee9	0.7043291

layer2.weight f4 [128, 128]
0	0x3f12a6b1	0.572856
1	0x3cce88be	0.025211688
2	0xbc24c042	-0.010055603
3	0x3eee9658	0.46599078
4	0x3ee7479f	0.4517183
5	0x3d2e8a90	0.042612612
6	0x3f085287	0.53250927
7	0xbda8b7a3	-0.08238151
8	0x3f064dbe	0.52462375
9	0xbd5bbb3b	-0.053645354
10	0x3cbc6f90	0.023002416
11	0xbd8d194f	-0.06889593
12	0x3effef0b	0.49987063
13	0x3eeb1e8e	0.4592175
14	0x3d1cf94f	0.038323697
15	0x3d8f5f02	0.07000543
16	0xbc6af9c4	-0.014341775
17	0x3d1c7dad	0.03820579
18	0xbda53df1	-0.08068455
19	0xbd2298a4	-0.03969635
20	0xbce9e5d4	-0.028551973
21	0x3daaf916	0.083482906
22	0x3f13f64e	0.57797706
23	0x3efaba5b	0.48970303
24	0x3f0c72e1	0.5486279
25	0x3daa5e23	0.083187364
26	0x3f08425d	0.5322626
27	0x3ee523bd	0.4475383
28	0x3d16a910	0.036782324
29	0x3f1068d5	0.5640996
30	0x3ee01b7b	0.43770966
31	0x3f001c45	0.50043136
32	0xbd7bc1f8	-0.06146428
33	0x3d3ba1ff	0.04580879
34	0x3f068c0e	0.52557456
35	0xbd565804	-0.052330032
36	0x3f069905	0.5257724
37	0x3f15d24c	0.5852401
38	0x3aa45bfa	0.0012539618
39	0x3f0a9b31	0.54143053
40	0x3da7a2af	0.08185326
41	0x3effe699	0.4998062
42	0x3f055b83	0.5209276
43	0xbd915b90	-0.07097542
44	0x3f0623ef	0.5239858
45	0x3d29cc9a	0.04145489
46	0x3d2ea7ac	0.042640373
47	0x3f1644f4	0.58698964
48	0x3ee5be6a	0.44871837
49	0x3c3cf20c	0.011532318
50	0xbca1e9da	-0.01976483
51	0x3f136c02	0.5758668
52	0x3d4048dc	0.046944484
53	0x3d3edf92	0.046599932
54	0xbd63c622	-0.055608876
55	0x3f155d65	0.58345634
56	0xbce5bced	-0.028044188
57	0x3da82df1	0.08211888
58	0xbcf7bfeb	-0.03024288
59	0xbca91aef	-0.020642726
60	0x3f063a92	0.5243312
61	0x3f0fe607	0.5621037
62	0x3f0a55f1	0.54037386
63	0x3c8fd554	0.017557777
64	0xbd9f3add	-0.07774899
65	0xbd6b7f8c	-0.057494685
66	0x3f0e4790	0.55577946
67	0x3f1647e0	0.5870342
68	0x3d828b3f	0.06374215
69	0xbd2944e9	-0.041325483
70	0x3ef9f0b8	0.48816466
71	0x3ef8f293	0.4862257
72	0x3eea2cb4	0.4573723
73	0x3bcbaf82	0.0062159905
74	0xbd11d30e	-0.035601668
75	0x3efa7a3e	0.48921388
76	0x3f111797	0.5667662
77	0x3c069dce	0.0082163345
78	0x3f068532	0.5254699
79	0xbc059cf6	-0.008155098
80	0x3d72e023	0.059295785
81	0x39588c70	0.00020651682
82	0xbcd5217c	-0.026016943
83	0x3ee9dc0e	0.456757
84	0xbbf0ca9c	-0.0073483717
85	0xbd27a9a9	-0.040933285
86	0x3f083281	0.5320206
87	0x3ef22c9f	0.47299668
88	0x3d9cb241	0.07651187
89	0x3f1784d5	0.5918706
90	0x3f148b0c	0.5802467
91	0xbd491a4e	-0.04909735
92	0x3ef00ed2	0.46886307
93	0x3ef8d3e9	0.48599175
94	0x3ef23e62	0.4731322
95	0xbda13f69	-0.07873423
96	0x3b0813be	0.002076372
97	0x3f03ed01	0.51533514
98	0x3d108904	0.03528692
99	0x3f1af613	0.6053173
100	0xbd6a0d0c	-0.05714135
101	0x3ee4b9c8	0.4467299
102	0xbd1371f0	-0.03599733
103	0xbcb5c3ec	-0.02218815
104	0x3ee6e2dd	0.45094958
105	0x3efb22d7	0.49050018
106	0x3eef3fd4	0.46728384
107	0x3f0dd539	0.55403477
108	0x3edef63b	0.43547234
109	0x3ef1e19a	0.47242433
110	0x3d43751c	0.047719106
111	0x3f0c17d4	0.5472386
112	0x3f059fb5	0.5219682
113	0x3f0605ff	0.523529
114	0xbd93ad8c	-0.07210836
115	0x3c887332	0.016656492
116	0x3ef8501b	0.48498616
117	0xbc47b0ef	-0.01218818
118	0x3da9de13	0.082943104
119	0x3c380507	0.011231667
120	0x3eee7aea	0.4657815
121	0x3f1a972e	0.6038693
122	0x3efe39ba	0.49653417
123	0x3f12a6dd	0.57285863
124	0x3f0f136f	0.5588903
125	0x3ef5fc33	0.48043975
126	0x3efc5eb6	0.4929101
127	0x3ef6e0cd	0.48218384
128	0x3f1be062	0.60889256
129	0xbd943c70	-0.0723809
130	0x3d4cbe2c	0.04998605
131	0x3f260802	0.6485597
132	0x3f14d460	0.5813656
133	0xbcbea6ec	-0.023272954
134	0x3f12ce3b	0.5734593
135	0x3d985a30	0.07439077
136	0x3f132b7c	0.57488227
137	0xba6898c8	-0.0008872864
138	0xbd9894c8	-0.07450253
139	0x3d898145	0.06714109
140	0x3f1700b2	0.58985436
141	0x3f1173b5	0.5681718
142	0xbcd4ba96	-0.025967877
143	0x3c6077f7	0.013700477
144	0x3d2c0b1c	0.042002782
145	0xbd8a0960	-0.067400694
146	0xbd9a1b90	-0.075247884
147	0xbd76bfbb	-0.060241442
148	0xbd191646	-0.037374757
149	0xbd5f6d59	-0.05454764
150	0x3f13399f	0.575098
151	0x3f0137f3	0.50475997
152	0x3f08e578	0.5347514
153	0x3ce95f0a	0.028487701
154	0x3f137d0e	0.57612693
155	0x3f22b9bd	0.63564664
156	0x3bea2fdc	0.0071468186
157	0x3f212b4b	0.62956685
158	0x3f1a4872	0.6026679
159	0x3eff68e1	0.49884704
160	0xbcfe8fdf	-0.031074462
161	0xbd3b77a3	-0.04576839
162	0x3f0ed950	0.5580034
163	0xbc589f64	-0.013221595
164	0x3f1c7ebf	0.611309
165	0x3f0c0beb	0.54705685
166	0x3daa8d70	0.08327758
167	0x3f1311c9	0.57449013
168	0x3d69d94b	0.057091992
169	0x3f23a521	0.6392384
170	0x3f0750bb	0.5285756
171	0xbd55fc02	-0.052242287
172	0x3f1b45cf	0.60653394
173	0xbd9d55c5	-0.07682375
174	0x3a1add81	0.00059076404
175	0x3f00ba02	0.50283825
176	0x3f189785	0.596062
177	0xbc2c2e5a	-0.010509098
178	0x3bb52c14	0.005528936
179	0x3f17cc40	0.59296036
180	0xbd1ce3bf	-0.038303133
181	0x3d853b93	0.065055035
182	0xbc3b28b6	-0.01142328
183	0x3f0ab790	0.54186344
184	0xbd9a6ac7	-0.075398974
185	0xbd26a20e	-0.04068189
186	0x3da361a7	0.0797761
187	0x3d241ae4	0.040064707
188	0x3eff8ba9	0.4991124
189	0x3f0acb0f	0.5421609
190	0x3f22ae92	0.63547623
191	0xbd34c2bc	-0.044131026
192	0x3cfe855b	0.031069448
193	0xbd6c03b4	-0.05762072
194	0x3f0d85df	0.55282396
195	0x3f0cf483	0.55060595
196	0xbd5cf3a2	-0.053943284
197	0xbd706f83	-0.058700096
198	0x3f263ad3	0.6493351
199	0x3f06ef82	0.5270921
200	0x3f16fb0f	0.58976835
201	0xbd8668df	-0.06562971
202	0x3ccbc80e	0.024875667
203	0x3f264b04	0.64958215
204	0x3f10ab1c	0.5651109
205	0xbd44942c	-0.04799287
206	0x3f11377d	0.56725293
207	0x3c9a8287	0.018861068
208	0xbce3417b	-0.027741184
209	0x3d9c7fab	0.07641538
210	0xbb53fa62	-0.0032345285
211	0x3f143eb6	0.5790819
212	0x3d593808	0.05303195
213	0x3d6bab24	0.05753626
214	0x3f05d3cb	0.52276295
215	0x3f2a0947	0.66420406
216	0xbb7d7dc1	-0.0038679691
217	0x3f233e0c	0.6376655
218	0x3f290c4e	0.660344
219	0xbd8ce46f	-0.06879508
220	0x3f0badde	0.54562175
221	0x3f1b6a51	0.607091
222	0x3f26d747	0.6517224
223	0x3d67805a	0.05651889
224	0x3c63adfe	0.013896463
225	0x3f2142fe	0.62992847
226	0x3d58cae4	0.052927867
227	0x3f098313	0.5371563
228	0xbd813fad	-0.06310973
229	0x3f28a576	0.65877473
230	0x3d6571f2	0.05601687
231	0xbd421ef5	-0.047392804
232	0x3f060a03	0.52359027
233	0x3f14e753	0.5816547
234	0x3f19c8df	0.6007213
235	0x3f269f00	0.65086365
236	0x3f193de4	0.5986006
237	0x3f2338d6	0.637586
238	0x3d7d8f8b	0.06190447
239	0x3ef971fb	0.48719773
240	0x3f27172f	0.6526975
241	0x3f0f1b27	0.55900806
242	0xbd1a83b2	-0.03772325
243	0xbd476262	-0.04867781
244	0x3f019644	0.5061991
245	0xbd9079b4	-0.07054463
246	0x3da6db41	0.08147288
247	0x3d0b7674	0.034048513
248	0x3f1e5ed7	0.61863464
249	0x3f1949a5	0.59878
250	0x3f2a1936	0.6644472
251	0x3f176197	0.59133285
252	0x3f174f57	0.5910544
253	0x3f15d0bd	0.58521634
254	0x3f1cda31	0.61270434
255	0x3f08bc0e	0.5341195

layer2.bias f4 [128]
0	0x3f04f156	0.5193075
1	0x3efeb5ed	0.49748173
2	0xbc8bda22	-0.017071787
3	0xbd6419df	-0.055688735
4	0x3d07336e	0.03300803
5	0xbd607208	-0.05479625
6	0x3ef92a94	0.48665297
7	0x3c8a82b6	0.016908031
8	0x3ccedc16	0.02525143
9	0x3d4d5bc4	0.050136343
10	0xbd5880d6	-0.052857243
11	0x3d983e05	0.07433704
12	0x3d7953f4	0.06087108
13	0x3be0bfc2	0.006858797
14	0x3edfb230	0.43690634
15	0x3f05cdce	0.5226716
16	0x3f1f36c8	0.62192965
17	0x3ed57d97	0.4169738
18	0x3f19f50a	0.60139525
19	0xbd7b5f99	-0.061370466
20	0xbd8218c6	-0.063523814
21	0x3d3b3427	0.045704033
22	0xbbea85e4	-0.0071570743
23	0x3da309dc	0.07960865
24	0x3ef9745a	0.48721582
25	0xbc0571ae	-0.008144779
26	0x3cf246cb	0.029574772
27	0xbd0f3e46	-0.034971498
28	0x3d435eba	0.04769776
29	0x3f1616f1	0.58628756
30	0x3d8177cd	0.06321678
31	0x3ce3f4ad	0.027826631
32	0xbd4a6adb	-0.04941831
33	0x3efd0657	0.494189
34	0x3f198a77	0.59976906
35	0xbd786c39	-0.060650084
36	0x3f1097b8	0.56481504
37	0xbdae6733	-0.085157774
38	0x3eeeefa8	0.46667218
39	0x3f018342	0.5059091
40	0xbdb105f8	-0.086437166
41	0x3d119b13	0.03554828
42	0xbd148036	-0.036255084
43	0xbd7a7a52	-0.06115181
44	0xbcca3fd6	-0.024688642
45	0x3f049299	0.5178619
46	0xbd12c85e	-0.035835616
47	0x3f063af0	0.5243368
48	0x3cf67ac2	0.030087832
49	0xbcc10083	-0.023559814
50	0x3d9d3b85	0.07677368
51	0xbd79732c	-0.060900852
52	0xbb9b7c19	-0.004745018
53	0x3f093f4e	0.5361222
54	0xbd4a1719	-0.049338434
55	0x3f072b54	0.5280049
56	0x3f16dd23	0.5893118
57	0xbd9a97e6	-0.075485036
58	0xbcdf2948	-0.027241364
59	0x3d5e8369	0.05432454
60	0x3d54c446	0.051944993
61	0x3f0344c2	0.5127679
62	0xbd979500	-0.07401466
63	0x3d86bb51	0.065786965
64	0x3ccde45e	0.025133308
65	0x3f163bf3	0.58685225
66	0xbd043d5a	-0.032285072
67	0xbbb3e2d4	-0.0054896865
68	0xbd48da13	-0.049036097
69	0xbca7c066	-0.020477485
70	0xbd2728c8	-0.040810376
71	0x3f2083de	0.62701213
72	0x3f14283e	0.57873905
73	0xbd8c272b	-0.06843408
74	0x3f0576e5	0.52134544
75	0x3f104aad	0.56363946
76	0x3ef2adb5	0.47398153
77	0xbd68c532	-0.056828685
78	0xbc74893b	-0.014925296
79	0x3ef6cca5	0.48203006
80	0xbcd5b884	-0.02608896
81	0xbbdc1b6d	-0.0067171366
82	0x3ee67626	0.45012015
83	0xbcfb4946	-0.030674588
84	0x3edcf814	0.4315802
85	0x3f0a7e76	0.54099214
86	0xbd280de8	-0.041028887
87	0x3d266c0c	0.040630385
88	0xbd0450d7	-0.032303657
89	0x3ed65b74	0.41866648
90	0xbcc663a3	-0.024217432
91	0x3f0ba10d	0.5454262
92	0x3f12f4c7	0.5740475
93	0xbd776d6b	-0.060407083
94	0x3f188333	0.59575194
95	0x3cf50f3b	0.029914489
96	0xbc825382	-0.01590896
97	0x3da5a707	0.080884986
98	0x3f03c906	0.5147861
99	0xbda9bd03	-0.08288004
100	0x3d175478	0.03694579
101	0x3da4567d	0.08024309
102	0xbd26ffd8	-0.040771335
103	0x3f1193b0	0.5686598
104	0x3f1ecf68	0.62035227
105	0x3b9bca57	0.0047543454
106	0xbd937af6	-0.07201187
107	0x3f0323f3	0.5122673
108	0xbc932a10	-0.017964393
109	0xbc14a0e8	-0.009071566
110	0x3efe4161	0.49659255
111	0x3d25bdd4	0.040464237
112	0xbd488e21	-0.04896367
113	0x3f1c45f7	0.6104426
114	0x3f053bad	0.52044183
115	0xbd97810a	-0.07397659
116	0x3ef6c788	0.48199105
117	0xbd290cd6	-0.041272007
118	0xbd0f1a2e	-0.034937076
119	0x3cb84c8b	0.022497436
120	0x3ed773e6	0.4208061
121	0x3efb3a26	0.490678
122	0xbd96acd0	-0.0735718
123	0x3d7af12a	0.06126515
124	0x3f029006	0.5100101
125	0x3f10a804	0.5650637
126	0x3c8823da	0.016618658
127	0xbbfbf72b	-0.007689377
