test/results/breakout_0/DQN/models_300000.pth (torch, 173013 bytes, 12 tensors)

layer1.weight f4 [128, 28]
0	0x3ded4a93	0.115864895
1	0xbd59371a	-0.053031065
2	0xbe047c49	-0.12938036
3	0xbe070e89	-0.13189138
4	0xbdfbfd62	-0.12304188
5	0xbe00b706	-0.12569818
6	0xbdb2416e	-0.08703886
7	0x3f71076b	0.94151944
8	0x3d100ba3	0.035167348
9	0x3de1ab0b	0.11018952
10	0xbcd2ccca	-0.025732417
11	0x3dd1079c	0.102065295
12	0xbdf4b0a7	-0.11947756
13	0x3c88971e	0.01667362
14	0x3d16581e	0.03670513
15	0x3d76fb7f	0.06029844
16	0x3d80364c	0.06260356
17	0xbcfc49c6	-0.030796897
18	0x3d9b4f49	0.07583482
19	0x3ba469f5	0.005017514
20	0xbcce9e16	-0.025221866
21	0xbdf4d5f5	-0.119548716
22	0x3dd4c69e	0.10389446
23	0x3d8e6abe	0.06953953
24	0x3d9ca61f	0.076488726
25	0x3df43ae1	0.11925293
26	0xbd7bc3de	-0.06146609
27	0x3f897651	1.0739232
28	0xbdaf289e	-0.08552669
29	0xbdbe3220	-0.09286904
30	0x3dfb3d2e	0.122675285
31	0xbd138ce2	-0.03602303
32	0xbe0862e4	-0.13318974
33	0xbdfac609	-0.122448035
34	0xbe0b63cd	-0.1361229
35	0xbd9afb31	-0.07567442
36	0xbd94ed71	-0.07271851
37	0xbdf1516d	-0.11783109
38	0x3deef835	0.116684355
39	0x3d51169e	0.05104696
40	0x3d4e4046	0.050354265
41	0x3dc09d83	0.09405043
42	0xbe0c3124	-0.1369062
43	0x3df64e73	0.12026682
44	0xbdccdc1c	-0.1000292
45	0xbdbcc7bb	-0.09217783
46	0xbce2158b	-0.027598163
47	0xb9221c74	-0.00015460124
48	0xbd489aca	-0.048975743
49	0xbcc81100	-0.024422169
50	0x3dae5b30	0.085134864
51	0xbcb4f76e	-0.02209064
52	0xbdc8e8b9	-0.09810013
53	0xbdea1fc3	-0.11431839
54	0x3df4e2ed	0.11957345
55	0xbde5dba9	-0.112235375
56	0x3d802bb7	0.06258338
57	0xbccdbc16	-0.0251141
58	0xbdeef0ad	-0.11666999
59	0x3dab9f61	0.083800085
60	0x3d3c64c8	0.04599455
61	0xbda02a97	-0.07820623
62	0x3c0ab16e	0.008465154
63	0xbddd2a77	-0.10799115
64	0xbc950513	-0.018190896
65	0xbdaf9866	-0.085739896
66	0x3dad8975	0.084734835
67	0x3d835b9f	0.0641396
68	0x3e0c5e75	0.13707907
69	0xbd8a14c4	-0.06742242
70	0x3d7202bf	0.05908465
71	0xbd8d0bf6	-0.06887047
72	0xbbee6ebd	-0.0072763846
73	0x3d92b5b2	0.07163562
74	0x3db87fb9	0.09008736
75	0x3da7151f	0.081583254
76	0x3d49c4fc	0.049260125
77	0xbcd1167e	-0.02552342
78	0xbdafdf00	-0.08587456
79	0x3c840a64	0.016118236
80	0xbd3222b4	-0.043490127
81	0xbc7a875e	-0.015291063
82	0xbafff1ca	-0.0019527015
83	0x3c0cda71	0.008597002
84	0x3df8a36e	0.12140547
85	0x3d6220b8	0.055206984
86	0xbcebe683	-0.02879644
87	0x3df1fbad	0.118155815
88	0xbdee8937	-0.116472654
89	0x3dff2ea5	0.124600686
90	0x3c3891d7	0.01126524
91	0x3f880c28	1.062871
92	0x3deec3ed	0.116584636
93	0xbc84ea80	-0.0162251
94	0x3beb88bd	0.0071879313
95	0x3b76a7ec	0.003763671
96	0x3dbeb059	0.093109794
97	0xbdb7ef40	-0.0898118
98	0x3da0a15b	0.07843276
99	0x3dd9626a	0.10614474
100	0x3d4de90a	0.05027107
101	0xbcbcc0f8	-0.023041233
102	0x3d8681b8	0.06567711
103	0xbde880a5	-0.11352662
104	0xbda2ccf6	-0.079492494
105	0x3caaa87d	0.020832295
106	0x3db23846	0.087021396
107	0x3de44ba4	0.1114724
108	0x3d0e73b9	0.03477833
109	0x3c9b74a2	0.018976513
110	0xbd14ee3a	-0.036360003
111	0x3f895a00	1.0730591
112	0x3da6264a	0.08112772
113	0x3d2295ec	0.039693758
114	0xbde496de	-0.11161588
115	0x3c86647a	0.016405333
116	0x3ce16dce	0.02751818
117	0x3ce11909	0.027477758
118	0xbcc9fa76	-0.024655562
119	0x3f61ee37	0.8825411
120	0xbdeec0fd	-0.11657903
121	0xbd3248be	-0.043526404
122	0xbd93f07e	-0.072236046
123	0xbd44fb47	-0.0480912
124	0xbdae72cd	-0.0851799
125	0x3d27e6ec	0.04099171
126	0xbdf288c8	-0.11842495
127	0x3d4d9edd	0.050200332
128	0xbc72c43d	-0.014817295
129	0x3e014c98	0.12626874
130	0xbda4d948	-0.080492556
131	0x3dcbdfdc	0.09954807
132	0x3cc05198	0.023476407
133	0xbdf55a6c	-0.11980137
134	0x3db4e11c	0.08831999
135	0xbc7c4524	-0.015397344
136	0x3d317f3a	0.043334223
137	0x3d04b6a5	0.032400746
138	0xbe012cfd	-0.12614818
139	0x3f719125	0.943621
140	0xbd8aa587	-0.06769853
141	0x3d5b7c84	0.053585544
142	0xbdc90985	-0.09816269
143	0x3c9ca879	0.019123303
144	0xbc99aeb5	-0.018760065
145	0xbc9f71e1	-0.019463481
146	0xbb8cd825	-0.0042982274
147	0xbdb13419	-0.08652515
148	0x3dd2f060	0.10299754
149	0x3c8ebd43	0.017424231
150	0xbd47506d	-0.048660684
151	0xbd57fc4c	-0.052730843
152	0xbd24a6e8	-0.040198237
153	0xbe0073d6	-0.12544188
154	0x3d5febb0	0.05466813
155	0x3e00de11	0.12584712
156	0x3d2627c8	0.040565282
157	0x3db8bdbb	0.09020563
158	0xbdeeb335	-0.11655275
159	0xbddc21f6	-0.10748665
160	0xbd9cd860	-0.07658458
161	0x3de9902a	0.1140445
162	0x3dfd4158	0.12365979
163	0x3e0cc0b2	0.13745382
164	0xbe06f747	-0.13180266
165	0x3e01b4bd	0.12666602
166	0xbe0496de	-0.12948176
167	0x3d81b088	0.06332499
168	0x3d81f636	0.06345789
169	0x3d5af5b2	0.05345697
170	0x3d276075	0.040863473
171	0x3deae933	0.114702605
172	0x3dd166a0	0.10224652
173	0xbe02cc77	-0.1277331
174	0xbd067599	-0.032826994
175	0x3f58d53d	0.84700376
176	0x3ce38219	0.027771996
177	0x3ab85e2d	0.0014066153
178	0x3e0e2b6f	0.13883756
179	0xbaf8ac9f	-0.0018972344
180	0xbddff6e7	-0.10935765
181	0xbd9db24c	-0.07700023
182	0xbdec2fb7	-0.115325384
183	0xbd33426a	-0.04376451
184	0xbd97c928	-0.074114144
185	0xbdbb6405	-0.091499366
186	0xbdebea85	-0.115193404
187	0xbbc1008e	-0.0058899587
188	0xbc4524c7	-0.012032694
189	0xbd2b4b39	-0.041819785
190	0xbd70b285	-0.058764
191	0xbd02f043	-0.031967413
192	0xbdf44b85	-0.11928467
193	0xbda5fe64	-0.08105162
194	0x3cb5a46c	0.022173129
195	0x3f74d885	0.9564288
196	0x3c3b97d7	0.011449776
197	0x3d277651	0.04088432
198	0x3de9d5b5	0.114177145
199	0xbd9fc715	-0.07801644
200	0x3d65eef2	0.05613608
201	0x3db0110c	0.085970014
202	0x3e000559	0.1250204
203	0x3cd33a09	0.02578451
204	0xbabd9dfa	-0.0014466636
205	0x3d73f4e3	0.059559714
206	0xbd886712	-0.06660284
207	0xbe0a81b7	-0.13526045
208	0xbdfbafd6	-0.122893974
209	0x3dc9305c	0.09823677
210	0xbd9c373d	-0.07627723
211	0x3ca37c2d	0.019956673
212	0xbd6617ab	-0.056174915
213	0x3e0c9022	0.13726857
214	0x3ba08438	0.004898574
215	0x3df55d65	0.11980704
216	0xbd6f95f1	-0.058492605
217	0xbc35e126	-0.011101043
218	0x3cd72b68	0.026265815
219	0x3dc57d25	0.0964301
220	0x3dc52199	0.09625549
221	0xbe090364	-0.133802
222	0xbd9edb33	-0.07756653
223	0xbce6fc7d	-0.028196568
224	0xbe0344c4	-0.12819201
225	0x3d1de2b1	0.038546268
226	0xbd162be9	-0.03666297
227	0xbcd8f310	-0.026483089
228	0x3d83e5b7	0.06440299
229	0xbcbe82e6	-0.023255777
230	0x3ced0ddf	0.028937278
231	0x3f8ad7cd	1.0847107
232	0xbd799d18	-0.060940832
233	0xb9db8377	-0.00041868884
234	0x3d965999	0.07341308
235	0x3e0443c0	0.1291647
236	0x3c3a8bc8	0.0113858655
237	0x3dbfbd0a	0.09362228
238	0xbd3e2372	-0.046420522
239	0xbe063936	-0.13107762
240	0x3cf17c5f	0.02947825
241	0xbd82a1ea	-0.06378539
242	0x3c6e88ec	0.014559012
243	0x3dd57f14	0.10424629
244	0x3dd65d64	0.104670316
245	0x3d2cad42	0.04215742
246	0xbd123d49	-0.035702977
247	0xbdc2e15d	-0.09515641
248	0x3dad9ad0	0.08476794
249	0x3daff6c9	0.085919924
250	0xbdb4be36	-0.08825342
251	0x3f7ea115	0.9946454
252	0x3d90f0ae	0.07077156
253	0xbd7e312e	-0.06205862
254	0x3db62804	0.08894351
255	0xbc9dcd21	-0.019262852

layer1.bias f4 [128]
0	0x3f82276f	1.0168284
1	0xbc5ec43e	-0.0135965925
2	0x3daa06bd	0.083020665
3	0x3f68d3f1	0.90948397
4	0x3f8447f7	1.0334462
5	0xbda90464	-0.082527906
6	0x3f885dc5	1.0653616
7	0xbd71e853	-0.059059452
8	0x3f74f2a6	0.9568275
9	0xbd13505b	-0.035965305
10	0xbc9128d4	-0.017719664
11	0xbd497380	-0.049182415
12	0x3f4d2005	0.8012698
13	0x3f4b69e5	0.7945846
14	0xbdbebb56	-0.09313075
15	0xbd8d7629	-0.06907303
16	0xbd9f8fc2	-0.077910915
17	0x3d2691b7	0.04066631
18	0xbb9473ee	-0.0045304215
19	0xbd1651fd	-0.036699284
20	0xbdd746e0	-0.10511565
21	0xbdf230b3	-0.11825695
22	0x3f7303c8	0.94927645
23	0x3f70e7b5	0.94103557
24	0x3f591aad	0.8480633
25	0x3cd2d45f	0.025736032
26	0x3f6d241c	0.92633224
27	0x3f86ac64	1.052136
28	0xbd605f5a	-0.054778434
29	0x3f876a29	1.0579273
30	0x3f8a1408	1.0787363
31	0x3f838b78	1.0276937
32	0xbdc6d82b	-0.097091995
33	0xbd7a8423	-0.06116117
34	0x3f6debee	0.92938125
35	0x3cb3a1f2	0.021927807
36	0x3f82ea17	1.0227689
37	0x3f87bd09	1.0604564
38	0xbd65e530	-0.056126773
39	0x3f810d58	1.0082197
40	0xbd8b33a4	-0.06796959
41	0x3f854fa9	1.0414935
42	0x3f7ccdd1	0.9875155
43	0x3db076f4	0.086164385
44	0x3f89d308	1.0767527
45	0xbdf0ff9d	-0.11767504
46	0x3ded9f1c	0.11602613
47	0x3f851308	1.0396433
48	0x3f83171f	1.0241431
49	0xbe047cf9	-0.12938298
50	0xbde3c7b0	-0.11122072
51	0x3f7ea5b8	0.99471617
52	0x3d42ebe6	0.04758825
53	0xbd8d13f6	-0.06888573
54	0x3d875904	0.06608775
55	0x3f859c5e	1.0438344
56	0xbbedde48	-0.007259164
57	0xbd5e8cea	-0.054333605
58	0x3d52c7c6	0.05146005
59	0x3d5f1224	0.05446066
60	0x3f682213	0.90676993
61	0x3f867a29	1.050603
62	0x3f852ba1	1.040394
63	0xbdcd2d26	-0.10018377
64	0x3c365a22	0.011129888
65	0xbd3f7250	-0.046739876
66	0x3f89b518	1.075839
67	0x3f8a3e28	1.0800219
68	0xbc9f7ef8	-0.019469723
69	0x3dbeca12	0.093158856
70	0x3f6c7e3f	0.92380136
71	0x3f8b85dc	1.0900226
72	0x3f8455ff	1.0338744
73	0x3d5b7d0c	0.05358605
74	0xbdd7720f	-0.10519802
75	0x3f871423	1.055302
76	0x3f85e99c	1.0461917
77	0x3dac45e7	0.0841177
78	0x3f864165	1.0488707
79	0xbdec9065	-0.115509786
80	0x3d85f2af	0.06540429
81	0x3debd46a	0.11515124
82	0xbe048456	-0.12941107
83	0x3f8ab44a	1.083627
84	0xbd8b40ba	-0.06799455
85	0x3da4e71a	0.080518916
86	0x3f801517	1.0006436
87	0x3f5a0a4a	0.8517195
88	0xbc873c0e	-0.016508128
89	0x3f53a42f	0.826724
90	0x3f89b9f0	1.0759869
91	0xbe0a115b	-0.13483183
92	0x3f882cec	1.0638709
93	0x3f5a8780	0.85363007
94	0x3f7a10ea	0.9768206
95	0x3d6de728	0.058081776
96	0xbe00e8ca	-0.12588802
97	0x3f887320	1.0660133
98	0x3d9b15a3	0.07572486
99	0x3f68c7b1	0.90929705
100	0x3d8a9b4c	0.06767902
101	0x3f88add3	1.0678047
102	0xbda5b03d	-0.080902554
103	0xbde5da16	-0.11223237
104	0x3f850a6e	1.0393808
105	0x3f7110e5	0.94166404
106	0x3f7f442b	0.9971339
107	0x3f6b13ee	0.91827285
108	0x3f6527e2	0.8951398
109	0x3f62bfa7	0.8857369
110	0xbd076908	-0.03305915
111	0x3f88e46c	1.0694709
112	0x3f5dfa7b	0.8671033
113	0x3f59978b	0.8499686
114	0xbde44804	-0.111465484
115	0x3b93dfa8	0.004512746
116	0x3f82cf95	1.0219599
117	0xbbe3380d	-0.006934172
118	0xbde890f6	-0.11355774
119	0x3d9f89d0	0.077899575
120	0x3f7b8c6e	0.98261154
121	0x3f82117b	1.0161585
122	0x3f5e6564	0.8687346
123	0x3f67cc85	0.9054645
124	0x3f76d304	0.96415734
125	0x3f72c55d	0.948324
126	0x3f83735b	1.0269579
127	0x3f8225f1	1.0167829

layer2.weight f4 [128, 128]
0	0x3f678fa0	0.9045353
1	0x3c9c7c4e	0.019102242
2	0xbbf949ed	-0.0076076896
3	0x3f53812f	0.82618994
4	0x3f516fdd	0.81811315
5	0x3d045d3a	0.03231547
6	0x3f60a792	0.8775569
7	0xbd7f6b26	-0.062358044
8	0x3f5efd0e	0.8710488
9	0xbd269e91	-0.040678564
10	0x3c8ec603	0.017428404
11	0xbd55af38	-0.052169055
12	0x3f5a711e	0.85328853
13	0x3f52671e	0.82188594
14	0x3cedc317	0.02902369
15	0x3d592bb4	0.053020194
16	0xbc3223fc	-0.010872837
17	0x3cecfd3a	0.028929342
18	0xbd7a0c2a	-0.061046757
19	0xbcf61b3f	-0.030042289
20	0xbcb15509	-0.021646993
21	0x3d8189a7	0.06325083
22	0x3f68699b	0.9078614
23	0x3f5811d1	0.84402186
24	0x3f63c992	0.88979447
25	0x3d810ae0	0.06300902
26	0x3f605e30	0.8764372
27	0x3f504dd8	0.8136878
28	0x3ce4052c	0.027834497
29	0x3f65feb0	0.8984175
30	0x3f4e2690	0.8052759
31	0x3f5a4c1c	0.85272384
32	0xbd3ec712	-0.046576567
33	0x3d0e2ecb	0.034712594
34	0x3f5f3410	0.87188816
35	0xbd227560	-0.03966272
36	0x3f5f29a7	0.8717293
37	0x3f69c359	0.913137
38	0x3a78aef2	0.0009486518
39	0x3f62513a	0.8840519
40	0x3d7dbf21	0.061949853
41	0x3f59f1cd	0.85134584
42	0x3f5ec941	0.8702584
43	0xbd5c10e9	-0.053727064
44	0x3f5ef7cd	0.87096864
45	0x3d0093cd	0.031390954
46	0x3d04730f	0.03233629
47	0x3f6a0d05	0.91426116
48	0x3f50ed28	0.8161187
49	0x3c0f2245	0.008736198
50	0xbc751d03	-0.01496053
51	0x3f683756	0.90709436
52	0x3d11b3d0	0.035571873
53	0x3d109de7	0.035306837
54	0xbd2c846b	-0.04211847
55	0x3f697e15	0.9120801
56	0xbcae074e	-0.021243718
57	0x3d7e9659	0.0621551
58	0xbcbbb893	-0.02291516
59	0xbc800270	-0.015626162
60	0x3f5f05fa	0.87118495
61	0x3f65de24	0.89792085
62	0x3f62120d	0.88308793
63	0x3c59d150	0.013294533
64	0xbd7135c5	-0.05888917
65	0xbd328854	-0.043587044
66	0x3f651dbe	0.8949851
67	0x3f6a2521	0.91462904
68	0x3d45b23f	0.04826569
69	0xbd0c2af6	-0.03422066
70	0x3f58732a	0.84550726
71	0x3f577134	0.8415711
72	0x3f5205ec	0.82040286
73	0x3b9a736d	0.004713467
74	0xbcdcc41b	-0.02694898
75	0x3f57fad3	0.843671
76	0x3f667e32	0.9003631
77	0x3bcb99c6	0.0062133996
78	0x3f5f24b5	0.87165385
79	0xbbca212c	-0.006168505
80	0x3d3810bf	0.044937845
81	0x392430da	0.00015658457
82	0xbca18165	-0.01971502
83	0x3f522f6e	0.8210362
84	0xbbb6809e	-0.0055695316
85	0xbcfdc9e9	-0.030980067
86	0x3f609a89	0.877358
87	0x3f555e5a	0.83347094
88	0x3d6d515c	0.05793892
89	0x3f6b1675	0.9183114
90	0x3f68d139	0.9094425
91	0xbd187c4f	-0.037227925
92	0x3f54d484	0.83136773
93	0x3f57fd84	0.8437121
94	0x3f55072c	0.8321407
95	0xbd742518	-0.059605688
96	0x3acddf74	0.0015706853
97	0x3f5d2d28	0.8639703
98	0x3cdad513	0.02671293
99	0x3f6deffa	0.929443
100	0xbd317272	-0.043322034
101	0x3f4ffb8b	0.812432
102	0xbcdf3273	-0.027245736
103	0xbc89c840	-0.01681912
104	0x3f50e3e6	0.81597745
105	0x3f5830ea	0.84449637
106	0x3f53eac8	0.8278012
107	0x3f64da54	0.8939564
108	0x3f4db60d	0.8035591
109	0x3f554217	0.8330397
110	0x3d14249f	0.036167737
111	0x3f632113	0.8872234
112	0x3f5ec46e	0.8701848
113	0x3f5ef670	0.87094784
114	0xbd5f8be3	-0.054576766
115	0x3c4e73ef	0.012600883
116	0x3f572624	0.8404257
117	0xbc176655	-0.009240706
118	0x3d80a219	0.06280918
119	0x3c0b7910	0.00851275
120	0x3f538440	0.8262367
121	0x3f6df229	0.9294763
122	0x3f59e3f1	0.85113436
123	0x3f6798c7	0.90467495
124	0x3f6546ce	0.89561164
125	0x3f57acf4	0.8424828
126	0x3f58ac41	0.8463784
127	0x3f56afe3	0.8386213
128	0x3f6f6058	0.93506384
129	0xbd606233	-0.05478115
130	0x3d1b34c2	0.03789211
131	0x3f77a7cd	0.9674042
132	0x3f6a1dd1	0.91451746
133	0xbc907254	-0.01763264
134	0x3f689566	0.90852964
135	0x3d668edb	0.05628858
136	0x3f68bf36	0.90916765
137	0xba3050ce	-0.0006725908
138	0xbd66e6b5	-0.056372363
139	0x3d50180c	0.050804183
140	0x3f6bd65a	0.9212395
141	0x3f67bc98	0.90522146
142	0xbca1308c	-0.01967647
143	0x3c2a17e9	0.010381677
144	0x3d0269da	0.03183923
145	0xbd50ebc6	-0.0510061
146	0xbd6930e7	-0.056931403
147	0xbd3af871	-0.04564709
148	0xbce7a8ef	-0.028278796
149	0xbd295465	-0.04134025
150	0x3f68d2ce	0.9094666
151	0x3f5c6ba8	0.8610177
152	0x3f61fa66	0.882727
153	0x3cb0ef52	0.021598492
154	0x3f68e6e7	0.9097733
155	0x3f74f4a7	0.9568581
156	0x3bb18c8e	0.0054183668
157	0x3f73c077	0.95215553
158	0x3f6e21ce	0.9302033
159	0x3f5ae488	0.8550496
160	0xbcc0ec0f	-0.023550062
161	0xbd0e0f05	-0.034682292
162	0x3f65f556	0.8982748
163	0xbc243fc0	-0.010024965
164	0x3f6fdc17	0.93695205
165	0x3f646744	0.8922007
166	0x3d813194	0.063082844
167	0x3f689a41	0.9086037
168	0x3d314ba0	0.043285012
169	0x3f75b7f1	0.959838
170	0x3f610c0a	0.87908995
171	0xbd222d17	-0.039593782
172	0x3f6ed021	0.9328633
173	0xbd6e5705	-0.058188457
174	0x39ea635f	0.00044705995
175	0x3f5b6788	0.8570485
176	0x3f6cc6a1	0.92490584
177	0xbc0286b0	-0.007966682
178	0x3b89565e	0.004191204
179	0x3f6c4386	0.9229053
180	0xbceda08d	-0.02900722
181	0x3d499480	0.049213886
182	0xbc0dd3d3	-0.00865646
183	0x3f634532	0.8877746
184	0xbd69abd5	-0.057048637
185	0xbcfc3284	-0.030785806
186	0x3d773fa1	0.060363416
187	0x3cf84d11	0.030310186
188	0x3f5ac504	0.8545687
189	0x3f6350af	0.8879499
190	0x3f74aece	0.9557923
191	0xbd09075a	-0.033454277
192	0x3cc0e404	0.023546226
193	0xbd32eb72	-0.04368157
194	0x3f657085	0.89624816
195	0x3f64c01b	0.8935563
196	0xbd2783ab	-0.040897053
197	0xbd3b0ecf	-0.04566842
198	0x3f77abdf	0.9674663
199	0x3f604339	0.87602574
200	0x3f6ba343	0.9204599
201	0xbd4b47b5	-0.049628932
202	0x3c9a84f5	0.018862227
203	0x3f77e3b4	0.9683182
204	0x3f671a7e	0.902748
205	0xbd150170	-0.036378324
206	0x3f676735	0.90391856
207	0x3c69d1cd	0.014271212
208	0xbcac2328	-0.021012858
209	0x3d6d006d	0.057861734
210	0xbb209988	-0.0024505574
211	0x3f69aa7b	0.9127576
212	0x3d24b7ae	0.040214233
213	0x3d32a902	0.04361821
214	0x3f5fce5b	0.8742425
215	0x3f7b3cd9	0.9813972
216	0xbb401a70	-0.0029312633
217	0x3f758a22	0.959139
218	0x3f7a3d51	0.9774981
219	0xbd555cf8	-0.052090615
220	0x3f645944	0.8919871
221	0x3f6efe4a	0.93356764
222	0x3f785312	0.97001755
223	0x3d2f7074	0.042831853
224	0x3c2c72b7	0.010525397
225	0x3f73c186	0.9521717
226	0x3d2461ec	0.040132448
227	0x3f623abb	0.88370866
228	0xbd43d34f	-0.04780894
229	0x3f79e1a4	0.97609925
230	0x3d2dcb54	0.042430237
231	0xbd131d6d	-0.035916734
232	0x3f5f9ea6	0.87351453
233	0x3f69f4de	0.9138926
234	0x3f6dd0b3	0.92896575
235	0x3f781c0d	0.969178
236	0x3f6d7743	0.92760104
237	0x3f7579e2	0.95889103
238	0x3d40280b	0.046913188
239	0x3f58704f	0.8454637
240	0x3f788827	0.9708275
241	0x3f661e6d	0.89890176
242	0xbce9d3a8	-0.028543308
243	0xbd1729e9	-0.036905203
244	0x3f5c5b45	0.86076766
245	0xbd5abe1f	-0.05340397
246	0x3d7c8aeb	0.06165592
247	0x3cd323ab	0.025773844
248	0x3f716353	0.9429218
249	0x3f6db4ea	0.9285418
250	0x3f7b6d10	0.9821329
251	0x3f6bef2f	0.9216184
252	0x3f6bf445	0.921696
253	0x3f6bc301	0.9209443
254	0x3f7003a7	0.93755573
255	0x3f61bd97	0.88179916

layer2.bias f4 [128]
0	0x3f5d3be0	0.86419487
1	0x3f59f220	0.8513508
2	0xbc53beba	-0.012923891
3	0xbd2b33d2	-0.041797467
4	0x3ccc4ea7	0.024939848
5	0xbd2a138f	-0.04152256
6	0x3f562b21	0.8365956
7	0x3f6ae3cf	0.9175386
8	0x3c9eaf42	0.019370679
9	0x3d1ba553	0.037999462
10	0xbd2427be	-0.040076964
11	0x3d64be7a	0.055845715
12	0x3d3f4a27	0.046701577
13	0x3badc527	0.0053030434
14	0x3f3cc1f1	0.7373343
15	0x3f5d7904	0.8651278
16	0x3f7b9e38	0.982883
17	0xbc3e0c40	-0.0115996
18	0x3f6ed9d7	0.9330115
19	0xbd3e7bd9	-0.04650483
20	0xbd450ce6	-0.048108004
21	0x3d0ddc68	0.034634024
22	0xbc03319e	-0.008007435
23	0x3d74ec4c	0.059795663
24	0x3b2dbc32	0.0026509878
25	0xbbc9e2a7	-0.0061610523
26	0x3cb3a230	0.021927923
27	0xbcd8fdd8	-0.02648823
28	0x3d1278fa	0.035759903
29	0x3f6e4d80	0.93087006
30	0x3d42df1c	0.047576055
31	0x3f66fbfb	0.9022824
32	0xbd197f32	-0.03747482
33	0x3f5f8cf1	0.87324435
34	0x3f6dc09a	0.9287201
35	0xbd3c39bb	-0.045953494
36	0x3d7e660a	0.06210903
37	0xbd842300	-0.06451988
38	0x3f51a63a	0.81894267
39	0x3f5b0474	0.8555367
40	0xbd86a3ff	-0.065742485
41	0x3cdf8c80	0.027288675
42	0xbce0c7da	-0.027439047
43	0xbd3dcc84	-0.04633762
44	0xbc995e1a	-0.018721629
45	0x3f622258	0.88333654
46	0xbcde3413	-0.02712444
47	0x3f5f838c	0.873101
48	0x3cbac4b3	0.022798872
49	0x3f58e5e2	0.84725773
50	0x3d6d3437	0.057911124
51	0xbd3d0349	-0.04614571
52	0xbb6b611a	-0.0035916031
53	0x3f60b154	0.8777058
54	0xbd193ec5	-0.037413377
55	0x3f5e8d70	0.86934566
56	0x3f68f915	0.9100507
57	0x3f471858	0.7777152
58	0xbca9227a	-0.020646323
59	0x3d296952	0.041360207
60	0x3d21382a	0.039360203
61	0x3f5b34a6	0.8562721
62	0xbd656708	-0.05600646
63	0x3d496949	0.049172673
64	0x3c9c06e5	0.019046256
65	0x3f6c613d	0.92335874
66	0xbcc8254a	-0.024431843
67	0xbb885f6e	-0.0041617667
68	0xbd1733e9	-0.03691474
69	0xbc851904	-0.01624728
70	0xbcfde9d3	-0.030995285
71	0x3f78664c	0.9703109
72	0x3f68dea5	0.9096473
73	0xbd543690	-0.051809847
74	0x3cce2a62	0.025166694
75	0x3f698c07	0.9122929
76	0x3f58baa3	0.84659785
77	0xbd307452	-0.04307968
78	0xbc394f91	-0.011310474
79	0x3f5a132b	0.851855
80	0xbca1f810	-0.019771606
81	0xbba6e51f	-0.0050932313
82	0x3f52369c	0.8211458
83	0xbcbe6ac6	-0.023244273
84	0xbcc7780e	-0.024349239
85	0x3f660816	0.8985609
86	0xbcfe64d6	-0.031053942
87	0x3cf92cef	0.030416934
88	0xbcc84171	-0.024445267
89	0xbd1d267f	-0.03836679
90	0xbca35961	-0.01994008
91	0x3f618d98	0.8810668
92	0x3f68bfca	0.90917647
93	0xbd3b7ab5	-0.04577132
94	0x3d2d8b4b	0.04236917
95	0x3cba63bb	0.022752633
96	0xbc4561bc	-0.0120472275
97	0x3d7aae92	0.06120164
98	0x3f5ed42b	0.8704249
99	0xbd80870c	-0.06275758
100	0x3ce5063c	0.027957074
101	0x3d78a676	0.060705625
102	0xbcfcc377	-0.030854924
103	0x3f6a1bf5	0.9144891
104	0x3f71ccef	0.9445333
105	0x3b78df45	0.0037974876
106	0xbd5f5a5e	-0.05452954
107	0x3f5df1cc	0.8669708
108	0xbc58da44	-0.013235632
109	0xbbe0f8e5	-0.006865608
110	0x3f583f1e	0.8447131
111	0x3cfad1cd	0.030617619
112	0xbd18107b	-0.037125092
113	0x3f6ff90a	0.9373938
114	0x3f61061f	0.87899965
115	0xbd6f8c7d	-0.05848359
116	0x3f5be2a2	0.8589269
117	0x3f4d2e06	0.8014835
118	0xbcd9f645	-0.026606688
119	0x3c8baeb5	0.01705108
120	0x3b6701c6	0.003524886
121	0x3f59e405	0.85113555
122	0xbd640ac9	-0.055674348
123	0x3d3c0521	0.04590333
124	0x3f5f33d7	0.87188476
125	0x3f69f428	0.9138818
126	0x3c4df882	0.012571456
127	0xbbbeefc0	-0.0058269203

layer3.weight f4 [7, 128]
0	0x3f39706a	0.72437155
1	0x3f29f3d4	0.6638768
2	0xbc905765	-0.017619798
3	0xbd290f4e	-0.04127436
4	0x3c4956a3	0.012288722
5	0xbd63414f	-0.055482205
6	0x3f2c4e4d	0.6730698
7	0x3f28d424	0.659487
8	0x3d6bea88	0.057596713
9	0x3d116fea	0.03550712
10	0xbd73a085	-0.059479255
11	0xbcaa0e46	-0.02075876
12	0xbd07da8d	-0.03316741
13	0x3d1350e5	0.03596582
14	0x3f1dcca4	0.6164038
15	0x3f3012f8	0.68778944
16	0x3f182a2b	0.59439343
17	0x3d37d566	0.044881247
18	0x3f2b611c	0.6694505
19	0x3cd27062	0.025688354
20	0x3d0243b0	0.031802833
21	0xbca4dd10	-0.020124942
22	0xbcbbd131	-0.022926899
23	0x3d8952a3	0.06705215
24	0x3d23a17e	0.039948933
25	0xbd49df3d	-0.049285162
26	0x3c8e319f	0.017357646
27	0xbc82adec	-0.015952073
28	0x3d026f7b	0.031844597
29	0x3f27aa74	0.65494466
30	0x3addab72	0.0016912057
31	0x3f2b4185	0.6689685
32	0x3d32bc8c	0.043636844
33	0x3f24117f	0.64089197
34	0x3f35227c	0.70755744
35	0x3c35c3e6	0.011094069
36	0x3d6c9dad	0.05776756
37	0x3d2e9ac9	0.042628083
38	0x3f271d4a	0.65279067
39	0x3f338f2d	0.70140344
40	0xbcde073f	-0.027103065
41	0x3d74c62c	0.059759304
42	0x3c1e58ac	0.009664696
43	0xbcb4096e	-0.021977153
44	0x3cc519fa	0.024060238
45	0x3f2cde03	0.67526263
46	0x3d687bbf	0.05675864
47	0x3f2bdecd	0.6713684
48	0x3cb1945c	0.021677189
49	0x3f29161e	0.66049373
50	0x3ca99ab7	0.020703657
51	0x3bbe6d36	0.005811359
52	0x3d3a3395	0.04545935
53	0x3f38a7f3	0.7213127
54	0xbd1464b3	-0.036228847
55	0x3f38baa3	0.72159785
56	0x3f38d247	0.7219586
57	0x3f2d4b2a	0.67692816
58	0x3c62d39f	0.0138444
59	0x3d0a6c70	0.03379482
60	0xbd0c1814	-0.03420265
61	0x3f2e72d7	0.6814398
62	0xbcc79937	-0.02436505
63	0xbca3f64f	-0.02001491
64	0xbc76c4c8	-0.015061565
65	0x3f2cdc2b	0.6752345
66	0x3cfe47e2	0.031040136
67	0xbce12f5a	-0.0274884
68	0xbd68c171	-0.056825105
69	0xbcec4ed8	-0.02884619
70	0xbcb38351	-0.021913202
71	0x3f1e8bcc	0.61932063
72	0x3f2af6a6	0.66782606
73	0xbd60ba4e	-0.054865174
74	0xbd65deab	-0.056120556
75	0x3f24af6c	0.6433017
76	0x3f2f8ca6	0.6857399
77	0x3c260fa7	0.010135568
78	0xbb9c89e4	-0.00477718
79	0x3f2c43c2	0.6729089
80	0x3d6eae6f	0.05827182
81	0xbcacfdf1	-0.021117182
82	0x3f28c065	0.6591857
83	0x3d73742d	0.059436966
84	0x3c865838	0.016399488
85	0x3f29201f	0.6606464
86	0xbd4ac0e5	-0.049500365
87	0x3d39b091	0.045334402
88	0x3c809ad7	0.015698833
89	0x3ca1be53	0.019744074
90	0xbd28d501	-0.04121876
91	0x3f393a72	0.72354805
92	0x3f21d03a	0.63208354
93	0x3c661427	0.014042891
94	0xbc983a80	-0.018582582
95	0xbd603cb3	-0.054745387
96	0xbd7b8849	-0.06140927
97	0x3d462054	0.048370674
98	0x3f2cff5d	0.67577153
99	0x3d255a72	0.04036946
100	0xbd6e84b7	-0.058232035
101	0x3c0ebfe1	0.00871274
102	0xbd2b0fa1	-0.04176295
103	0x3f277b4c	0.6542251
104	0x3f2f6895	0.68518955
105	0xbcb47915	-0.022030393
106	0xbcd7cd3c	-0.02634298
107	0x3f3995d3	0.7249424
108	0x3ca54ad1	0.020177277
109	0x3d16e907	0.036843326
110	0x3f31097b	0.6915509
111	0x3d72c015	0.059265215
112	0x3d40ad0d	0.047040034
113	0x3f3413fd	0.70343
114	0x3f36ea4f	0.71451277
115	0xbd00003e	-0.03125023
116	0x3f1dfc7d	0.6171339
117	0x3f34858a	0.70516264
118	0xbc0802fc	-0.008301493
119	0xbd3fc46a	-0.046818174
120	0x3d80b2f6	0.06284134
121	0x3f2c6999	0.6734863
122	0xbcd4f473	-0.025995469
123	0x3c0ad17f	0.008472799
124	0x3f2356cb	0.6380431
125	0x3f25137d	0.6448286
126	0x3b165429	0.0022938347
127	0xbca71626	-0.020396303
128	0x3ee8b206	0.4544832
129	0x3edf7d4a	0.43650275
130	0x3c419f1b	0.011817719
131	0xbcfe1ec1	-0.031020524
132	0x3c67b005	0.014141087
133	0x3d2cb48c	0.04216437
134	0x3ed492e7	0.41518328
135	0x3ee15965	0.44013515
136	0xbd21403e	-0.039367907
137	0xbba043bd	-0.0048908875
138	0x3c8181c8	0.015808955
139	0x3c021efe	0.007941959
140	0xbc271bc0	-0.010199487
141	0x3d64d5df	0.055868026
142	0x3ee357db	0.44402966
143	0x3ee40253	0.44533023
144	0x3ef13150	0.47107935
145	0x3ba7ac16	0.00511695
146	0x3eff18a5	0.4982349
147	0xbd1dfcd1	-0.038571183
148	0x3ca1d4d1	0.0197548
149	0xb93e2f24	-0.00018137373
150	0x3d65ca77	0.05610129
151	0x3d687b83	0.056758415
152	0x3d490a23	0.049081933
153	0x3d49aa0d	0.04923444
154	0xbcb46b00	-0.022023678
155	0x3bbb9297	0.005724262
156	0xbd698165	-0.057008166
157	0x3efe8c6b	0.49716505
158	0x3c828059	0.015930342
159	0x3edd0b1a	0.43172532
160	0x3c46c50c	0.012131941
161	0x3ef494c4	0.4776975
162	0x3ee70f56	0.45128888
163	0x3c8301d7	0.015992088
164	0xbc3bec68	-0.011469938
165	0xbb3dd747	-0.0028967427
166	0x3eefa4bb	0.46805367
167	0x3ef28260	0.47365093
168	0x3c612775	0.013742317
169	0xbcfbd397	-0.030740542
170	0xbc64f07f	-0.013973354
171	0x3d0aab30	0.033854663
172	0x3d5fde7f	0.05465555
173	0x3f014a39	0.5050388
174	0xbc8f9d7b	-0.017531147
175	0x3ecb5c8b	0.39719042
176	0x3d0e1df8	0.03469655
177	0x3ec27ab4	0.3798424
178	0x3cb5abb8	0.022176608
179	0xbc21de41	-0.00987965
180	0xbd02a247	-0.03189304
181	0x3ec939c4	0.39301884
182	0x3ca297df	0.019847808
183	0x3ee1c02e	0.44091934
184	0x3eea217d	0.45728675
185	0x3ef37691	0.47551396
186	0x3cb4f5e4	0.022089906
187	0xbc9616df	-0.018321453
188	0x3d6c140d	0.05763631
189	0x3ed7a71d	0.42119685
190	0xbd3cf2de	-0.046130054
191	0xbd7bb4c4	-0.06145169
192	0x3d1d3c0b	0.03838734
193	0x3ef63907	0.48090383
194	0x3d02f656	0.031973206
195	0x3ce7eac3	0.028310185
196	0x3d1cba97	0.038263883
197	0x3cd921a0	0.026505291
198	0x3b7f17de	0.0038924138
199	0x3efd8265	0.49513546
200	0x3ed2692b	0.41095862
201	0x3d13e871	0.036110345
202	0x3c93e522	0.018053595
203	0x3edf2011	0.43579152
204	0x3ef82daf	0.48472354
205	0xbc458e89	-0.012057909
206	0xbd64e85f	-0.05588567
207	0x3ed3f6e3	0.41399297
208	0xbcf8dbfa	-0.03037833
209	0x3d0db6ed	0.03459828
210	0x3ede1ddb	0.43382153
211	0x3d680a36	0.056650363
212	0x3d45ddeb	0.04830734
213	0x3ec9f05f	0.394412
214	0x3d1d86e3	0.038458716
215	0xbd2e83eb	-0.042606276
216	0xbd7e571d	-0.062094796
217	0xbd47b573	-0.048757028
218	0xbc9695ef	-0.01838204
219	0x3eea0636	0.45707864
220	0x3eeed9e6	0.46650618
221	0x3cf74857	0.030185862
222	0x3ca0779b	0.019588282
223	0x3c0a77af	0.008451386
224	0x3c85b893	0.016323363
225	0x3cbc156e	0.022959437
226	0x3efdce6d	0.49571553
227	0x3be751d1	0.007059314
228	0xbc4b718c	-0.012417208
229	0x3cc2ed5c	0.023794822
230	0xbcbd0c27	-0.023077084
231	0x3ed77264	0.4207946
232	0x3ee0cdd6	0.4390704
233	0x3c2e5abc	0.01064175
234	0x3c9cb0d9	0.019127296
235	0x3efa12af	0.4884238
236	0x3bc729a1	0.0060779606
237	0xbd7ecd33	-0.062207412
238	0x3ee2231d	0.44167414
239	0xbd6e210d	-0.05813699
240	0x3d5f6685	0.05454113
241	0x3ef7947a	0.48355466
242	0x3eeea5e0	0.46610928
243	0x3c5a040e	0.013306631
244	0x3ef3d211	0.47621205
245	0x3ee107f9	0.43951395
246	0xbd533fe8	-0.051574618
247	0xbc4f27ba	-0.012643749
248	0x3c6b8b47	0.014376468
249	0x3ee241fb	0.44190964
250	0x3b90c60e	0.004418141
251	0xbc64a68b	-0.013955723
252	0x3ef98b2a	0.48738986
253	0x3ee2f3e0	0.44326687
254	0xbcd5d342	-0.026101712
255	0x3d13b111	0.036057536

layer3.bias f4 [7]
0	0x3f294298	0.6611724
1	0x3e1ea400	0.15492249
2	0x3e61c9a4	0.22049576
3	0x3e73da1e	0.23813674
4	0x3e4410cf	0.19147037
5	0x3e26662c	0.16249913
6	0x3e1e9fcc	0.15490645

layer1.weight f4 [128, 28]
0	0x3ded5712	0.11588873
1	0xbd59420a	-0.053041495
2	0xbe048351	-0.12940718
3	0xbe071591	-0.1319182
4	0xbdfc0aa7	-0.12306719
5	0xbe00be0e	-0.125725
6	0xbdb24acf	-0.08705675
7	0x3f70eea7	0.94114155
8	0x3d101379	0.03517482
9	0x3de1b6c5	0.11021189
10	0xbcd2d7ba	-0.025737632
11	0x3dd1128c	0.10208616
12	0xbdf4bd2b	-0.119501434
13	0x3c889e26	0.016676974
14	0x3d165fef	0.036712583
15	0x3d770803	0.060310375
16	0x3d803d54	0.062616974
17	0xbcfc570b	-0.030803224
18	0x3d9b571b	0.075849734
19	0x3ba4728d	0.0050185383
20	0xbccea906	-0.025227081
21	0xbdf4e27a	-0.119572595
22	0x3dd4d18e	0.10391532
23	0x3d8e71c6	0.06955294
24	0x3d9cadf5	0.07650367
25	0x3df44763	0.119276784
26	0xbd7bd123	-0.061478745
27	0x3f896ac0	1.0735703
28	0xbdaf31fe	-0.08554457
29	0xbdbe3c46	-0.0928884
30	0x3dfb4a74	0.1227006
31	0xbd1394b3	-0.036030483
32	0xbe0869ec	-0.13321656
33	0xbdfad34e	-0.122473344
34	0xbe0b6ad5	-0.13614972
35	0xbd9b0301	-0.07568932
36	0xbd94f547	-0.072733454
37	0xbdf15df2	-0.11785497
38	0x3def04ba	0.116708234
39	0x3d51218e	0.05105739
40	0x3d4e4b36	0.050364695
41	0x3dc0a7ab	0.0940698
42	0xbe0c382c	-0.13693303
43	0x3df65af3	0.12029066
44	0xbdcce70c	-0.10005006
45	0xbdbcd1e1	-0.09219719
46	0xbce22146	-0.027603757
47	0xb922250c	-0.00015463325
48	0xbd48a4f2	-0.04898543
49	0xbcc81b27	-0.02442701
50	0x3dae6492	0.08515276
51	0xbcb500cf	-0.022095112
52	0xbdc8f2e1	-0.098119505
53	0xbdea2c42	-0.11434223
54	0x3df4ef72	0.11959733
55	0xbde5e763	-0.11225774
56	0x3d8032bf	0.06259679
57	0xbccdc706	-0.025119316
58	0xbdeefd32	-0.11669387
59	0x3daba7f9	0.083816476
60	0x3d3c6eee	0.04600423
61	0xbda0332f	-0.078222625
62	0x3c0ab876	0.0084668305
63	0xbddd3630	-0.10801351
64	0xbc950ce9	-0.018194633
65	0xbdafa1c6	-0.08575778
66	0x3dad92d6	0.08475272
67	0x3d8362a7	0.06415301
68	0x3e0c657d	0.1371059
69	0xbd8a1bcc	-0.06743583
70	0x3d720f43	0.059096586
71	0xbd8d12fe	-0.06888388
72	0xbbee7b42	-0.007277877
73	0x3d92bd8a	0.07165058
74	0x3db8891b	0.09010526
75	0x3da71db7	0.081599645
76	0x3d49cf24	0.04926981
77	0xbcd1216e	-0.025528636
78	0xbdafe862	-0.085892454
79	0x3c84116c	0.016121589
80	0xbd322c16	-0.043499075
81	0xbc7a94a4	-0.015294228
82	0xbaffff35	-0.0019531014
83	0x3c0ce179	0.008598679
84	0x3df8b0b3	0.12143078
85	0x3d622c72	0.055218168
86	0xbcebf302	-0.028802399
87	0x3df20832	0.118179694
88	0xbdee95ba	-0.11649652
89	0x3dff3bea	0.124625996
90	0x3c389b37	0.011267475
91	0x3f880097	1.062518
92	0x3deed072	0.116608515
93	0xbc84f188	-0.016228452
94	0x3beb9542	0.007189424
95	0x3b76b472	0.0037644175
96	0x3dbeba7f	0.09312915
97	0xbdb7f8a2	-0.0898297
98	0x3da0a9f3	0.07844915
99	0x3dd96d5a	0.1061656
100	0x3d4df3fa	0.050281502
101	0xbcbccb1e	-0.023046073
102	0x3d8688c0	0.06569052
103	0xbde88c61	-0.113549
104	0xbda2d58e	-0.079508886
105	0x3caab115	0.020836392
106	0x3db241a7	0.087039284
107	0x3de4575e	0.111494765
108	0x3d0e7ac1	0.034785036
109	0x3c9b7c73	0.01898024
110	0xbd14f60f	-0.036367472
111	0x3f894e6b	1.0727056
112	0x3da62ee2	0.08114411
113	0x3d229e84	0.039701954
114	0xbde4a29a	-0.11163826
115	0x3c866b82	0.016408686
116	0x3ce1798a	0.027523775
117	0x3ce124c1	0.027483346
118	0xbcca049d	-0.024660403
119	0x3f61d4af	0.88215154
120	0xbdeecd82	-0.11660291
121	0xbd32521f	-0.043535348
122	0xbd93f84f	-0.072250955
123	0xbd45056f	-0.048100885
124	0xbdae7c2e	-0.08519779
125	0x3d27ef84	0.040999904
126	0xbdf2954b	-0.118448816
127	0x3d4da9cc	0.05021076
128	0xbc72d0c2	-0.01482028
129	0x3e0153a0	0.12629557
130	0xbda4e1e0	-0.08050895
131	0x3dcbeacc	0.09956893
132	0x3cc05bc0	0.02348125
133	0xbdf566f2	-0.11982526
134	0x3db4ea7e	0.08833788
135	0xbc7c5269	-0.0154005075
136	0x3d31889b	0.043343168
137	0x3d04bdad	0.03240745
138	0xbe013405	-0.126175
139	0x3f717861	0.9432431
140	0xbd8aac8f	-0.06771194
141	0x3d5b883e	0.053596728
142	0xbdc913ac	-0.09818205
143	0x3c9cb04d	0.019127036
144	0xbc99b68b	-0.018763801
145	0xbc9f7a77	-0.019467575
146	0xbb8cdf2d	-0.0042990656
147	0xbdb13d7b	-0.086543046
148	0x3dd2fb50	0.1030184
149	0x3c8ec44b	0.017427584
150	0xbd475a95	-0.04867037
151	0xbd58073c	-0.052741274
152	0xbd24af80	-0.040206432
153	0xbe007ade	-0.1254687
154	0x3d5ff767	0.0546793
155	0x3e00e519	0.12587394
156	0x3d263060	0.040573478
157	0x3db8c71b	0.09022351
158	0xbdeebfba	-0.11657663
159	0xbddc2dad	-0.107508995
160	0xbd9ce031	-0.076599486
161	0x3de99caa	0.114068344
162	0x3dfd4e9d	0.1236851
163	0x3e0cc7ba	0.13748065
164	0xbe06fe4f	-0.13182949
165	0x3e01bbc5	0.12669285
166	0xbe049de6	-0.12950858
167	0x3d81b790	0.0633384
168	0x3d81fd3e	0.0634713
169	0x3d5b016b	0.05346815
170	0x3d27690d	0.04087167
171	0x3deaf5b2	0.11472644
172	0x3dd17190	0.102267385
173	0xbe02d37f	-0.12775992
174	0xbd067ca1	-0.0328337
175	0x3f58bae6	0.84660184
176	0x3ce38dd3	0.027777588
177	0x3ab8678f	0.0014068949
178	0x3e0e3277	0.13886438
179	0xbaf8b9e4	-0.0018976298
180	0xbde002a3	-0.10938003
181	0xbd9dba1f	-0.077015154
182	0xbdec3c3a	-0.11534925
183	0xbd334bcb	-0.043773454
184	0xbd97d0ff	-0.0741291
185	0xbdbb6d67	-0.09151726
186	0xbdebf70a	-0.11521728
187	0xbbc10ab6	-0.0058911694
188	0xbc452eef	-0.012035116
189	0xbd2b53d1	-0.04182798
190	0xbd70bf0a	-0.05877594
191	0xbd02f74b	-0.03197412
192	0xbdf4580a	-0.119308546
193	0xbda606fc	-0.08106801
194	0x3cb5adce	0.022177603
195	0x3f74bfbc	0.95605063
196	0x3c3ba137	0.011452011
197	0x3d277ee9	0.040892515
198	0x3de9e23a	0.114201024
199	0xbd9fcfab	-0.078032814
200	0x3d65faaa	0.056147255
201	0x3db01a6e	0.08598791
202	0x3e000c61	0.12504722
203	0x3cd344f8	0.025789723
204	0xbabda820	-0.0014469661
205	0x3d740163	0.059571635
206	0xbd886e1a	-0.06661625
207	0xbe0a88bf	-0.13528727
208	0xbdfbbd1b	-0.122919284
209	0x3dc93a83	0.09825613
210	0xbd9c3f0f	-0.07629215
211	0x3ca384c5	0.01996077
212	0xbd662363	-0.05618609
213	0x3e0c972a	0.1372954
214	0x3ba08cd0	0.0048995987
215	0x3df569ea	0.11983092
216	0xbd6fa272	-0.05850453
217	0xbc35ea87	-0.011103279
218	0x3cd73658	0.02627103
219	0x3dc5874d	0.09644947
220	0x3dc52bc1	0.09627486
221	0xbe090a6c	-0.13382882
222	0xbd9ee3c9	-0.0775829
223	0xbce70837	-0.02820216
224	0xbe034bcc	-0.12821883
225	0x3d1dea85	0.038553733
226	0xbd1633c1	-0.03667045
227	0xbcd8fe00	-0.026488304
228	0x3d83ecbf	0.0644164
229	0xbcbe8d0c	-0.023260616
230	0x3ced1a62	0.028943244
231	0x3f8acc39	1.0843574
232	0xbd79aa5d	-0.060953487
233	0xb9db8f2e	-0.00041877612
234	0x3d96616b	0.073428
235	0x3e044ac8	0.12919152
236	0x3c3a952a	0.011388103
237	0x3dbfc730	0.09364164
238	0xbd3e2d98	-0.0464302
239	0xbe06403e	-0.13110444
240	0x3cf188e3	0.029484218
241	0xbd82a8f2	-0.0637988
242	0x3c6e9572	0.014561998
243	0x3dd58a04	0.10426715
244	0x3dd66854	0.10469118
245	0x3d2cb5da	0.042165615
246	0xbd12451d	-0.035710443
247	0xbdc2eb85	-0.09517578
248	0x3dada432	0.084785834
249	0x3db0002b	0.08593782
250	0xbdb4c797	-0.08827131
251	0x3f7e8918	0.9942794
252	0x3d90f87f	0.07078647
253	0xbd7e3e73	-0.062071275
254	0x3db63166	0.08896141
255	0xbc9dd4f5	-0.019266585

layer1.bias f4 [128]
0	0x3f821bd4	1.0164742
1	0xbc5ecff8	-0.013599388
2	0x3daa0f55	0.083037056
3	0x3f68ba60	0.90909386
4	0x3f843c5a	1.0330918
5	0xbda90cfc	-0.0825443
6	0x3f88522c	1.0650077
7	0xbd71f4d3	-0.059071373
8	0x3f74d9dd	0.95644933
9	0xbd135831	-0.035972778
10	0xbc9130ab	-0.017723402
11	0xbd497da8	-0.0491921
12	0x3f4d05b3	0.8008682
13	0x3f4b4f3b	0.7941777
14	0xbdbec57c	-0.09315011
15	0xbd8d7d31	-0.06908644
16	0xbd9f9858	-0.07792729
17	0x3d269a4f	0.040674504
18	0xbb947bc1	-0.004531354
19	0xbd1659cd	-0.036706734
20	0xbdd751d0	-0.10513651
21	0xbdf23d33	-0.11828079
22	0x3f72eafe	0.9488982
23	0x3f70ceec	0.9406574
24	0x3f59004c	0.8476608
25	0x3cd2df4e	0.025741246
26	0x3f6d0b59	0.9259544
27	0x3f86a0cb	1.051782
28	0xbd606b12	-0.05478961
29	0x3f875e8f	1.0575732
30	0x3f8a0870	1.0783825
31	0x3f837fdc	1.0273395
32	0xbdc6e253	-0.09711137
33	0xbd7a9168	-0.061173826
34	0x3f6dd323	0.92900294
35	0x3cb3ab53	0.02193228
36	0x3f82de7a	1.0224144
37	0x3f87b168	1.0601015
38	0xbd65f0eb	-0.05613796
39	0x3f8101bb	1.0078653
40	0xbd8b3aac	-0.067983
41	0x3f854414	1.0411401
42	0x3f7cb5d3	0.9871494
43	0x3db08056	0.08618228
44	0x3f89c775	1.0763994
45	0xbdf10c22	-0.11769892
46	0x3dedaba2	0.11605002
47	0x3f85076d	1.0392891
48	0x3f830b8a	1.0237896
49	0xbe048401	-0.1294098
50	0xbde3d36a	-0.111243084
51	0x3f7e8dc0	0.99435043
52	0x3d42f60e	0.047597937
53	0xbd8d1afe	-0.06889914
54	0x3d87600c	0.06610116
55	0x3f8590cc	1.0434813
56	0xbbedeaca	-0.007260655
57	0xbd5e98a3	-0.054344784
58	0x3d52d2b6	0.05147048
59	0x3d5f1ddd	0.05447184
60	0x3f680886	0.90638006
61	0x3f866e8b	1.0502485
62	0x3f85200d	1.0400406
63	0xbdcd3816	-0.10020463
64	0x3c366383	0.011132124
65	0xbd3f7c76	-0.046749555
66	0x3f89a978	1.0754843
67	0x3f8a3295	1.0796686
68	0xbc9f878e	-0.019473817
69	0x3dbed438	0.09317821
70	0x3f6c6574	0.92342305
71	0x3f8b7a3a	1.0896676
72	0x3f844a5e	1.0335195
73	0x3d5b88c5	0.05359723
74	0xbdd77cfe	-0.10521887
75	0x3f87088b	1.0549482
76	0x3f85de05	1.045838
77	0x3dac4e7f	0.084134094
78	0x3f8635cc	1.0485168
79	0xbdec9cea	-0.115533665
80	0x3d85f9b7	0.0654177
81	0x3debe0ea	0.11517508
82	0xbe048b5e	-0.1294379
83	0x3f8aa8b8	1.0832739
84	0xbd8b47c2	-0.06800796
85	0x3da4efb2	0.08053531
86	0x3f800971	1.0002881
87	0x3f59eff6	0.85131776
88	0xbc874316	-0.016511481
89	0x3f5389d4	0.82632184
90	0x3f89ae63	1.0756344
91	0xbe0a1863	-0.13485865
92	0x3f882154	1.0635171
93	0x3f5a6dd5	0.8532384
94	0x3f79f8eb	0.97645444
95	0x3d6df3aa	0.058093704
96	0xbe00efd2	-0.12591484
97	0x3f886780	1.0656586
98	0x3d9b1d73	0.07573976
99	0x3f68ae24	0.9089072
100	0x3d8aa254	0.06769243
101	0x3f88a22f	1.0674495
102	0xbda5b8d5	-0.080918945
103	0xbde5e5ce	-0.112254724
104	0x3f84fed1	1.0390264
105	0x3f70f824	0.9412863
106	0x3f7f2c2f	0.99676794
107	0x3f6afb2b	0.917895
108	0x3f650e54	0.8947499
109	0x3f62a61b	0.88534707
110	0xbd077010	-0.033065856
111	0x3f88d8d1	1.0691167
112	0x3f5de0ef	0.86671346
113	0x3f597d34	0.8495667
114	0xbde453bc	-0.111487836
115	0x3b93e779	0.0045136777
116	0x3f82c401	1.0216066
117	0xbbe343c8	-0.0069355704
118	0xbde89cb0	-0.11358011
119	0x3d9f9266	0.07791595
120	0x3f7b7474	0.9822457
121	0x3f8205df	1.0158042
122	0x3f5e4be0	0.86834526
123	0x3f67b2f9	0.90507466
124	0x3f76ba3a	0.9637791
125	0x3f72ac98	0.9479461
126	0x3f8367bf	1.0266036
127	0x3f821a52	1.0164282

layer2.weight f4 [128, 128]
0	0x3f677616	0.9041456
1	0x3c9c841f	0.019105969
2	0xbbf95732	-0.0076092714
3	0x3f5366dc	0.82578826
4	0x3f51557d	0.8177107
5	0x3d046442	0.032322176
6	0x3f608dfa	0.8771664
7	0xbd7f786b	-0.0623707
8	0x3f5ee384	0.8706591
9	0xbd26a729	-0.04068676
10	0x3c8ecd0b	0.017431756
11	0xbd55ba28	-0.052179486
12	0x3f5a5702	0.85289013
13	0x3f524cba	0.82148325
14	0x3cedcf9a	0.029029656
15	0x3d5936a4	0.053030625
16	0xbc322d5e	-0.010875074
17	0x3ced09ba	0.028935302
18	0xbd7a196f	-0.06105941
19	0xbcf627c3	-0.030048257
20	0xbcb15e6b	-0.021651467
21	0x3d8190af	0.06326424
22	0x3f685015	0.90747195
23	0x3f57f76c	0.8436191
24	0x3f63b000	0.8894043
25	0x3d8111e8	0.063022435
26	0x3f6044a7	0.87604755
27	0x3f50337a	0.81328547
28	0x3ce410e6	0.027840089
29	0x3f65e533	0.89802855
30	0x3f4e0c3e	0.8048743
31	0x3f5a31cf	0.8523225
32	0xbd3ed138	-0.046586245
33	0x3d0e35d3	0.0347193
34	0x3f5f1a84	0.87149835
35	0xbd227df8	-0.039670914
36	0x3f5f1022	0.8713399
37	0x3f69aa93	0.912759
38	0x3a78bc37	0.00094884954
39	0x3f6237a0	0.88366127
40	0x3d7dcc66	0.061962508
41	0x3f59d785	0.8509448
42	0x3f5eafa3	0.8698675
43	0xbd5c1ca0	-0.053738236
44	0x3f5ede44	0.870579
45	0x3d009ad5	0.03139766
46	0x3d047a17	0.032342996
47	0x3f69f42e	0.91388214
48	0x3f50d2bb	0.8157155
49	0x3c0f2a1c	0.008738067
50	0xbc752983	-0.01496351
51	0x3f681db9	0.90670353
52	0x3d11bba7	0.03557935
53	0x3d10a5b9	0.035314295
54	0xbd2c8d03	-0.042126667
55	0x3f6964d0	0.9116945
56	0xbcae10ae	-0.021248188
57	0x3d7ea39e	0.062167756
58	0xbcbbc1f3	-0.02291963
59	0xbc800978	-0.015629515
60	0x3f5eec6f	0.8707952
61	0x3f65c49b	0.8975312
62	0x3f61f879	0.88269764
63	0x3c59dc40	0.013297141
64	0xbd71424a	-0.05890111
65	0xbd3291b6	-0.043595992
66	0x3f650429	0.8945947
67	0x3f6a0c4c	0.91425014
68	0x3d45bc67	0.048275378
69	0xbd0c31fe	-0.034227364
70	0x3f5858cb	0.8451049
71	0x3f5756e0	0.84116936
72	0x3f51eba6	0.82000196
73	0x3b9a7b43	0.004714401
74	0xbcdccfd3	-0.026954567
75	0x3f57e086	0.8432697
76	0x3f6664a9	0.89997345
77	0x3bcba4b6	0.0062147034
78	0x3f5f0b26	0.87126386
79	0xbbca2b54	-0.006169716
80	0x3d381a1f	0.044946786
81	0x39243972	0.00015661659
82	0xbca189fd	-0.019719118
83	0x3f52150d	0.8206337
84	0xbbb689ff	-0.0055706496
85	0xbcfdd72e	-0.030986395
86	0x3f6080e0	0.8769665
87	0x3f5543f6	0.83306825
88	0x3d6d5de2	0.05795086
89	0x3f6afda2	0.9179326
90	0x3f68b79f	0.90905184
91	0xbd188423	-0.03723539
92	0x3f54ba0f	0.830964
93	0x3f57e31e	0.8433093
94	0x3f54ece2	0.83173954
95	0xbd74319b	-0.05961762
96	0x3acdea64	0.0015710113
97	0x3f5d13a8	0.8635812
98	0x3cdae0cd	0.026718521
99	0x3f6dd728	0.9290643
100	0xbd317bd3	-0.04333098
101	0x3f4fe135	0.81203014
102	0xbcdf3e2b	-0.027251324
103	0xbc89cf48	-0.016822472
104	0x3f50c990	0.8155756
105	0x3f581691	0.84409434
106	0x3f53d07b	0.8273999
107	0x3f64c0c6	0.8935665
108	0x3f4d9bae	0.80315673
109	0x3f5527b0	0.83263683
110	0x3d142c75	0.03617521
111	0x3f63079a	0.88683474
112	0x3f5eaacc	0.86979365
113	0x3f5edcd2	0.87055695
114	0xbd5f979a	-0.054587938
115	0x3c4e7ede	0.01260349
116	0x3f570bdb	0.84002465
117	0xbc176e2b	-0.009242575
118	0x3d80a921	0.06282259
119	0x3c0b8018	0.008514427
120	0x3f5369e8	0.82583475
121	0x3f6dd951	0.92909724
122	0x3f59c98d	0.8507317
123	0x3f677f3d	0.90428525
124	0x3f652d40	0.8952217
125	0x3f579298	0.8420806
126	0x3f5891f3	0.845977
127	0x3f569597	0.83822006
128	0x3f6f4814	0.9346936
129	0xbd606dec	-0.05479233
130	0x3d1b3c95	0.037899572
131	0x3f778f8d	0.96703416
132	0x3f6a0578	0.91414595
133	0xbc907a2b	-0.01763638
134	0x3f687c4e	0.90814674
135	0x3d669a96	0.05629977
136	0x3f68a62d	0.90878564
137	0xba305a2f	-0.00067273056
138	0xbd66f270	-0.05638355
139	0x3d5022fc	0.050814614
140	0x3f6bbdf7	0.9208674
141	0x3f67a378	0.9048381
142	0xbca13924	-0.019680567
143	0x3c2a2081	0.010383726
144	0x3d0270e2	0.031845935
145	0xbd50f6b6	-0.051016532
146	0xbd693ca1	-0.056942586
147	0xbd3b01d3	-0.045656037
148	0xbce7b4a8	-0.028284386
149	0xbd295cfd	-0.041348446
150	0x3f68b9c5	0.9090846
151	0x3f5c5281	0.8606339
152	0x3f61e14c	0.882344
153	0x3cb0f8b3	0.021602964
154	0x3f68cdce	0.90939033
155	0x3f74dc53	0.9564869
156	0x3bb195ef	0.005419485
157	0x3f73a82f	0.951785
158	0x3f6e0981	0.9298325
159	0x3f5acb77	0.8546671
160	0xbcc0f637	-0.023554904
161	0xbd0e160d	-0.034688998
162	0x3f65dc3b	0.8978917
163	0xbc244858	-0.010027014
164	0x3f6fc3d0	0.9365816
165	0x3f644e2f	0.891818
166	0x3d81389c	0.063096255
167	0x3f688124	0.9082205
168	0x3d315502	0.04329396
169	0x3f759faf	0.9594678
170	0x3f60f2e6	0.87870634
171	0xbd2235af	-0.039601978
172	0x3f6eb7d2	0.9324924
173	0xbd6e638a	-0.058200397
174	0x39ea6fe2	0.00044715317
175	0x3f5b4e5f	0.8566646
176	0x3f6cae4a	0.92453444
177	0xbc028db8	-0.007968359
178	0x3b895d66	0.004192042
179	0x3f6c2b31	0.92253405
180	0xbcedad12	-0.02901319
181	0x3d499ea7	0.04922357
182	0xbc0ddadb	-0.008658136
183	0x3f632c1f	0.887392
184	0xbd69b85a	-0.057060577
185	0xbcfc3fc9	-0.030792134
186	0x3d774c23	0.060375344
187	0x3cf85996	0.030316155
188	0x3f5aabf3	0.85418624
189	0x3f63379d	0.88756734
190	0x3f74967b	0.95542115
191	0xbd090e62	-0.033460982
192	0x3cc0ee2c	0.02355107
193	0xbd32f4d3	-0.043690514
194	0x3f655765	0.8958648
195	0x3f64a702	0.89317334
196	0xbd278c43	-0.04090525
197	0xbd3b182f	-0.04567736
198	0x3f779387	0.96709484
199	0x3f602a16	0.8756422
200	0x3f6b8b0c	0.92009044
201	0xbd4b5268	-0.049639136
202	0x3c9a8ccd	0.018865967
203	0x3f77cb70	0.96794796
204	0x3f670172	0.9023658
205	0xbd150947	-0.0363858
206	0x3f674e19	0.9035354
207	0x3c69de52	0.014274197
208	0xbcac2bc0	-0.021016955
209	0x3d6d0cf2	0.057873674
210	0xbb20a220	-0.0024510697
211	0x3f69921d	0.91238576
212	0x3d24c046	0.04022243
213	0x3d32b263	0.043627154
214	0x3f5fb534	0.8738587
215	0x3f7b2553	0.9810383
216	0xbb402498	-0.0029318687
217	0x3f7571cd	0.9587677
218	0x3f7a25ca	0.9771391
219	0xbd5567e8	-0.052101046
220	0x3f644015	0.8916028
221	0x3f6ee5ed	0.9331959
222	0x3f783ac9	0.969647
223	0x3d2f79d6	0.0428408
224	0x3c2c7b4f	0.010527446
225	0x3f73a944	0.95180154
226	0x3d246a84	0.040140644
227	0x3f62219c	0.88332534
228	0xbd43dd77	-0.047818627
229	0x3f79ca1a	0.9757401
230	0x3d2dd4b6	0.042439185
231	0xbd132541	-0.0359242
232	0x3f5f858b	0.87313145
233	0x3f69dc8e	0.91352165
234	0x3f6db863	0.92859477
235	0x3f7803c0	0.9688072
236	0x3f6d5ef5	0.9272302
237	0x3f75618c	0.9585197
238	0x3d403233	0.046922874
239	0x3f585684	0.8450701
240	0x3f787011	0.97046
241	0x3f660549	0.89851815
242	0xbce9e02a	-0.028549273
243	0xbd1731bd	-0.03691267
244	0x3f5c4237	0.86038536
245	0xbd5ac9d6	-0.053415142
246	0x3d7c9830	0.061668575
247	0x3cd32e9a	0.025779057
248	0x3f714b08	0.94255114
249	0x3f6d9c96	0.92817056
250	0x3f7b5579	0.98177296
251	0x3f6bd6e2	0.9212476
252	0x3f6bdbfd	0.9213255
253	0x3f6baaaa	0.9205729
254	0x3f6feb60	0.9371853
255	0x3f61a488	0.8814168

layer2.bias f4 [128]
0	0x3f5d1db9	0.8637348
1	0x3f59d3b0	0.85088634
2	0xbc53c9aa	-0.012926498
3	0xbd2b3c6a	-0.041805662
4	0x3ccc5996	0.024945062
5	0xbd2a1c27	-0.041530754
6	0x3f560bb7	0.83611625
7	0x3f6ac62c	0.91708636
8	0x3c9eb7d8	0.019374773
9	0x3d1bad29	0.038006935
10	0xbd243056	-0.04008516
11	0x3d64ca36	0.055856906
12	0x3d3f544d	0.046711255
13	0x3badce86	0.0053041605
14	0x3f3ca2b1	0.7368575
15	0x3f5d59ff	0.8646545
16	0x3f7b8176	0.98244417
17	0xbc3e1666	-0.01160202
18	0x3f6ebcba	0.93256724
19	0xbd3e85ff	-0.046514507
20	0xbd45170e	-0.04811769
21	0x3d0de370	0.03464073
22	0xbc0338a6	-0.0080091115
23	0x3d74f8d2	0.059807606
24	0x3b2dc592	0.0026515466
25	0xbbc9eccf	-0.006162263
26	0x3cb3ab92	0.021932397
27	0xbcd908c8	-0.026493445
28	0x3d1280cd	0.035767365
29	0x3f6e2fb1	0.9304152
30	0x3d42e944	0.04758574
31	0x3f66dd8d	0.9018181
32	0xbd19870a	-0.0374823
33	0x3f5f6e2f	0.872775
34	0x3f6da33e	0.9282721
35	0xbd3c43b2	-0.045962997
36	0x3d7e7350	0.06212169
37	0xbd842a08	-0.06453329
38	0x3f5186e0	0.8184643
39	0x3f5ae65c	0.8550775
40	0xbd86ab07	-0.065755896
41	0x3cdf9839	0.027294265
42	0xbce0d395	-0.02744464
43	0xbd3dd6aa	-0.046347298
44	0xbc9965eb	-0.018725356
45	0x3f620498	0.8828826
46	0xbcde3fcb	-0.027130028
47	0x3f5f664f	0.87265486
48	0x3cbace13	0.022803342
49	0x3f58c67d	0.8467787
50	0x3d6d40ba	0.057923056
51	0xbd3d0d6f	-0.04615539
52	0xbb6b6d9a	-0.0035923482
53	0x3f60938b	0.8772513
54	0xbd194697	-0.037420835
55	0x3f5e6f61	0.868887
56	0x3f68daea	0.90959036
57	0x3f46f798	0.7772155
58	0xbca92b12	-0.02065042
59	0x3d2971ea	0.041368403
60	0x3d2140c2	0.0393684
61	0x3f5b1649	0.8558088
62	0xbd6572c4	-0.056017652
63	0x3d497371	0.04918236
64	0x3c9c0ebd	0.019049997
65	0x3f6c4468	0.9229188
66	0xbcc82f72	-0.024436686
67	0xbb886676	-0.004162605
68	0xbd173bbd	-0.036922205
69	0xbc85200c	-0.016250633
70	0xbcfdf718	-0.031001613
71	0x3f7848c6	0.96986043
72	0x3f68c07e	0.9091872
73	0xbd544180	-0.05182028
74	0x3cce3552	0.02517191
75	0x3f696eba	0.9118458
76	0x3f589c36	0.8461336
77	0xbd307db3	-0.043088626
78	0xbc3958f3	-0.011312711
79	0x3f59f49e	0.8513888
80	0xbca200a8	-0.019775704
81	0xbba6edb7	-0.005094256
82	0x3f5217c3	0.8206751
83	0xbcbe74ec	-0.023249112
84	0xbcc78236	-0.024354082
85	0x3f65eac4	0.8981135
86	0xbcfe721b	-0.03106027
87	0x3cf93a34	0.030423261
88	0xbcc84b99	-0.02445011
89	0xbd1d2e51	-0.03837425
90	0xbca361f9	-0.019944178
91	0x3f617012	0.8806163
92	0x3f68a1ea	0.9087206
93	0xbd3b8417	-0.045780268
94	0x3d2d94aa	0.042378105
95	0x3cba6d1b	0.022757104
96	0xbc456be4	-0.012049649
97	0x3d7abbd7	0.061214294
98	0x3f5eb6b8	0.86997557
99	0xbd808e14	-0.06277099
100	0x3ce511f8	0.02796267
101	0x3d78b3bb	0.06071828
102	0xbcfcd0bc	-0.030861251
103	0x3f69fec3	0.9140436
104	0x3f71afc8	0.94408846
105	0x3b78ec8a	0.0037982785
106	0xbd5f6617	-0.05454072
107	0x3f5dd469	0.8665224
108	0xbc58e534	-0.01323824
109	0xbbe104a0	-0.0068670064
110	0x3f582004	0.8442385
111	0x3cfadf13	0.030623948
112	0xbd181853	-0.037132572
113	0x3f6fdba5	0.93694526
114	0x3f60e7ff	0.87854
115	0xbd6f9902	-0.05849553
116	0x3f5bc535	0.8584779
117	0x3f4d0f0a	0.8010107
118	0xbcda0134	-0.026611902
119	0x3c8bb5bd	0.017054433
120	0x3b670d82	0.0035255854
121	0x3f59c64f	0.8506822
122	0xbd641681	-0.055685524
123	0x3d3c0e83	0.045912277
124	0x3f5f15fe	0.8714293
125	0x3f69d69d	0.913431
126	0x3c4e0372	0.012574064
127	0xbbbef9e6	-0.00582813
