test/results/breakout_0/DQN/models_1000000.pth (torch, 173027 bytes, 12 tensors)

layer1.weight f4 [128, 28]
0.05693509 -0.026077725 -0.06356439 -0.0648199 -0.0604697 -0.06176645 -0.042768903 0.46155456
0.017290182 0.0541566 -0.012647305 0.050157033 -0.05873808 0.008196087 0.018039845 0.029648868
0.030767282 -0.0151345655 0.03729197 0.002465758 -0.012393176 -0.058773655 0.051071614 0.03420687
0.037618924 0.05862576 -0.030209037 0.5269752 -0.04203503 -0.045647174 0.06029718 -0.017698795
-0.06546908 -0.060190238 -0.06693566 -0.037211772 -0.035733815 -0.057914842 0.057341475 0.025085673
0.024744814 0.046212144 -0.06732731 0.059132706 -0.049174223 -0.045328155 -0.013564542 -7.59569e-05
-0.024081336 -0.012007817 0.041855443 -0.010857687 -0.048236996 -0.056210168 0.058786023 -0.05517953
0.030757751 -0.012343142 -0.057334293 0.04121206 0.022620523 -0.038432207 0.004162215 -0.053074177
-0.008939088 -0.04213275 0.0416721 0.031506903 0.06741375 -0.033148315 0.029041974 -0.03387234
-0.0035756484 0.03519237 0.044293154 0.040103644 0.024223527 -0.012542807 -0.04219447 0.007918394
-0.0213698 -0.0075167487 -0.0009597375 0.0042281393 0.05969962 0.027134413 -0.0141541865 0.058077205
-0.057235625 0.061237097 0.005538804 0.5216347 0.057291616 -0.007971826 0.0035333065 0.0018505636
0.045758292 -0.044155374 0.038535174 0.052196756 0.024706189 -0.01133055 0.032275658 -0.05582515
-0.039058264 0.010244151 0.042760167 0.05479804 0.017107718 0.009331897 -0.01786728 0.52654094
0.039875876 0.019502888 -0.054869782 0.008061943 0.01352455 0.013504339 -0.012124513 0.43299574
-0.057288814 -0.021387938 -0.035492584 -0.023639064 -0.04187609 0.020151861 -0.058211774 0.024673345
-0.0072835595 0.062035885 -0.039558295 0.048950844 0.011534936 -0.058899984 0.043409463 -0.007566763
0.021291848 0.015918925 -0.06197895 0.46270445 -0.03328637 0.02634574 -0.048268273 0.009405292
-0.009223673 -0.009568016 -0.0021139327 -0.042512048 0.050623156 0.008571392 -0.023923807 -0.025927614
-0.019755127 -0.061645422 0.026864985 0.061836783 0.01993865 0.04435229 -0.05727567 -0.052838743
-0.03766685 0.05608178 0.06076665 0.06760112 -0.06477554 0.06222349 -0.06361509 0.031107955
0.031170715 0.026285738 0.020087745 0.056390267 0.050247647 -0.06274076 -0.01613205 0.4154495
0.013651459 0.00069158064 0.06829299 -0.00093293545 -0.053740665 -0.037874676 -0.056682196 -0.02150699
-0.036431633 -0.044999156 -0.05662033 -0.0028941624 -0.0059147133 -0.020565901 -0.028881649 -0.015702259
-0.05864163 -0.039837826 0.010898933 0.46935952 0.005631072 0.020098168 0.056143958 -0.038345933
0.02759896 0.04223822 0.061446387 0.012673351 -0.00071119936 0.029279506 -0.032738525 -0.066504434
-0.060400095 0.048305314 -0.037513178 0.00980634 -0.027618378 0.0675085 0.0024068695 0.05890282
-0.028745951 -0.005456705 0.012914004 0.04740198 0.047314674 -0.06577521 -0.03814143 -0.013863744
-0.06297021 0.018960414 -0.018018765 -0.013022641 0.0316386 -0.011429571 0.014220204 0.5322543
-0.029961856 -0.00020585026 0.0360811 0.06345656 0.005599117 0.04599807 -0.022817126 -0.06441302
0.014488949 -0.0313298 0.007154418 0.05124753 0.051459543 0.020734718 -0.01753877 -0.046765134
0.04168727 0.042215265 -0.04337618 0.48785344 0.034776952 -0.030497687 0.043721225 -0.009475066
00000000: c534 693d f4a0 d5bc 0c2e 82bd 4cc0 84bd
00000010: 13af 77bd d1fe 7cbd 722e 2fbd e150 ec3e
00000020: 24a4 8d3c 50d3 5d3d a436 4fbc 7671 4d3d
00000030: 5797 70bd e148 063c 4cc8 933c 2fe2 f23c
00000040: ab0b fc3c f8f6 77bc 77bf 183d 8e98 213b
00000050: bf0c 4bbc a5bc 70bd 7830 513d 811c 0c3d
00000060: 4d16 1a3d 9121 703d f178 f7bc d9e7 063f
00000070: ec2c 2cbd 88f8 3abd 2dfa 763d 10fd 90bc
00000080: a714 86bd 0a8a 76bd 9015 89bd 5f6b 18bd
00000090: 9f5d 12bd 1d38 6dbd e5de 6a3d 7880 cd3c
000000a0: a3b5 ca3c f248 3d3d e7e2 89bd 2335 723d
000000b0: e96a 49bd 04aa 39bd d03d 5ebc 0d4b 9fb8
000000c0: 3946 c5bc 6fbc 44bc 9d70 2b3d 71e4 31bc
000000d0: 2894 45bd a23c 66bd 9dc9 703d ee03 62bd
000000e0: aef7 fb3c e43a 4abc 5dd7 6abd facd 283d
000000f0: ad4e b93c 176b 1dbd 3163 883b 4f64 59bd
00000100: 4175 12bc 6493 2cbd 5db0 2a3d 620d 013d
00000110: 3810 8a3d 87c6 07bd 6fe9 ed3c b9bd 0abd
00000120: 6d55 6abb e025 103d bd6c 353d b843 243d
00000130: 6b70 c63c 5880 4dbc 1cd4 2cbd 27bc 013c
00000140: b80f afbc 0f4f f6bb e596 7bba 348c 8a3b
00000150: 9787 743d fd48 de3c f6e6 67bc 5de2 6d3d
00000160: e76f 6abd c0d3 7a3d db7e b53b da89 053f
00000170: 9daa 6a3d 439c 02bc 0c8f 673b 9c8e f23a
00000180: 0c6d 3b3d 44dc 34bd 0fd7 1d3d 44cc 553d
00000190: a264 ca3c c5a3 39bc 7b33 043d eaa8 64bd
000001a0: 8ffb 1fbd 15d7 273c 4925 2f3d e973 603d
000001b0: 7c25 8c3c d0e4 183c 675e 92bc 63cb 063f
000001c0: e354 233d 85c4 9f3c 23bf 60bd 3d16 043c
000001d0: 1396 5d3c 4e41 5d3c e5a5 46bc 9eb1 dd3e
000001e0: ada7 6abd c235 afbc ac60 11bd b6a6 c1bc
000001f0: 4386 2bbd 8415 a53c 786f 6ebd c11f ca3c
00000200: edaa eebb 5719 7e3d e107 22bd ae80 483d
00000210: 07fd 3c3c 1c41 71bd 1fce 313d 9cf2 f7bb
00000220: 3e6c ae3c 6868 823c a4dd 7dbd 99e7 ec3e
00000230: 4a57 08bd 05d3 d73c f4b4 45bd a718 1a3c
00000240: e31e 17bc 2bc3 1cbc e889 0abb 1d21 2ebd
00000250: 3a5a 4f3d 066f 0c3c dcfb c3bc 2666 d4bc
00000260: 81d5 a1bc e97f 7cbd f513 dc3c 9148 7d3d
00000270: 6156 a33c bfaa 353d e599 6abd 706d 58bd
00000280: 8e48 1abd 02b6 653d 73e6 783d 7572 8a3d
00000290: 0aa9 84bd 0fde 7e3d a148 82bd 1cd6 fe3c
000002a0: ba59 ff3c 3055 d73c 0e8f a43c 7bf9 663d
000002b0: 7ad0 4d3d 3a7e 80bd 5c27 84bc ccb5 d43e
000002c0: 5eaa 5f3c 314b 353a 32dd 8b3d 3d90 74ba
000002d0: 2c1f 5cbd 7a22 1bbd 972b 68bd 6d2f b0bc
000002e0: 5639 15bd 0951 38bd b8ea 67bd fdab 3dbb
000002f0: 36d0 c1bb d279 a8bc 3599 ecbc 06a2 80bc
00000300: 3532 70bd fd2c 23bd 7091 323c e44f f03e
00000310: db84 b83b eaa4 a43c 35f7 653d a010 1dbd
00000320: 3717 e23c fc01 2d3d 35af 7b3d e3a3 4f3c
00000330: c86f 3aba 93db ef3c d518 06bd 7a33 88bd
00000340: 1766 77bd cbdb 453d 6ba7 19bd c5aa 203c
00000350: f03f e2bc e541 8a3d 92bc 1d3b 1544 713d
00000360: a17c ebbc 29ce b2bb 4295 533c 9428 423d
00000370: 08cd 413d 27b5 86bd 303a 1cbd c224 63bc
00000380: 87f6 80bd df52 9b3c 179c 93bc ea5c 55bc
00000390: 7a97 013d 1843 3bbc dcfb 683c d141 083f
000003a0: 9172 f5bc 82d9 57b9 c7c9 133d 83f5 813d
000003b0: cc78 b73b 7968 3c3d fbea babc f9ea 83bd
000003c0: 0f63 6d3c ad53 00bd 9c6f ea3b eee8 513d
000003d0: 3ec7 523d dbdb a93c 77ad 8fbc cc8c 3fbd
000003e0: 45c0 2a3d eae9 2c3d 39ab 31bd edc7 f93e
000003f0: 4772 0e3d 49d6 f9bc 0715 333d 4f3d 1bbc

layer1.bias f4 [128]
0.49839908 -0.0066810264 0.04082235 0.44646972 0.5066376 -0.04057597 0.5228182 -0.029029375
0.46957 -0.017669933 -0.008706287 -0.024184672 0.3926434 0.38930348 -0.045767963 -0.03397362
-0.03829797 0.019989163 -0.0022261208 -0.018036922 -0.05168221 -0.058127772 0.46558982 0.46131998
0.41594452 0.012649112 0.45411983 0.5161987 -0.026920138 0.51921517 0.5293321 0.50370526
-0.047732927 -0.030065546 0.45543683 0.010776271 0.50131637 0.52055615 -0.027594307 0.4944106
-0.0334219 0.51056325 0.48430318 0.042331662 0.5284314 -0.05783682 0.057012364 0.5096555
0.5021095 -0.0635657 -0.0546722 0.48787716 0.02338759 -0.03387997 0.03248098 0.5117951
-0.003567038 -0.026697723 0.025292218 0.02676125 0.44502813 0.51532525 0.5100063 -0.049245987
0.0054711276 -0.02296452 0.52797437 0.5299148 -0.009570854 0.045780934 0.45294532 0.53489685
0.5068852 0.026345976 -0.051723395 0.5179108 0.51295143 0.04137087 0.51439416 -0.056768633
0.03213925 0.056600563 -0.063579746 0.5317462 -0.03343438 0.039571475 0.4908231 0.41777286
-0.0081133405 0.4053127 0.5280569 -0.066290125 0.52207106 0.41863668 0.47911558 0.028540537
-0.0618561 0.5230698 0.037236992 0.4463552 0.033276614 0.5239743 -0.039763294 -0.055178028
0.50955224 0.4616261 0.48905444 0.45049286 0.4391622 0.43468255 -0.016248127 0.52477527
0.42502224 0.4168862 -0.054794583 0.002217283 0.50093126 -0.003408451 -0.055840712 0.038292814
0.48186442 0.49811852 0.42579475 0.44436648 0.47326812 0.46510234 0.5033805 0.4983881
00000000: 2a2e ff3e 83ec dabb 5635 273d ae97 e43e
00000010: 00b3 013f fd32 26bd 6ad7 053f 03cf edbc
00000020: 7b6b f03e 89c0 90bc d0a4 0ebc ef1e c6bc
00000030: 8e08 c93e c952 c73e 3077 3bbd ec27 0bbd
00000040: 55de 1cbd 50c0 a33c 1ce4 11bb 2bc2 93bc
00000050: bab0 53bd 6317 6ebd ca61 ee3e 2232 ec3e
00000060: aef6 d43e 393e 4f3c 6582 e83e 9925 043f
00000070: 9f87 dcbc 49eb 043f 4f82 073f d4f2 003f
00000080: 9a83 43bd 054c f6bc 042f e93e f58e 303c
00000090: 4556 003f 2b43 053f 750d e2bc 6323 fd3e
000000a0: 67e5 08bd 46b4 023f 96f6 f73e f763 2d3d
000000b0: 4847 073f 4de6 6cbd cc85 693d c878 023f
000000c0: 408a 003f bc2e 82bd f5ef 5fbd 09cb f93e
000000d0: 5597 bf3c b9c5 0abd c70a 053d 0105 033f
000000e0: f8c4 69bb 2fb5 dabc a031 cf3c 693a db3c
000000f0: bada e33e 5bec 033f c68f 023f 29b6 49bd
00000100: 2547 b33b 1720 bcbc 5429 073f 7fa8 073f
00000110: 12cf 1cbc ca84 3b3d 73e8 e73e 00ef 083f
00000120: 3ac3 013f 84d3 d73c e9db 53bd cd95 043f
00000130: c950 033f 8074 293d 56af 033f 3a86 68bd
00000140: 72a4 033d fed5 673d 1936 82bd 8520 083f
00000150: 7df2 08bd b315 223d 2a4d fb3e 53e6 d53e
00000160: d1ed 04bc 2585 cf3e bd2e 073f 1ec3 87bd
00000170: 73a6 053f 8c57 d63e a34e f53e d8cd e93c
00000180: d25c 7dbd e7e7 053f d185 183d ab88 e43e
00000190: 0f4d 083d 2e23 063f d6de 22bd 5b02 62bd
000001a0: 0472 023f 425a ec3e 5865 fa3e 00a7 e63e
000001b0: ded9 e03e b68e de3e cb1a 85bc ac57 063f
000001c0: 849c d93e 1c72 d53e 4970 60bd d64f 113b
000001d0: 083d 003f 5260 5fbb 3bb9 64bd edd8 1c3d
000001e0: efb6 f63e 6409 ff3e c501 da3e 0184 e33e
000001f0: 3350 f23e e521 ee3e 8bdd 003f ba2c ff3e

layer2.weight f4 [128, 128]
0.44405165 0.009394761 -0.0037405663 0.40527475 0.40121904 0.015876288 0.43050507 -0.030647399
0.42718586 -0.01999529 0.008573478 -0.02564672 0.4186354 0.403216 0.0142616695 0.02607229
-0.0053426027 0.014216484 -0.030011702 -0.014770969 -0.010635865 0.031072937 0.44575784 0.41420805
0.43684542 0.03095875 0.4299759 0.39882722 0.013682709 0.4409762 0.39472982 0.41843015
-0.022889147 0.01707485 0.42761534 -0.019487368 0.42758068 0.44837078 0.00046648402 0.43391547
0.030443303 0.4177572 0.4267134 -0.026411783 0.42711577 0.01542575 0.015886698 0.44884259
0.40019745 0.004297508 -0.0073551773 0.4453425 0.017473217 0.017352952 -0.020715244 0.44786695
-0.010445528 0.030545928 -0.011269948 -0.007680143 0.42726678 0.4406948 0.43341348 0.0065378146
-0.028944233 -0.021418259 0.43922484 0.4490391 0.02372631 -0.016828882 0.4149439 0.41288415
0.40250975 0.0023176435 -0.013245767 0.41406733 0.44196615 0.0030555485 0.42752555 -0.0030334357
0.02209366 7.694857e-05 -0.0096855145 0.40275764 -0.0027378576 -0.015224222 0.43039942 0.40878358
0.028470578 0.4506615 0.44659376 -0.018301243 0.40774995 0.41403124 0.4081829 -0.029302493
0.00077193574 0.42387483 0.01313561 0.45558214 -0.021285752 0.3981487 -0.013388328 -0.008268836
0.4001498 0.41445854 0.40596908 0.43873918 0.3939125 0.40857464 0.017771149 0.43565312
0.42668512 0.42708898 -0.026819304 0.006191922 0.41230914 -0.0045421734 0.030864378 0.0041860132
0.4052771 0.45560202 0.41759434 0.44410783 0.43958348 0.41333184 0.4153172 0.41148588
0.45848894 -0.026921496 0.018633336 0.47491565 0.44883722 -0.008667126 0.44595256 0.027675211
0.4463284 -0.00033043188 -0.027717102 0.024964284 0.45191738 0.4442623 -0.009666239 0.0051048407
0.015638167 -0.025065243 -0.027996622 -0.02244828 -0.013904858 -0.020326134 0.44649118 0.42240673
0.4331271 0.010611614 0.44664457 0.46961623 0.0026622752 0.46719015 0.45587078 0.4193583
-0.011571763 -0.017059699 0.44076234 -0.004926484 0.45948562 0.43786845 0.030993609 0.44599563
0.02126724 0.4711292 0.43119785 -0.0194529 0.457307 -0.028593877 0.00021980709 0.42031536
0.45342192 -0.0039129793 0.002060421 0.45258802 -0.014253435 0.024200408 -0.004257868 0.43578702
-0.02805326 -0.015129347 0.029681357 0.014904917 0.41911837 0.43587226 0.46905714 -0.01644569
0.0115698455 -0.021465521 0.43978673 0.43844005 -0.020104535 -0.022458946 0.47490948 0.42970744
0.45159367 -0.02440793 0.009274754 0.47528717 0.44296172 -0.017876443 0.44360408 0.007017558
-0.010334433 0.028434398 -0.0012040122 0.44807836 0.019763125 0.02143384 0.42873213 0.4812518
-0.0014402232 0.4707923 0.47948462 -0.0256075 0.4377156 0.4576644 0.4760755 0.021048915
0.0051767007 0.46721554 0.019722233 0.43360236 -0.023497935 0.47876424 0.02086484 -0.017645648
0.42835173 0.44855663 0.4552807 0.4756595 0.45465645 0.47067 0.023050059 0.41485354
0.4764182 0.4410937 -0.014035531 -0.018139882 0.4222966 -0.026261006 0.030298367 0.012668018
0.46238852 0.45504463 0.48159748 0.4520787 0.45211732 0.45178166 0.45972776 0.43263054
00000000: bd5a e33e 7cec 193c 4a24 75bb 2c80 cf3e
00000010: 956c cd3e fd0e 823c 296b dc3e 4110 fbbc
00000020: 1bb8 da3e 2acd a3bc c677 0c3c 1219 d2bc
00000030: 6157 d63e 5472 ce3e c7a9 693c 8e95 d53c
00000040: 0011 afbb 41ec 683c 1adb f5bc ef01 72bc
00000050: 0d42 2ebc ac8c fe3c 5f3a e43e 1413 d43e
00000060: 34aa df3e 349d fd3c cd25 dc3e 1533 cc3e
00000070: 712d 603c a2c7 e13e 071a ca3e 7a3c d63e
00000080: 0582 bbbc 8ee0 8b3c 66f0 da3e f9a3 9fbc
00000090: dbeb da3e db90 e53e 6d92 f439 2b2a de3e
000000a0: 3c64 f93c 46e4 d53e 2e7a da3e 865d d8bc
000000b0: ebae da3e 49bc 7c3c d224 823c b2ce e53e
000000c0: aee6 cc3e 1cd2 8c3b b303 f1bb ef03 e43e
000000d0: fe23 8f3c c727 8e3c 04b3 a9bc d14e e53e
000000e0: b823 2bbc 743b fa3c 97a5 38bc b6a9 fbbb
000000f0: b6c2 da3e c0a2 e13e 5fe8 dd3e 2a3b d63b
00000100: 751c edbc 5875 afbc 14e2 e03e 74e8 e53e
00000110: ae5d c23c b9dc 89bc 8773 d43e 8d65 d33e
00000120: c215 ce3e 9be3 173b c604 59bc a200 d43e
00000130: 6349 e23e 993f 483b a1e4 da3e 9bcc 46bb
00000140: c3fd b43c 735f a138 feaf 1ebc 4036 ce3e
00000150: a16d 33bb 046f 79bc 505d dc3e 154c d13e
00000160: 213b e93c 1bbd e63e f0a7 e43e 7dec 95bc
00000170: 9ac4 d03e e7fb d33e 59fd d03e c80b f0bc
00000180: bb5b 4a3a 1f06 d93e be36 573c 1042 e93e
00000190: 755f aebc 25da cb3e b85a 5bbc 037a 07bc
000001a0: 6fe0 cc3e e933 d43e 2edb cf3e 6ca2 e03e
000001b0: e6ae c93e b230 d13e cd94 913c ed0d df3e
000001c0: 7976 da3e 68ab da3e 28b4 dbbc 9be5 ca3b
000001d0: 2f1a d33e 83d6 94bb 4bd7 fc3c d32a 893b
000001e0: 7b80 cf3e ab44 e93e edce d53e 1a62 e33e
000001f0: 1611 e13e 3ba0 d33e 75a4 d43e 47ae d23e
00000200: 10bf ea3e 788a dcbc f0a4 983c 2528 f33e
00000210: fecd e53e 9000 0ebc e553 e43e 20b7 e23c
00000220: 2885 e43e d13d adb9 fa0e e3bc e681 cc3c
00000230: b761 e73e 5976 e33e 255f 1ebc 8246 a73b
00000240: 9d1b 803c a055 cdbc 2c59 e5bc 75e5 b7bc
00000250: 34d1 63bc fe82 a6bc 7e9a e43e b245 d83e
00000260: d6c2 dd3e 56dc 2d3c 99ae e43e 8a71 f03e
00000270: 9179 2e3b 8c33 ef3e e567 e93e 22b6 d63e
00000280: 7e97 3dbc c8c0 8bbc 9aab e13e 586e a1bb
00000290: b341 eb3e 4b30 e03e 4fe6 fd3c 8a59 e43e
000002a0: a338 ae3c d937 f13e f7c5 dc3e b05b 9fbc
000002b0: 2524 ea3e b53d eabc 047c 6639 9333 d73e
000002c0: eb26 e83e 7338 80bb 2108 073b 9eb9 e73e
000002d0: 3d87 69bc ef3f c63c 9685 8bbb 7a1f df3e
000002e0: f3cf e5bc 15e1 77bc 5126 f33c c133 743c
000002f0: af96 d63e a62a df3e 4228 f03e 1db9 86bc
00000300: 738f 3d3c 76d8 afbc ba2b e13e 377b e03e
00000310: 44b2 a4bc d3fb b7bc 5627 f33e 9d02 dc3e
00000320: 4937 e73e 24f3 c7bc 23f5 173c d758 f33e
00000330: e1cb e23e 9e71 92bc 1320 e33e 8bf3 e53b
00000340: c151 29bc 41ef e83c f2cf 9dba 876a e53e
00000350: 47e6 a13c 0596 af3c c782 db3e a366 f63e
00000360: dfc5 bcba b00b f13e 027f f53e d2c6 d1bc
00000370: 421c e03e fd52 ea3e 2bc0 f33e c66e ac3c
00000380: 50a1 a93b e036 ef3e 8590 a13c 2101 de3e
00000390: be7e c0bc 9620 f53e beec aa3c 9b8d 90bc
000003a0: eb50 db3e 37a9 e53e 8d1a e93e a489 f33e
000003b0: bbc8 e83e a9fb f03e 7ad3 bc3c af67 d43e
000003c0: 16ed f33e 09d7 e13e 49f5 65bc 179a 94bc
000003d0: 4337 d83e 5221 d7bc 4834 f83c 858d 4f3c
000003e0: 30be ec3e 9cfb e83e f293 f63e dc76 e73e
000003f0: ec7b e73e ed4f e73e 7061 eb3e c081 dd3e

layer2.bias f4 [128]
0.42398942 0.41768903 -0.0063524935 -0.020554742 0.012262239 -0.020417286 0.41041964 0.45004928
0.009525834 0.018687012 -0.01969449 0.027453778 0.022946844 0.0026077677 0.36177155 0.42431733
0.48205182 -0.005701729 0.4573839 -0.022856036 -0.023647467 0.017035564 -0.0039333557 0.02939748
0.0013036391 -0.0030297092 0.01077633 -0.013025211 0.017567232 0.45627028 0.023381492 0.4429178
-0.01842469 0.42816788 0.45533094 -0.022601483 0.030522892 -0.031697046 0.4016155 0.41971883
-0.032308348 0.013409798 -0.013484984 -0.022778863 -0.009204455 0.4338289 -0.0133276805 0.42819464
0.011211804 0.41564882 0.02845755 -0.02269029 -0.0017655458 0.43105164 -0.01839397 0.42639798
0.447176 0.3821878 -0.010151166 0.020336112 0.019336108 0.42017442 -0.027534151 0.024179801
0.009366768 0.45280024 -0.012012654 -0.0020457024 -0.01814465 -0.007982916 -0.015231831 0.4762632
0.44687483 -0.025467116 0.0123675605 0.44787854 0.41542736 -0.021164577 -0.005561421 0.41798463
-0.009713806 -0.0025036167 0.40266415 -0.011424261 -0.011971352 0.44121227 -0.015261159 0.01495576
-0.012019366 -0.018870676 -0.009798044 0.43262294 0.4464203 -0.022510396 0.020836852 0.011188685
-0.00592198 0.03008459 0.42677936 -0.030840013 0.013743998 0.02985117 -0.015161873 0.44883135
0.46324655 0.0018672915 -0.02679569 0.4253267 -0.0065083643 -0.003374169 0.41443568 0.0150502
-0.018249827 0.45981222 0.4315813 -0.028741444 0.42126495 0.3927224 -0.0130844405 0.008384816
0.0017331255 0.41763484 -0.027368095 0.022576401 0.4273989 0.4485796 0.0061782594 -0.0028633815
00000000: 2415 d93e 56db d53e 9428 d0bb 6b62 a8bc
00000010: 8fe7 483c 2742 a7bc 8622 d23e dc6c e63e
00000020: 3e12 1c3c 8115 993c 5756 a1bc bfe6 e03c
00000030: 05fb bb3c 15e7 2a3b 1f3a b93e 1f40 d93e
00000040: 7fcf f63e 92d5 babb 392e ea3e 953c bbbc
00000050: 55b8 c1bc 2b8e 8b3c 61e3 80bb fcd2 f03c
00000060: dfde aa3a 168e 46bb 348f 303c b267 55bc
00000070: 28e9 8f3c 429c e93e 8b8a bf3c 1fc6 e23e
00000080: 60ef 96bc d238 db3e 2321 e93e bf26 b9bc
00000090: 250b fa3c c3d4 01bd 8ca0 cd3e 63e5 d63e
000000a0: c255 04bd c5b4 5b3c 1ff0 5cbc bd9a babc
000000b0: 48ce 16bc d21e de3e 585c 5abc 543c db3e
000000c0: b7b1 373c eccf d43e cf1f e93c fde0 b9bc
000000d0: e369 e7ba cdb2 dc3e f3ae 96bc d650 da3e
000000e0: 41f4 e43e 1fae c33e 1351 26bc eb97 a63c
000000f0: c266 9e3c 1a21 d73e 4d8f e1bc b814 c63c
00000100: 1377 193c 6fd5 e73e b9d0 44bc 3111 06bb
00000110: 17a4 94bc c7ca 02bc ee8e 79bc c5d8 f33e
00000120: c7cc e43e 6aa0 d0bc 4fa1 4a3c 5650 e53e
00000130: e5b2 d43e 5661 adbc 953c b6bb 1502 d63e
00000140: a826 1fbc b813 24bb ff29 ce3e d32c 3bbc
00000150: 7d23 44bc 93e6 e13e f109 7abc 0109 753c
00000160: e0ec 44bc ad96 9abc fa87 20bc c180 dd3e
00000170: 3491 e43e b967 b8bc 0cb2 aa3c bf50 373c
00000180: 2b0d c2bb f573 f63c d382 da3e 32a4 fcbc
00000190: 812e 613c 718a f43c 8169 78bc 39cd e53e
000001a0: a72e ed3e e8bf f43a a382 dbbc 6cc4 d93e
000001b0: 1e44 d5bb 2a21 5dbb ea30 d43e 1d95 763c
000001c0: a980 95bc 826c eb3e 39f8 dc3e 2d73 ebbc
000001d0: 0ab0 d73e e912 c93e 1f60 56bc 7860 093c
000001e0: 0b2a e33a 3cd4 d53e 0e33 e0bc 25f2 b83c
000001f0: 07d4 da3e 3aac e53e ff72 ca3b 92a7 3bbb

layer3.weight f4 [7, 128]
0.35703823 0.3282221 -0.0086613465 -0.02029319 0.0060427273 -0.027272023 0.3317688 0.32606205
0.02831017 0.01744308 -0.029239276 -0.010207383 -0.016302258 0.01767019 0.30357563 0.3385359
0.29434192 0.022065358 0.33112028 0.012625273 0.015620249 -0.009890475 -0.011275818 0.03296318
0.019630475 -0.024236046 0.008538099 -0.007835313 0.015640851 0.3236245 0.0008310778 0.33065873
0.021443158 0.3170267 0.34969726 0.0054532182 0.028390253 0.020955522 0.32191178 0.34625885
-0.0133176735 0.0293793 0.0047535333 -0.010800945 0.011826851 0.33414128 0.02791024 0.3315626
0.010650963 0.3259765 0.010179833 0.0028561994 0.022354411 0.355536 -0.017801704 0.35555267
0.35612473 0.33382994 0.00680493 0.016615963 -0.016819878 0.33618113 -0.011979258 -0.009835459
-0.0074056946 0.3335959 0.015254256 -0.01350966 -0.027943473 -0.014177507 -0.01076897 0.30673093
0.3295944 -0.026963508 -0.027591199 0.318253 0.3389765 0.004981786 -0.0023495 0.33308285
0.02863556 -0.0103865955 0.32538822 0.029218132 0.00805902 0.32639402 -0.024343647 0.022291938
0.00771446 0.009700041 -0.02026539 0.35713765 0.31228107 0.0069041755 -0.0091349315 -0.026903614
-0.030182296 0.023778802 0.33390146 0.019840738 -0.028615667 0.004286008 -0.020537484 0.3229513
0.33859828 -0.010827565 -0.012952587 0.35802755 0.009916643 0.018108943 0.34077242 0.029132256
0.023113482 0.3477059 0.353116 -0.015359298 0.3054778 0.3476087 -0.0040803845 -0.023002552
0.030879566 0.3328591 -0.012778831 0.004166038 0.3148473 0.31837276 0.0011273724 -0.010026156
0.22554281 0.21671388 0.0058072256 -0.01524445 0.006953274 0.020738194 0.20608461 0.21824561
-0.01933996 -0.0024033755 0.007766462 0.0039009308 -0.0050137457 0.027464934 0.22037259 0.22108003
0.23334491 0.002515476 0.24691743 -0.018972872 0.009705404 -8.914951e-05 0.027581565 0.027910128
0.024134431 0.024210684 -0.010824207 0.002815223 -0.028034288 0.24635595 0.007824447 0.21417262
0.0059643365 0.2367388 0.22386663 0.00785532 -0.005641153 -0.001423975 0.23187886 0.23491597
0.006753889 -0.015108046 -0.0068694074 0.016645884 0.026858695 0.25015464 -0.008621454 0.19722627
0.017066827 0.18885344 0.0109006725 -0.004853827 -0.015665073 0.19467728 0.0097519085 0.21856758
0.2264609 0.23570861 0.010857321 -0.009004367 0.02832873 0.20867372 -0.022683064 -0.030202258
0.01888095 0.23825262 0.015705155 0.013920553 0.018819222 0.013033742 0.0019129805 0.24520823
0.2039016 0.017742453 0.008870438 0.21633692 0.23997453 -0.0059273206 -0.027473755 0.20538853
-0.014937594 0.017017692 0.21533126 0.027856102 0.023747135 0.19552082 0.018916639 -0.020945527
-0.030515775 -0.023971979 -0.009034661 0.22638294 0.23120926 0.014842755 0.009624744 0.0041553313
0.008020958 0.011292086 0.24555676 0.003471022 -0.0061066444 0.0116941435 -0.011347096 0.2084597
0.2179139 0.005231881 0.009407288 0.24195138 0.0029881634 -0.030572083 0.21903056 -0.028568143
0.026801486 0.2394215 0.23101209 0.0065438636 0.23609246 0.21805929 -0.025349502 -0.0062124226
0.007066897 0.21918103 0.0021712729 -0.0068605915 0.2414035 0.21996029 -0.012831952 0.017716048
00000000: b7cd b63e ba0c a83e 52e8 0dbc e73d a6bc
00000010: 1202 c63b 9469 dfbc 9add a93e 9bf1 a63e
00000020: bbea e73c cae4 8e3c 3587 efbc de3c 27bc
00000030: 508c 85bc 13c1 903c 446e 9b3e 9454 ad3e
00000040: fcb3 963e 69c2 b43c 9988 a93e 3cda 4e3c
00000050: 13ec 7f3c a90b 22bc 35be 38bc 6604 073d
00000060: 17d0 a03c ac8a c6bc 62e3 0b3c af5f 00bc
00000070: 3e21 803c 1cb2 a53e b0dc 593a 1a4c a93e
00000080: 90a9 af3c 5351 a23e 850b b33e e9b0 b23b
00000090: ad92 e83c eaaa ab3c 9fd1 a43e d748 b13e
000000a0: 5f32 5abc dcac f03c 87c3 9b3b 72f6 30bc
000000b0: 69c5 413c 9114 ab3e 04a4 e43c 93c2 a93e
000000c0: 6081 2e3c 64e6 a63e 50c9 263c 132f 3b3b
000000d0: 9920 b73c d108 b63e e1d4 91bc 000b b63e
000000e0: fb55 b63e c2eb aa3e e4fb de3b 331e 883c
000000f0: d7c9 89bc ef1f ac3e a644 44bc e824 21bc
00000100: 78ab f2bb 15cd aa3e fdec 793c 9f57 5dbc
00000110: b6e9 e4bc c648 68bc 5570 30bc d60b 9d3e
00000120: 99c0 a83e 93e2 dcbc f006 e2bc 0ff2 a23e
00000130: 548e ad3e 403e a33b 12fa 19bb d689 aa3e
00000140: 1f95 ea3c 8a2c 2abc 4999 a63e dd5a ef3c
00000150: fb09 043c 1e1d a73e 546c c7bc 959d b63c
00000160: 95c9 fc3b ecec 1e3c 9a03 a6bc bfda b63e
00000170: 4ee3 9f3e 6c3c e23b aeaa 15bc f864 dcbc
00000180: dd40 f7bc c3cb c23c 22f5 aa3e 0b89 a23c
00000190: 676b eabc a471 8c3b 3a3e a8bc df59 a53e
000001a0: c15c ad3e 1966 31bc 1637 54bc 634f b73e
000001b0: 6a79 223c 3559 943c b979 ae3e c5a6 ee3c
000001c0: 7c58 bd3c 8206 b23e 9fcb b43e 91a5 7bbc
000001d0: 9667 9c3e c4f9 b13e bfb4 85bb d96f bcbc
000001e0: 25f7 fc3c 826c aa3e 4d5e 51bc 4283 883b
000001f0: aa33 a13e c101 a33e 57c4 933a bf44 24bc
00000200: b2f4 663e 3eea 5d3e 8a4a be3b dcc3 79bc
00000210: 4ad8 e33b 25e3 a93c d807 533e c77b 5f3e
00000220: d66e 9ebc f381 1dbb ce7d fe3b c2a6 7f3b
00000230: 594a a4bb 24fe e03c 5aa9 613e ce62 623e
00000240: f8f1 6e3e afda 243b ecd7 7c3e ff6c 9bbc
00000250: 6a03 1f3c c7f5 bab8 bcf2 e13c c8a3 e43c
00000260: 92b5 c53c 7c55 c63c 0458 31bc 9b7f 383b
00000270: 2aa8 e5bc bc44 7c3e 1c32 003c 1150 5b3e
00000280: 7b70 c33b a86b 723e 4b3d 653e 9ab3 003c
00000290: 6cd9 b8bb aca4 baba a771 6d3e d08d 703e
000002a0: ba4f dd3b bd87 77bc c418 e1bb f35c 883c
000002b0: c406 dc3c 4514 803e 0041 0dbc aff5 493e
000002c0: bbcf 8b3c cc62 413e bc98 323c da0c 9fbb
000002d0: 0a54 80bc 7b59 473e 78c6 1f3c 2ed0 5f3e
000002e0: 5ee5 673e 995d 713e e8e2 313c 0d87 13bc
000002f0: a711 e83c 90ae 553e d5d1 b9bc ba6a f7bc
00000300: 39ac 9a3c 7ff8 733e 19a8 803c 0813 643c
00000310: c52a 9a3c 7a8b 553c f9bc fa3a de17 7b3e
00000320: 95cb 503e 9f58 913c 5055 113c 6d87 5d3e
00000330: e2bb 753e f839 c2bb a410 e1bc 5f51 523e
00000340: cfbc 74bc b068 8b3c cc7f 5c3e 7b32 e43c
00000350: 5a89 c23c 9c36 483e 11f7 9a3c f495 abbc
00000360: 38fc f9bc e260 c4bc 1d06 14bc eed0 673e
00000370: 1fc2 6c3e 072f 733c 1ab1 1d3c 7229 883b
00000380: 566a 033c 7102 393c 3b73 7b3e 167a 633b
00000390: 3f1a c8bb cb98 3f3c 2ce9 39bc 7676 553e
000003a0: d224 5f3e 3370 ab3b 0721 1a3c 1ac2 773e
000003b0: 10d5 433b 4e72 fabc 8c49 603e bd07 eabc
000003c0: ca8e db3c e92a 753e 6f8e 6c3e e86d d63b
000003d0: 39c2 713e ef4a 5f3e c2a9 cfbc 9491 cbbb
000003e0: 6e91 e73b fe70 603e ea4b 0e3b d0ce e0bb
000003f0: 7b32 773e 453d 613e 1c3d 52bc 3f21 913c

layer3.bias f4 [7]
0.32602558 0.076308884 0.10967782 0.11711355 0.0918374 0.08285868 0.07644118
00000000: d3ec a63e d547 9c3d c49e e03d 3bd9 ef3d
00000010: 3f15 bc3d d0b1 a93d 328d 9c3d

layer1.weight f4 [128, 28]
0.056946274 -0.02608294 -0.0635778 -0.06483331 -0.06048162 -0.061779108 -0.042777844 0.46159768
0.017293535 0.05416778 -0.012649912 0.050167464 -0.058750015 0.008197763 0.018043572 0.029654836
0.03077361 -0.015137549 0.037299428 0.0024662702 -0.012395597 -0.058785595 0.051082045 0.034213576
0.037626397 0.05863769 -0.030215 0.52702975 -0.042043224 -0.045656122 0.06030912 -0.017702522
-0.06548249 -0.060202163 -0.06694907 -0.037219223 -0.03574129 -0.05792678 0.057353415 0.025090888
0.024749655 0.046221823 -0.067340724 0.059144627 -0.04918391 -0.045337103 -0.013567337 -7.5972894e-05
-0.02408618 -0.012010238 0.04186364 -0.010859924 -0.04824668 -0.05622135 0.058797963 -0.055190712
0.030764079 -0.012345564 -0.057346232 0.041220255 0.022624997 -0.038439665 0.0041630534 -0.053084604
-0.008940957 -0.042140946 0.041680295 0.03151361 0.06742716 -0.03315502 0.02904794 -0.033879045
-0.0035763946 0.03519985 0.044302102 0.04011184 0.02422837 -0.012545414 -0.042202666 0.007920071
-0.021374274 -0.0075182407 -0.00095993525 0.0042289775 0.059711557 0.027140003 -0.014156982 0.058089145
-0.057247557 0.06124975 0.0055399216 0.52168924 0.057303555 -0.007973502 0.0035340057 0.0018509368
0.04576724 -0.044164322 0.038542632 0.052207187 0.024711031 -0.011332787 0.032282364 -0.055836342
-0.03906646 0.0102462 0.04276911 0.054809224 0.01711107 0.0093337605 -0.017871017 0.5265956
0.03988407 0.019506982 -0.054880973 0.008063619 0.013527346 0.013507132 -0.012126935 0.43303236
-0.057300754 -0.021392409 -0.03550004 -0.023643907 -0.041884284 0.020155959 -0.058223702 0.024678187
-0.007285052 0.06204854 -0.03956649 0.048960526 0.011537355 -0.058911927 0.043418404 -0.007568256
0.021296319 0.015922278 -0.061991606 0.46274748 -0.033293076 0.026350953 -0.04827796 0.009407158
-0.009225541 -0.009569879 -0.0021143518 -0.042520992 0.050633587 0.008573068 -0.02392865 -0.02593283
-0.019759225 -0.061658077 0.026870571 0.061849438 0.019942747 0.04436123 -0.05728761 -0.052849174
-0.037674304 0.05609296 0.060779303 0.06761453 -0.06478895 0.062236145 -0.0636285 0.031114284
0.031177042 0.026290953 0.020091843 0.05640145 0.050258078 -0.06275417 -0.016135402 0.41548058
0.013654253 0.00069172046 0.0683064 -0.000933122 -0.05375185 -0.037882138 -0.056693383 -0.021511463
-0.03643911 -0.045008104 -0.056631505 -0.0028947673 -0.005915924 -0.020569999 -0.028887618 -0.015705612
-0.05865357 -0.03984602 0.01090117 0.46940252 0.0056321896 0.020102266 0.056155134 -0.038353387
0.027604548 0.042246416 0.061459042 0.012675958 -0.0007113392 0.029285464 -0.03274523 -0.066517845
-0.06041203 0.048315 -0.037520636 0.009808389 -0.027623966 0.06752191 0.002407336 0.05891476
-0.028751913 -0.0054578236 0.0129166115 0.047411665 0.04732436 -0.06578862 -0.038148906 -0.01386654
-0.062983625 0.018964147 -0.018022506 -0.013025248 0.031645305 -0.011431808 0.014222999 0.53230935
-0.02996782 -0.000205891 0.03608856 0.06346997 0.0056002354 0.04600775 -0.022821596 -0.06442643
0.0144919325 -0.031336505 0.007155911 0.05125796 0.051469974 0.020738816 -0.0175425 -0.046774812
0.041695464 0.04222346 -0.04338513 0.48790234 0.034783658 -0.030504014 0.043730166 -0.009476933
00000000: 7f40 693d e4ab d5bc 1435 82bd 54c7 84bd
00000010: 93bb 77bd 170c 7dbd d237 2fbd 8856 ec3e
00000020: 2cab 8d3c 09df 5d3d 9441 4fbc 667c 4d3d
00000030: dba3 70bd e94f 063c 1dd0 933c b3ee f23c
00000040: f018 fc3c 7b03 78bc 49c7 183d 26a1 213b
00000050: e716 4bbc 2ac9 70bd 683b 513d 8923 0c3d
00000060: 231e 1a3d 132e 703d 7385 f7bc 6ceb 063f
00000070: 8435 2cbd ea01 3bbd b206 773d e104 91bc
00000080: af1b 86bd 8b96 76bd 981c 89bd 2f73 18bd
00000090: 7565 12bd a244 6dbd 6aeb 6a3d 688b cd3c
000000a0: cabf ca3c 1853 3d3d efe9 89bd a341 723d
000000b0: 1175 49bd 66b3 39bd 8949 5ebc a353 9fb8
000000c0: 6150 c5bc 97c6 44bc 3579 2b3d d3ed 31bc
000000d0: 509e 45bd 5c48 66bd 22d6 703d a80f 62bd
000000e0: f304 fc3c 0c45 4abc e2e3 6abd 92d6 283d
000000f0: 0f58 b93c e972 1dbd 396a 883b 3e6f 59bd
00000100: 177d 12bc fc9b 2cbd f5b8 2a3d 6a14 013d
00000110: 4017 8a3d 8fcd 07bd f2f5 ed3c c1c4 0abd
00000120: f261 6abb b82d 103d 1f76 353d 504c 243d
00000130: 937a c63c 488b 4dbc b4dc 2cbd 2fc3 013c
00000140: 1a19 afbc 935b f6bb 2aa4 7bba 3c93 8a3b
00000150: 1b94 743d b654 de3c b0f2 67bc e2ee 6d3d
00000160: 6a7c 6abd 05e1 7a3d 3b88 b53b 6d8d 053f
00000170: 22b7 6a3d 4ba3 02bc c79a 673b 229b f23a
00000180: 6e76 3b3d a6e5 34bd e1de 1d3d 34d7 553d
00000190: ca6e ca3c 27ad 39bc 833a 043d a6b4 64bd
000001a0: 2704 20bd addf 273c aa2e 2f3d a37f 603d
000001b0: 842c 8c3c a1ec 183c 3d66 92bc f8ce 063f
000001c0: 7b5d 233d 1bcd 9f3c dfca 60bd 451d 043c
000001d0: cda1 5d3c 054d 5d3c 0db0 46bc 6bb6 dd3e
000001e0: 32b4 6abd 223f afbc 7d68 11bd deb0 c1bc
000001f0: db8e 2bbd 1c1e a53c fa7b 6ebd e929 ca3c
00000200: 72b7 eebb 9c26 7e3d 7910 22bd d58a 483d
00000210: 2d07 3d3c a24d 71bd 7fd7 313d 22ff f7bb
00000220: 9e75 ae3c 706f 823c e9ea 7dbd 3ded ec3e
00000230: 525e 08bd f4dd d73c 1cbf 45bd 7b20 1a3c
00000240: b926 17bc fbca 1cbc f090 0abb 7e2a 2ebd
00000250: 2a65 4f3d 0e76 0c3c 0406 c4bc 1671 d4bc
00000260: 19de a1bc 2e8d 7cbd ac1f dc3c d655 7d3d
00000270: f95e a33c 1fb4 353d 6aa6 6abd 6078 58bd
00000280: 5f50 1abd bbc1 653d b8f3 783d 7d79 8a3d
00000290: 12b0 84bd 54eb 7e3d a94f 82bd 62e3 fe3c
000002a0: ff66 ff3c 2060 d73c a697 a43c 3505 673d
000002b0: 6adb 4d3d 4285 80bd 642e 84bc dfb9 d43e
000002c0: 17b6 5f3c 9354 353a 3ae4 8b3d c29c 74ba
000002d0: e62a 5cbd 4d2a 1bbd 5237 68bd cf38 b0bc
000002e0: 2d41 15bd 6b5a 38bd 70f6 67bd 23b6 3dbb
000002f0: 5eda c1bb 6a82 a8bc baa5 ecbc 0ea9 80bc
00000300: ba3e 70bd 9535 23bd d29a 323c 8755 f03e
00000310: 3b8e b83b 82ad a43c ed02 663d 7118 1dbd
00000320: ef22 e23c 940a 2d3d 7abc 7b3d d2ae 4f3c
00000330: 2a79 3aba 12e8 ef3c dd1f 06bd 823a 88bd
00000340: 9b72 77bd f3e5 453d 3daf 19bd 5db3 203c
00000350: a84b e2bc ed48 8a3d 65c4 1d3b 9a50 713d
00000360: 2289 ebbc 8bd7 b2bb 32a0 533c bc32 423d
00000370: 30d7 413d 2fbc 86bd 0742 1cbd 7c30 63bc
00000380: 8ffd 80bd b35a 9b3c efa3 93bc da67 55bc
00000390: 829e 013d 7a4c 3bbc 9507 693c 6d45 083f
000003a0: 137f f5bc 72e4 57b9 99d1 133d 8bfc 813d
000003b0: 2e82 b73b 9f72 3c3d 5bf4 babc 01f2 83bd
000003c0: 926f 6d3c b55a 00bd 227c ea3b def3 513d
000003d0: 2ed2 523d 73e4 a93c 4ab5 8fbc f296 3fbd
000003e0: ddc8 2a3d 82f2 2c3d 9bb4 31bd 56ce f93e
000003f0: 4f79 0e3d 8ee3 f9bc 671e 333d 2345 1bbc

layer1.bias f4 [128]
0.49844795 -0.0066824243 0.040830545 0.44650725 0.5066922 -0.040584166 0.52287316 -0.029035334
0.46961308 -0.01767367 -0.008707963 -0.024189515 0.39266825 0.3893288 -0.04577691 -0.033980325
-0.038305443 0.01999326 -0.0022265872 -0.018040648 -0.051692642 -0.05813969 0.46563298 0.46136317
0.4159755 0.012651719 0.4541566 0.51625323 -0.026925724 0.5192697 0.52938646 0.50376
-0.047742613 -0.030071516 0.4554735 0.010778508 0.5013716 0.5206108 -0.027599901 0.49445936
-0.033428606 0.5106182 0.48434633 0.0423406 0.5284863 -0.05784876 0.057024308 0.5097102
0.5021647 -0.06357911 -0.05468338 0.48792616 0.02339243 -0.033886675 0.032487687 0.5118497
-0.0035677836 -0.026703313 0.025297433 0.02676684 0.44506517 0.5153799 0.510061 -0.049255673
0.005472246 -0.022969006 0.52802914 0.52996933 -0.009572719 0.04578988 0.45298195 0.5349517
0.5069399 0.026351191 -0.05173382 0.51796544 0.51300603 0.041379064 0.5144488 -0.05677981
0.032145955 0.056611743 -0.06359316 0.5318011 -0.033441085 0.03957967 0.49087209 0.41780424
-0.008115017 0.40534383 0.52811134 -0.06630354 0.52212566 0.41866818 0.4791585 0.028546501
-0.061868753 0.5231248 0.037244443 0.44639236 0.03328332 0.52402925 -0.03977149 -0.055189203
0.50960714 0.46166924 0.48910362 0.4505305 0.43919978 0.43471923 -0.01625148 0.5248301
0.42505324 0.4169172 -0.05480576 0.002217749 0.5009863 -0.0034091498 -0.055851895 0.038300265
0.48190737 0.49816737 0.42582613 0.4444035 0.47331122 0.46514535 0.5034349 0.498437
00000000: 9234 ff3e 3df8 dabb ee3d 273d 999c e43e
00000010: 94b6 013f 953b 26bd 04db 053f 82db edbc
00000020: 2071 f03e 5fc8 90bc d8ab 0ebc 1729 c6bc
00000030: d00b c93e 1b56 c73e 9280 3bbd f42e 0bbd
00000040: 2be6 1cbd e8c8 a33c efeb 11bb fbc9 93bc
00000050: aabb 53bd e223 6ebd 7267 ee3e cb37 ec3e
00000060: befa d43e 2849 4f3c 3787 e83e 2c29 043f
00000070: 5693 dcbc dcee 043f df85 073f 6af6 003f
00000080: c28d 43bd 8a58 f6bc d333 e93e 5798 303c
00000090: e459 003f c046 053f 3019 e2bc c729 fd3e
000000a0: 6fec 08bd e0b7 023f 3efc f73e 566d 2d3d
000000b0: e14a 073f d2f2 6cbd 5292 693d 5e7c 023f
000000c0: de8d 003f c435 82bd aefb 5fbd 75d1 f93e
000000d0: 7ba1 bf3c c1cc 0abd cf11 053d 9508 033f
000000e0: 7ad1 69bb e8c0 dabc 903c cf3c 2246 db3c
000000f0: 95df e33e f0ef 033f 5c93 023f 51c0 49bd
00000100: 8750 b33b 7f29 bcbc eb2c 073f 12ac 073f
00000110: e5d6 1cbc 2b8e 3b3d 40ed e73e 98f2 083f
00000120: d0c6 013f 74de d73c d8e6 53bd 6299 043f
00000130: 5d54 033f 187d 293d ebb2 033f f291 68bd
00000140: 7aab 033d b7e1 673d 213d 82bd 1e24 083f
00000150: 85f9 08bd 4b1e 223d 9653 fb3e 70ea d53e
00000160: d9f4 04bc 3a89 cf3e 4e32 073f 26ca 87bd
00000170: 07aa 053f ad5b d63e 4354 f53e 5ada e93c
00000180: 176a 7dbd 82eb 053f a18d 183d 8a8d e43e
00000190: 1754 083d c826 063f 6ee7 22bd 130e 62bd
000001a0: 9d75 023f e95f ec3e ca6b fa3e efab e63e
000001b0: cbde e03e 8593 de3e d321 85bc 445b 063f
000001c0: 94a0 d93e 2c76 d53e 017c 60bd a757 113b
000001d0: a340 003f 0b6c 5fbb f5c4 64bd bde0 1c3d
000001e0: 90bc f63e cb0f ff3e e205 da3e db88 e33e
000001f0: d955 f23e 8827 ee3e 1ce1 003f 2233 ff3e

layer2.weight f4 [128, 128]
0.4440875 0.009396625 -0.0037413116 0.4053044 0.40124857 0.01587964 0.43054044 -0.030653726
0.42722094 -0.019999389 0.0085751545 -0.025651935 0.41866454 0.4032455 0.0142646525 0.026077505
-0.0053437212 0.0142192785 -0.030017665 -0.014773953 -0.010638101 0.031079266 0.44579345 0.41423753
0.43688118 0.030965077 0.4300111 0.39885697 0.013685505 0.44101208 0.39475337 0.41846016
-0.02289362 0.017078202 0.42765054 -0.019491462 0.42761645 0.44840658 0.0004665773 0.43395057
0.03044963 0.417787 0.426749 -0.026416998 0.42715108 0.015428914 0.01589005 0.44887826
0.40022725 0.004298346 -0.0073566674 0.4453776 0.017476954 0.017356304 -0.020719342 0.44790265
-0.010447577 0.030552257 -0.011272184 -0.007681725 0.4273027 0.4407308 0.43344903 0.0065391185
-0.028950203 -0.021422733 0.43926027 0.4490746 0.023731153 -0.016832234 0.41497368 0.4129138
0.4025397 0.0023181105 -0.013248375 0.4140973 0.44200188 0.003056154 0.42756063 -0.003034041
0.02209813 7.696458e-05 -0.009687562 0.40278727 -0.002738417 -0.015227386 0.4304345 0.4088133
0.028476173 0.45069745 0.4466289 -0.018304976 0.40777966 0.41406077 0.40821257 -0.029308459
0.000772087 0.42390454 0.013138218 0.45561713 -0.021290224 0.39817822 -0.013391122 -0.008270512
0.40017968 0.41448826 0.40599862 0.438775 0.3939363 0.40860406 0.017774886 0.43568906
0.4267203 0.42712447 -0.02682489 0.006193132 0.41233906 -0.0045431075 0.030870706 0.0041868514
0.40530673 0.45563766 0.4176239 0.44414294 0.43961868 0.41336146 0.41534704 0.4115159
0.4585295 -0.026927084 0.018637067 0.47495642 0.4488719 -0.008668803 0.4459874 0.027680805
0.44636342 -0.00033050176 -0.027722696 0.0249695 0.4519517 0.44429708 -0.009668286 0.005105865
0.01564152 -0.025070459 -0.028002214 -0.022452755 -0.013907653 -0.020330232 0.44652617 0.42243582
0.43316215 0.010613849 0.4466798 0.46965724 0.0026628342 0.46723127 0.45590988 0.4193871
-0.011574183 -0.017063051 0.44079763 -0.0049275085 0.45952618 0.43790284 0.030999936 0.44603074
0.02127171 0.47117057 0.43123233 -0.019456994 0.45734814 -0.028599847 0.00021985076 0.4203445
0.453457 -0.0039138175 0.0020608401 0.4526231 -0.01425642 0.02420525 -0.0042587062 0.43582162
-0.028058847 -0.015132332 0.02968732 0.014907899 0.4191473 0.43590668 0.46909747 -0.016449044
0.011572265 -0.021469992 0.43982133 0.4384746 -0.020108633 -0.022463417 0.47495043 0.4297421
0.4516286 -0.024412774 0.009276624 0.47532788 0.4429971 -0.01788018 0.44363898 0.0070189564
-0.010336482 0.028439991 -0.0012042454 0.4481128 0.019767223 0.021438312 0.42876655 0.48129243
-0.0014405256 0.4708322 0.47952572 -0.025612716 0.43775055 0.45770553 0.47611675 0.021053012
0.005177725 0.4672557 0.01972633 0.4336371 -0.023502778 0.4788056 0.020868938 -0.01764938
0.42838666 0.4485911 0.4553158 0.47570065 0.4546916 0.47071126 0.023054898 0.41488242
0.47645867 0.44112808 -0.014038327 -0.018143615 0.42232528 -0.026266221 0.030304333 0.012670625
0.4624291 0.45507953 0.4816381 0.45211312 0.4521526 0.4518165 0.45976886 0.4326655
00000000: 705f e33e 4df4 193c cb30 75bb 0f84 cf3e
00000010: 7470 cd3e 0516 823c cc6f dc3e 861d fbbc
00000020: b4bc da3e c2d5 a3bc ce7e 0c3c 0224 d2bc
00000030: 335b d63e 3276 ce3e 4ab6 693c 7ea0 d53c
00000040: 621a afbb faf7 683c 9be7 f5bc 730e 72bc
00000050: 6e4b 2ebc f299 fe3c 0a3f e43e f116 d43e
00000060: e4ae df3e 79aa fd3c 6a2a dc3e fb36 cc3e
00000070: 2b39 603c 56cc e13e 1d1d ca3e 6940 d63e
00000080: 678b bbbc 96e7 8b3c 03f5 da3e 8fac 9fbc
00000090: 8bf0 da3e 8c95 e53e f29e f439 c52e de3e
000000a0: 8171 f93c 2de8 d53e d87e da3e 7668 d8bc
000000b0: 8cb3 da3e 8ec9 7c3c da2b 823c 5fd3 e53e
000000c0: 96ea cc3e 24d9 8c3b 3310 f1bb 8808 e43e
000000d0: d42b 8f3c cf2e 8e3c 9cbb a9bc 7f53 e53e
000000e0: 502c 2bbc ba48 fa3c f7ae 38bc fbb6 fbbb
000000f0: 6bc7 da3e 78a7 e13e 08ed dd3e 1a46 d63b
00000100: fa28 edbc ba7e afbc b9e6 e03e 1bed e53e
00000110: d667 c23c c1e3 89bc 6e77 d43e 7069 d33e
00000120: af19 ce3e 71eb 173b b60f 59bc 9004 d43e
00000130: 124e e23e c149 483b 3ae9 da3e c3d6 46bb
00000140: 2307 b53c 0b68 a138 94b8 1ebc 223a ce3e
00000150: 0377 33bb 497c 79bc e961 dc3e fa4f d13e
00000160: dd46 e93c d1c1 e63e 8bac e43e 51f4 95bc
00000170: 7fc8 d03e c6ff d33e 3d01 d13e 4b18 f0bc
00000180: e265 4a3a 040a d93e ae41 573c a646 e93e
00000190: d668 aebc 04de cb3e 7066 5bbc 0b81 07bc
000001a0: 5ae4 cc3e ce37 d43e 0ddf cf3e 1ea7 e03e
000001b0: 05b2 c93e 8d34 d13e a39c 913c a312 df3e
000001c0: 157b da3e 0fb0 da3e dfbf dbbc c2ef ca3b
000001d0: 1b1e d33e 59de 94bb 90e4 fc3c db31 893b
000001e0: 5d84 cf3e 5749 e93e cdd2 d53e b466 e33e
000001f0: b315 e13e 1da4 d33e 5ea8 d43e 36b2 d23e
00000200: 61c4 ea3e 3096 dcbc c3ac 983c 7d2d f33e
00000210: 8ad2 e53e 9807 0ebc 7658 e43e dbc2 e23c
00000220: bf89 e43e 3247 adb9 b51a e3bc d68c cc3c
00000230: 3766 e73e e87a e33e bb67 1ebc 1a4f a73b
00000240: a522 803c 9060 cdbc e664 e5bc d7ee b7bc
00000250: eddc 63bc 968b a6bc 149f e43e 8249 d83e
00000260: 6ec7 dd3e b6e5 2d3c 37b3 e43e ea76 f03e
00000270: f282 2e3b f038 ef3e 056d e93e e8b9 d63e
00000280: a4a1 3dbc d0c7 8bbc 3ab0 e13e f076 a1bb
00000290: 0447 eb3e cd34 e03e 94f3 fd3c 245e e43e
000002a0: 0242 ae3c 453d f13e 7cca dc3e 4664 9fbc
000002b0: 8929 ea3e 3a4a eabc bd87 6639 6537 d73e
000002c0: 842b e83e 7b3f 80bb 290f 073b 37be e73e
000002d0: c293 69bc 174a c63c 9e8c 8bbb 0324 df3e
000002e0: abdb e5bc 9aed 77bc d332 f33c 4340 743c
000002f0: 7a9a d63e 292f df3e 8b2d f03e 25c0 86bc
00000300: 9999 3d3c d6e1 afbc 4330 e13e be7f e03e
00000310: dcba a4bc 3305 b8bc b42c f33e 2807 dc3e
00000320: dd3b e73e 4cfd c7bc fbfc 173c 2d5e f33e
00000330: 84d0 e23e 7579 92bc a624 e33e 46ff e53b
00000340: 595a 29bc fcfa e83c c5d7 9dba 0a6f e53e
00000350: dfee a13c 669f af3c 4a87 db3e f66b f63e
00000360: 05d0 bcba eb10 f13e 6584 f53e c2d1 d1bc
00000370: d720 e03e 6158 ea3e 93c5 f33e 5e77 ac3c
00000380: e8a9 a93b 243c ef3e 1d99 a13c af05 de3e
00000390: e688 c0bc 0226 f53e 56f5 aa3c 6f95 90bc
000003a0: 7f55 db3e bcad e53e 271f e93e 098f f33e
000003b0: 56cd e83e 1101 f13e a0dd bc3c 786b d43e
000003c0: 64f2 f33e 8adb e13e 0301 66bc eba1 94bc
000003d0: 053b d83e 422c d7bc cb40 f83c 7498 4f3c
000003e0: 82c3 ec3e 2f00 e93e 4599 f63e 5f7b e73e
000003f0: 8c80 e73e 7e54 e73e d366 eb3e 5586 dd3e

layer2.bias f4 [128]
0.42394978 0.41764757 -0.0063537974 -0.02055884 0.012264661 -0.020421384 0.41038376 0.4500214
0.009527699 0.018690748 -0.019698588 0.027459374 0.022951318 0.00260828 0.36171034 0.42428145
0.48202506 -0.005702847 0.45735416 -0.02286051 -0.02365231 0.017038917 -0.003934194 0.029403452
0.0013038953 -0.0030303146 0.010778567 -0.013027819 0.017570961 0.45624238 0.023386331 0.44289795
-0.01842843 0.42814165 0.45529714 -0.022605954 0.03052922 -0.03170375 0.4015721 0.41968885
-0.032315053 0.013412593 -0.013487779 -0.022783337 -0.009206318 0.43379653 -0.0133304745 0.42816135
0.011214039 0.41561717 0.028463144 -0.022694765 -0.0017658952 0.43103617 -0.018397698 0.42637226
0.44715008 0.38214836 -0.010153214 0.02034021 0.019340202 0.42013213 -0.027539747 0.024184644
0.0093686385 0.45276588 -0.012015075 -0.0020461215 -0.018148383 -0.007984593 -0.015234996 0.47623703
0.44683763 -0.025472332 0.012369982 0.44785073 0.41538516 -0.021169048 -0.0055625397 0.417947
-0.009715853 -0.002504129 0.4026183 -0.011426496 -0.011973773 0.44117737 -0.015264323 0.014958742
-0.012021787 -0.018874405 -0.009800093 0.43259445 0.4463901 -0.02251487 0.02084095 0.01119092
-0.0059231906 0.03009056 0.42674714 -0.03084634 0.013746795 0.029857134 -0.015164909 0.44881094
0.46322381 0.0018676644 -0.02680128 0.42528895 -0.006509668 -0.0033748678 0.41440487 0.015053185
-0.018253567 0.45978367 0.4315552 -0.028747413 0.42121774 0.39269224 -0.013087047 0.008386493
0.0017334752 0.4175973 -0.027373683 0.022580875 0.42737868 0.4485592 0.0061794696 -0.0028639406
00000000: f20f d93e e7d5 d53e 8433 d0bb 036b a8bc
00000010: b7f1 483c bf4a a7bc d21d d23e 3469 e63e
00000020: 111a 1c3c 571d 993c ef5e a1bc 7bf2 e03c
00000030: 6704 bc3c adef 2a3b 1932 b93e 6b3b d93e
00000040: fdcb f63e f3de babb 532a ea3e f745 bbbc
00000050: 7dc2 c1bc 3395 8b3c 69ea 80bb 82df f03c
00000060: 77e7 aa3a 3e98 46bb 9698 303c a272 55bc
00000070: faf0 8f3c 9a98 e93e b194 bf3c 85c3 e23e
00000080: 38f7 96bc 6235 db3e b51c e93e 1f30 b9bc
00000090: 6a18 fa3c cbdb 01bd dc9a cd3e 75e1 d63e
000000a0: ca5c 04bd 7ec0 5b3c d8fb 5cbc 1fa4 babc
000000b0: 19d6 16bc 941a de3e 1068 5abc f737 db3e
000000c0: 17bb 373c c6cb d43e 8a2b e93c 5fea b9bc
000000d0: 9c75 e7ba c6b0 dc3e c5b6 96bc 774d da3e
000000e0: dbf0 e43e f3a8 c33e ab59 26bc 83a0 a63c
000000f0: 586f 9e3c 8f1b d73e 099b e1bc e01e c63c
00000100: eb7e 193c eed0 e73e e1da 44bc 3918 06bb
00000110: ebab 94bc cfd1 02bc 349c 79bc 57d5 f33e
00000120: e7c7 e43e 5aab d0bc 77ab 4a3c b14c e53e
00000130: 5dad d43e b66a adbc f745 b6bb 26fd d53e
00000140: 3e2f 1fbc 501c 24bb fc23 ce3e 3336 3bbc
00000150: a52d 44bc 00e2 e13e 3617 7abc 8315 753c
00000160: 08f7 44bc 7f9e 9abc 9290 20bc 057d dd3e
00000170: 3e8d e43e 1b71 b8bc a4ba aa3c 1f5a 373c
00000180: 5317 c2bb 7a80 f63c 9a7e da3e 77b1 fcbc
00000190: 3d3a 613c f396 f43c 3d76 78bc 8cca e53e
000001a0: ac2b ed3e 6bcc f43a 5c8e dbbc 79bf d93e
000001b0: 0e4f d5bb e32c 5dbb e02c d43e a2a1 763c
000001c0: 8188 95bc c468 eb3e cef4 dc3e b27f ebbc
000001d0: daa9 d73e f50e c93e 0e6b 56bc 8067 093c
000001e0: c735 e33a 50cf d53e c63e e0bc 87fb b83c
000001f0: 61d1 da3e 8da9 e53e 267d ca3b f3b0 3bbb
