Backup/Video_Streaming_DQN_1h40/models_750000.pth (torch, 173013 bytes, 12 tensors)

layer1.weight f4 [128, 28]
0.07348431 -0.033643372 -0.08192074 -0.08345526 -0.07797684 -0.07967052 -0.05511379 0.5947224
0.022285676 0.06978698 -0.016318254 0.064717345 -0.07574222 0.010546306 0.023227546 0.0382209
0.039685216 -0.01951778 0.048031054 0.0031765015 -0.015990041 -0.075786695 0.06589323 0.044073362
0.048456095 0.07560183 -0.038952928 0.6770591 -0.05416868 -0.058826715 0.077739626 -0.022799084
-0.0842487 -0.07759258 -0.08617595 -0.047926802 -0.046005454 -0.07471318 0.07399647 0.032367878
0.03192257 0.059553728 -0.08669815 0.07623551 -0.06340843 -0.058401357 -0.01747877 -9.7868164e-05
-0.031017583 -0.015465831 0.053923786 -0.013985273 -0.06213236 -0.072517745 0.075802155 -0.07114356
0.03967288 -0.015920766 -0.07398749 0.053063937 0.029142607 -0.049513362 0.0053576455 -0.06846796
-0.011508688 -0.05430193 0.05367377 0.040623903 0.0868134 -0.042661954 0.037462283 -0.04362732
-0.004614537 0.045351908 0.057021357 0.05165323 0.031203523 -0.016183898 -0.054386098 0.010206904
-0.027538579 -0.009689406 -0.0012379112 0.005445544 0.07694415 0.034964643 -0.018264962 0.07491613
-0.073864155 0.078985475 0.007130549 0.67036533 0.073934145 -0.0102722095 0.004559254 0.0023856927
0.058974873 -0.056846876 0.049648367 0.06733985 0.03186909 -0.014598354 0.041563492 -0.07200439
-0.05032274 0.013191067 0.05510287 0.07063491 0.022042392 0.01201934 -0.023003211 0.67648226
0.051363334 0.025127968 -0.07073057 0.010382352 0.017429225 0.017404972 -0.015618435 0.55699974
-0.07393064 -0.027561253 -0.04571216 -0.030439226 -0.053951938 0.025953934 -0.07508434 0.031823613
-0.009394403 0.0800192 -0.05095914 0.06309914 0.014866155 -0.0759446 0.055914488 -0.009758174
0.02744114 0.020514198 -0.07994552 0.59609056 -0.042846028 0.03398796 -0.062173255 0.012114752
-0.011878648 -0.0123262955 -0.0027225895 -0.054792717 0.065316655 0.011044573 -0.030811582 -0.03345037
-0.025449 -0.07951389 0.03463751 0.07976154 0.025682574 0.057100203 -0.073914215 -0.06816526
-0.0485184 0.07234656 0.07837666 0.08706323 -0.08340104 0.08026198 -0.08198271 0.04012609
0.040207308 0.03391082 0.025872333 0.07275788 0.06483386 -0.08091408 -0.020774683 0.5352369
0.017594658 0.0008902986 0.087985724 -0.0012024135 -0.06928786 -0.048788574 -0.07314711 -0.027710065
-0.046912618 -0.057962693 -0.073064625 -0.0037293734 -0.007616276 -0.026480895 -0.037261873 -0.020249384
-0.075621665 -0.051314913 0.0140368305 0.60436517 0.007253573 0.0258856 0.07242946 -0.04940121
0.03558404 0.054445755 0.079256326 0.016351743 -0.00091645046 0.037759196 -0.04212922 -0.08560098
-0.077881135 0.062221695 -0.048318624 0.012633853 -0.03560993 0.08693973 0.0031008988 0.07594815
-0.037092254 -0.0070274635 0.016661154 0.06104041 0.060926247 -0.08462868 -0.049135353 -0.017877705
-0.08119453 0.024424285 -0.023200143 -0.01680083 0.040784866 -0.014730382 0.018352987 0.684292
-0.038613055 -0.000265562 0.046456926 0.08178895 0.007210966 0.05929025 -0.029404743 -0.08295795
0.018691095 -0.040407445 0.009232976 0.06611941 0.066392004 0.026698705 -0.022607053 -0.060234327
0.053694457 0.05441445 -0.055872887 0.6283887 0.04483347 -0.039336327 0.05630419 -0.012205459
00000000: f17e 963d a2cd 09bd 10c6 a7bd 97ea aabd
00000010: 52b2 9fbd 4c2a a3bd ffbe 61bd ba3f 183f
00000020: 7390 b63c 7aec 8e3d dcad 85bc 878a 843d
00000030: bd1e 9bbd 6aca 2c3c b247 be3c 858d 1c3d
00000040: f78c 223d c0e3 9fbc 36bc 443d da2c 503b
00000050: 8cfd 82bc 0e36 9bbd 08f3 863d 4586 343d
00000060: e679 463d 22d5 9a3d 1b8d 1fbd bf53 2d3f
00000070: fadf 5dbd 48f4 70bd f435 9f3d 25c5 babc
00000080: 958a acbd dce8 9ebd 047d b0bd e54e 44bd
00000090: 3770 3cbd 3903 99bd 768b 973d 2e94 043d
000000a0: 3ec1 023d 9cee 733d cd8e b1bd 5d21 9c3d
000000b0: 47dc 81bd 4336 6fbd a32f 8fbc 923e cdb8
000000c0: 9618 febc 6664 7dbc 30df 5c3d 7d22 65bc
000000d0: 807e 7ebd 2f84 94bd 293e 9b3d b7b3 91bd
000000e0: 0880 223d 446c 82bc c186 97bd 9259 593d
000000f0: 7abc ee3c 86ce 4abd 308f af3b ee38 8cbd
00000100: f08e 3cbc b36b 5ebd 07d9 5b3d 4065 263d
00000110: 39cb b13d 4dbe 2ebd 0d72 193d 90b2 32bd
00000120: 8b35 97bb ecc2 393d 3a8f 693d 5692 533d
00000130: 889e ff3c 1894 84bc f5c3 5ebd dc3a 273c
00000140: 9698 e1bc 50c0 1ebc 6841 a2ba 8970 b23b
00000150: e594 9d3d 1637 0f3d 67a0 95bc a16d 993d
00000160: 1746 97bd 23c3 a13d 61a7 e93b 109d 2b3f
00000170: c96a 973d c54c 28bc cb65 953b 4859 1c3b
00000180: a38f 713d 45d8 68bd 165c 4b3d 7ae9 893d
00000190: 2a89 023d ef2d 6fbc 7b3e 2a3d 0a77 93bd
000001a0: 381f 4ebd 581f 583c 8cb3 613d 09a9 903d
000001b0: 3f92 b43c c4ec 443c 3b71 bcbc f12d 2d3f
000001c0: 5c62 523d 2bd9 cd3c 30db 90bd be1a 2a3c
000001d0: bcc7 8e3c df94 8e3c 77e4 7fbc 8997 0e3f
000001e0: f368 97bd 23c8 e1bc ad3c 3bbd af5b f9bc
000001f0: b5fc 5cbd 589d d43c d2c5 99bd 7a59 023d
00000200: fbea 19bc 1be1 a33d 88ba 50bd 1f3a 813d
00000210: 2c91 733c d888 9bbd 9706 653d c0e0 1fbc
00000220: 3ecc e03c 640d a83c 7aba a3bd 6499 183f
00000230: 517f 2fbd f636 0b3d 62a9 7ebd f47c 463c
00000240: a99e 42bc 3bf4 49bc 796d 32bb 546e 60bd
00000250: bdc4 853d 4cf4 343c 9268 fcbc 4103 09bd
00000260: 6c7a d0bc 2ed8 a2bd 10e0 0d3d 055a a33d
00000270: 4364 d23c e7e1 693d 5660 97bd 3a9a 8bbd
00000280: 3bbb 46bd 6f2a 943d f183 a03d 354e b23d
00000290: 2ace aabd 6560 a43d 8de6 a7bd 415b 243d
000002a0: 6bb0 243d 12e6 0a3d 37f2 d33c 1502 953d
000002b0: 9dc7 843d 48b6 a5bd ab2f aabc 4905 093f
000002c0: ac22 903c ed62 693a dc31 b43d 4d9a 9dba
000002d0: cbe6 8dbd 87d6 47bd 27ce 95bd 3800 e3bc
000002e0: 7227 40bd 4a6a 6dbd e8a2 95bd 8168 74bb
000002f0: f491 f9bb 76ee d8bc e89f 18bd 09e2 a5bc
00000300: 88df 9abd 962f 52bd bcfa 653c adb7 1a3f
00000310: 61af ed3b 0a0e d43c e655 943d ec58 4abd
00000320: 92c0 113d 8302 5f3d 2451 a23d 17f4 853c
00000330: f33d 70ba 63a9 1a3d b08f 2cbd 914f afbd
00000340: 2580 9fbd 2ddc 7e3d c0e9 45bd 38fe 4e3c
00000350: b8db 11bd 750d b23d 7338 4b3b b48a 9b3d
00000360: 0cee 17bd a346 e6bb f97c 883c 8205 7a3d
00000370: cd8d 793d cd51 adbd 2742 49bd 4474 92bc
00000380: 5149 a6bd 7015 c83c 3a0e bebc e5a1 89bc
00000390: 080e 273d b357 71bc 0159 963c c32d 2f3f
000003a0: b928 1ebd 213b 8bb9 9e49 3e3d f780 a73d
000003b0: f849 ec3b 55da 723d 37e2 f0bc dce5 a9bd
000003c0: 111e 993c 4782 25bd e845 173c 9d69 873d
000003d0: 88f8 873d 3eb7 da3c 6d32 b9bc 45b8 76bd
000003e0: b8ee 5b3d b0e1 5e3d f8da 64bd 15de 203f
000003f0: 4da3 373d 211f 21bd 399f 663d 68f9 47bc

layer1.bias f4 [128]
0.6419898 -0.008617114 0.052567936 0.57487917 0.65228134 -0.052254368 0.6718389 -0.037446532
0.6046048 -0.02276445 -0.011224432 -0.031152712 0.505493 0.50071704 -0.058987767 -0.04376236
-0.049338855 0.025746863 -0.0028664113 -0.023223748 -0.06667829 -0.07497934 0.59964293 0.5944438
0.5358599 0.016320579 0.58526295 0.6638542 -0.034703694 0.6674277 0.6802173 0.64874333
-0.06147319 -0.038755625 0.5871161 0.013883503 0.64579606 0.6690374 -0.035577837 0.63684654
-0.043026734 0.6571172 0.62375295 0.054567236 0.6789406 -0.07461565 0.07358508 0.65600175
0.6467668 -0.081922345 -0.07046712 0.62844646 0.030123347 -0.04363749 0.041814443 0.65858567
-0.0046037743 -0.0344368 0.03263343 0.03451303 0.57295305 0.6628213 0.6564407 -0.063507795
0.0070454916 -0.02960127 0.6783428 0.6810532 -0.0123299835 0.059005067 0.5835963 0.687702
0.65255463 0.033988267 -0.066731244 0.66587925 0.65998393 0.053266056 0.6616957 -0.07326236
0.04139677 0.07303827 -0.08193951 0.6835546 -0.043043375 0.05097592 0.63231194 0.5382091
-0.010445172 0.52226055 0.6784418 -0.085315235 0.67094857 0.5393105 0.61660093 0.036835484
-0.07978654 0.6721737 0.04795959 0.57473016 0.04283302 0.67327744 -0.051220052 -0.071141556
0.65587616 0.594812 0.6299769 0.58015037 0.564953 0.5589864 -0.020916555 0.6742601
0.54734486 0.5370426 -0.0706303 0.002855806 0.6453034 -0.00439278 -0.072025135 0.049332157
0.62037987 0.641619 0.54842 0.57208884 0.60917544 0.5990091 0.64835197 0.64196867
00000000: 7259 243f cc2e 0dbc 7a51 573d 482b 133f
00000010: e9fb 263f ad08 56bd a2fd 2b3f 8961 19bd
00000020: 61c7 1a3f 837c babc aee6 37bc f933 ffbc
00000030: fd67 013f fe2e 003f 289d 71bd 2940 33bd
00000040: 8a17 4abd 16eb d23c 67da 3bbb bb3f bebc
00000050: a18e 88bd c58e 99bd 3382 193f 782d 183f
00000060: 1d2e 093f bcb2 853c cbd3 153f 59f2 293f
00000070: 7625 0ebd 8bdc 2a3f b922 2e3f 0b14 263f
00000080: 50cb 7bbd 38be 1ebd 3e4d 163f a277 633c
00000090: e452 253f 0946 2b3f 11ba 11bd 6008 233f
000000a0: cd3c 30bd d538 283f 46ae 1f3f e581 5f3d
000000b0: 0dcf 2d3f 17d0 98bd c6b3 963d bbef 273f
000000c0: 8292 253f e7c6 a7bd 1151 90bd dee1 203f
000000d0: 3dc5 f63c 3abd 32bd 9f45 2b3d 1299 283f
000000e0: 42db 96bb 9a0d 0dbd a2aa 053d 895d 0d3d
000000f0: 0dad 123f a8ae 293f 7f0c 283f 6010 82bd
00000100: dedd e63b 5d7e f2bc e0a7 2d3f 8159 2e3f
00000110: b303 4abc 4caf 713d 9166 153f 3d0d 303f
00000120: d20d 273f 4837 0b3d 64aa 88bd 1077 2a3f
00000130: b5f4 283f 822d 5a3d e464 293f 940a 96bd
00000140: a98f 293d 1795 953d e7cf a7bd 6ffd 2e3f
00000150: 404e 30bd 20cc 503d 32df 213f 12c8 093f
00000160: 3a22 2bbc deb2 053f 5dae 2d3f c1b9 aebd
00000170: 49c3 2b3f 4110 0a3f 8fd9 1d3f cee0 163d
00000180: 2067 a3bd 9313 2c3f 4671 443d 8421 133f
00000190: ad71 2f3d e95b 2c3f 1ecc 51bd aab2 91bd
000001a0: 80e7 273f 9945 183f 2b46 213f bc84 143f
000001b0: c3a0 103f bc19 0f3f 3259 abbc 4f9c 2c3f
000001c0: cb1e 0c3f a07b 093f 9ea6 90bd 7928 3b3b
000001d0: 9b32 253f 4ff1 8fbb ea81 93bd 8410 4a3d
000001e0: 37d1 1e3f 2541 243f 4165 0c3f 6a74 123f
000001f0: ecf2 1b3f a958 193f 65fa 253f 0f58 243f

layer2.weight f4 [128, 128]
0.5716045 0.0121010635 -0.0048206844 0.52214885 0.5169472 0.020462085 0.5540376 -0.039530072
0.5501325 -0.025754664 0.011047355 -0.033089224 0.53930324 0.5194383 0.018406993 0.03363638
-0.0068848357 0.018348025 -0.038681593 -0.019043619 -0.013707995 0.04008077 0.57388186 0.53353655
0.5617729 0.039933 0.5534221 0.51398814 0.017636325 0.5673579 0.5082948 0.5390216
-0.029500771 0.021998566 0.55063283 -0.025108218 0.5505769 0.5772757 0.0006012271 0.55806565
0.03926595 0.53814405 0.54957193 -0.034072872 0.550053 0.019897103 0.020474808 0.57789505
0.51567334 0.0055380356 -0.009483925 0.57333744 0.022528391 0.02236937 -0.026672151 0.5766592
-0.013455948 0.039398756 -0.014517552 -0.009906192 0.55022234 0.56698126 0.55746436 0.008434479
-0.037340105 -0.027599152 0.5650331 0.57815063 0.030553319 -0.02167061 0.5345426 0.53187156
0.51848346 0.002984905 -0.017087705 0.5333386 0.56873345 0.0039383247 0.55052084 -0.0039077066
0.028443402 9.9130295e-05 -0.012480075 0.51885724 -0.003525613 -0.019636301 0.5539231 0.52655196
0.036746196 0.5803392 0.57500297 -0.023567362 0.5252482 0.53330934 0.5257829 -0.03778793
0.0009957254 0.5457673 0.016946075 0.5872982 -0.027433518 0.51312244 -0.01726576 -0.010641164
0.5156016 0.53387165 0.52303904 0.56436247 0.5071989 0.526312 0.02288591 0.5601996
0.5495342 0.5500309 -0.034582693 0.007988561 0.53111374 -0.005848762 0.03981087 0.005389376
0.522166 0.5873203 0.5379566 0.57170784 0.56545806 0.532459 0.535041 0.53001255
0.5909298 -0.034705326 0.023999084 0.6113425 0.57791764 -0.011172218 0.5741784 0.035685707
0.5746738 -0.00042595124 -0.035741564 0.032211807 0.58207405 0.5719365 -0.012455542 0.006573598
0.020171048 -0.032341607 -0.036114257 -0.02891295 -0.017932525 -0.026175737 0.5749055 0.54391336
0.5571386 0.013677683 0.57509 0.6046646 0.003431135 0.6016613 0.58772343 0.5401822
-0.014911479 -0.021978365 0.5670806 -0.0063465983 0.59215355 0.56314695 0.03997811 0.5742429
0.02741038 0.6064988 0.55485934 -0.025064345 0.5894618 -0.03690216 0.0002835873 0.5413672
0.5842828 -0.0050469637 0.0026512407 0.58306473 -0.0183967 0.03117329 -0.0054851826 0.56038713
-0.036189772 -0.019510603 0.03826151 0.019211054 0.5398944 0.5604916 0.6039809 -0.021159688
0.014909119 -0.027658232 0.5657494 0.56395596 -0.0258937 -0.028927172 0.6113438 0.5531331
0.5816085 -0.031456117 0.011945054 0.6118161 0.57016116 -0.023015123 0.57100815 0.009053101
-0.01330597 0.036697958 -0.0015512146 0.57692546 0.025459178 0.02761863 0.5519741 0.6195395
-0.001856246 0.6061013 0.6170668 -0.0330388 0.5629696 0.5899039 0.61283106 0.027127156
0.00666516 0.6016863 0.025407135 0.5577079 -0.030259157 0.61617696 0.026876146 -0.022735307
0.55152017 0.57754993 0.5869058 0.61230314 0.58605283 0.60595226 0.029707922 0.5344415
0.6132428 0.56753516 -0.018106755 -0.023357593 0.54378086 -0.033879016 0.03907576 0.016344886
0.59569377 0.5866006 0.62001234 0.58230644 0.5823647 0.5818753 0.59245557 0.55656797
00000000: ac54 123f 8a43 463c d5f6 9dbb 8cab 053f
00000010: a756 043f 1aa0 a73c 68d5 0d3f 49ea 21bd
00000020: 7cd5 0c3f 72fb d2bc f7ff 343c 9188 07bd
00000030: c70f 0a3f e9f9 043f 43ca 963c 4dc6 093d
00000040: 309a e1bb 994e 963c 9770 1ebd 5d01 9cbc
00000050: 8097 60bc bc2b 243d ece9 123f da95 083f
00000060: 59d0 0f3f c990 233d 12ad 0d3f ba94 033f
00000070: 0e7a 903c 5e3e 113f 9c1f 023f 52fd 093f
00000080: 9aab f1bc 5636 b43c 46f6 0c3f c0af cdbc
00000090: 9cf2 0c3f 57c8 133f ab9b 1d3a 64dd 0e3f
000000a0: 55d5 203d cfc3 093f bfb0 0c3f ff8f 0bbd
000000b0: 46d0 0c3f 40ff a23c c9ba a73c eef0 133f
000000c0: 2b03 043f 6978 b53b 7762 1bbc 3ec6 123f
000000d0: 768d b83c f83f b73c 8e7f dabc f09f 133f
000000e0: 5676 5cbc 9760 213d 07db 6dbc 954d 22bc
000000f0: 5fdb 0c3f af25 113f fcb5 0e3f c530 0a3c
00000100: f0f1 18bd 9e17 e2bc 02a6 103f ae01 143f
00000110: f44a fa3c 9086 b1bc c9d7 083f bc28 083f
00000120: 55bb 043f 659e 433b 84fb 8bbc e188 083f
00000130: 8498 113f 100d 813b efee 0c3f 380c 80bb
00000140: 2302 e93c 2ce4 cf38 3a79 4cbc d4d3 043f
00000150: f90d 67bb 4fdc a0bc e7cd 0d3f 1ccc 063f
00000160: 2e83 163d 1c91 143f 6533 133f 5710 c1bc
00000170: ab76 063f f686 083f b599 063f 84c7 1abd
00000180: 0083 823a 68b7 0b3f 7fd2 8a3c 2d59 163f
00000190: 42bc e0bc fe5b 033f ec70 8dbc 4758 2ebc
000001a0: 77fe 033f d0ab 083f e3e5 053f 0f7a 103f
000001b0: cad7 013f 62bc 063f 3b7b bb3c 3e69 0f3f
000001c0: 46ae 0c3f d3ce 0c3f 95a6 0dbd 74e2 023c
000001d0: 12f7 073f f9a6 bfbb b910 233d 5d99 b03b
000001e0: acac 053f a05a 163f 86b7 093f 725b 123f
000001f0: dcc1 103f 3c4f 083f 72f8 083f e7ae 073f
00000200: 2d47 173f 2c27 0ebd ba99 c43c f180 1c3f
00000210: 69f2 133f ae0b 37bc 5bfd 123f 2d2b 123d
00000220: d21d 133f 3552 dfb9 bf65 12bd 87f0 033d
00000230: ce02 153f 6e6a 123f 5412 4cbc 5667 d73b
00000240: c13d a53c a278 04bd 8bec 13bd dada ecbc
00000250: 3be7 92bc 806e d6bc 022d 133f e83d 0b3f
00000260: a3a0 0e3f 5c18 603c 1939 133f 4dcb 1a3f
00000270: e5dc 603b 7a06 1a3f 0b75 163f 6149 0a3f
00000280: 474f 74bc f90b b4bc 322c 113f 20f7 cfbb
00000290: 6097 173f 662a 103f 16c0 233d 9501 133f
000002a0: bc8b e03c 8143 1b3f 430b 0e3f be53 cdbc
000002b0: f8e6 163f b826 17bd 71ae 9439 0a97 0a3f
000002c0: 8f93 153f 0061 a5bb 70c0 2d3b bb43 153f
000002d0: adb4 96bc 215f ff3c 0cbd b3bb 8875 0f3f
000002e0: ba3b 14bd b3d4 9fbc 1ab8 1c3d 8060 9d3c
000002f0: 8536 0a3f 617c 0f3f 7e9e 1a3f 1557 adbc
00000300: 6145 743c 8493 e2bc f4d4 103f 6b5f 103f
00000310: 061f d4bc adf8 ecbc 0781 1c3f 219a 0d3f
00000320: 4be4 143f 21d8 00bd 30b5 433c fb9f 1c3f
00000330: 15f6 113f 368a bcbc 972d 123f 7553 143c
00000340: 4801 5abc 9950 163d 2052 cbba 63b1 133f
00000350: c48f d03c 7740 e23c 2d4e 0d3f 249a 1e3f
00000360: 484d f3ba 7429 1b3f 17f8 1d3f b153 07bd
00000370: c71e 103f f103 173f 7fe2 1c3f c539 de3c
00000380: 6a67 da3b 1d08 1a3f a022 d03c f2c5 0e3f
00000390: 0de2 f7bc c6bd 1d3f 5d2b dc3c 653f babc
000003a0: 6d30 0d3f 50da 133f 753f 163f e6bf 1c3f
000003b0: 8f07 163f b01f 1b3f 075e f33c 28d1 083f
000003c0: 7bfd 1c3f fc49 113f 9e54 94bc 6c58 bfbc
000003d0: 3935 0b3f b9c4 0abd e70d 203d b6e5 853c
000003e0: 637f 183f 752b 163f 21b9 1e3f 0912 153f
000003f0: da15 153f c8f5 143f 2bab 173f 3d7b 0e3f

layer2.bias f4 [128]
0.5450246 0.5372592 -0.008196209 -0.02646669 0.015808746 -0.02629175 0.52776957 0.5788437
0.012271457 0.024068862 -0.025371827 0.035390466 0.0295777 0.0033590582 0.46433526 0.5454292
0.6196486 -0.007347783 0.588849 -0.029456625 -0.030450214 0.021946186 -0.005071868 0.03790666
0.0016791953 -0.003902753 0.013883577 -0.016804134 0.02264121 0.5874489 0.030115841 0.5691283
-0.023727845 0.5505798 0.58612835 -0.029117221 0.039368946 -0.0408563 0.51676005 0.53990364
-0.041603446 0.017291524 -0.017381746 -0.029353727 -0.011853665 0.55693215 -0.017192982 0.5506324
0.014440027 0.53468275 0.036728825 -0.02923563 -0.0022781503 0.5538495 -0.023687907 0.54828763
0.5747964 0.4900538 -0.013072721 0.026188437 0.024915703 0.540314 -0.03549763 0.031146344
0.012064673 0.5826569 -0.015472157 -0.0026325197 -0.023363791 -0.010285764 -0.019646147 0.61240464
0.57439923 -0.0328583 0.015954576 0.5757996 0.53443074 -0.027282052 -0.0071607055 0.53760433
-0.012516081 -0.0032246853 0.5182578 -0.014723302 -0.015418148 0.5665489 -0.019684102 0.019274607
-0.015480934 -0.024307625 -0.012623294 0.55556595 0.5739491 -0.028995771 0.02683798 0.0144092
-0.007625779 0.03878181 0.5489412 -0.03977934 0.017718043 0.038473777 -0.019555327 0.57708865
0.5959487 0.0024066027 -0.03455436 0.546796 -0.008396613 -0.0043489444 0.5331279 0.019401776
-0.023500523 0.59168535 0.5543859 -0.037086617 0.5417457 0.50500023 -0.016880285 0.010795805
0.0022349232 0.5372268 -0.03527622 0.029083777 0.54975396 0.57673323 0.007969644 -0.0036905808
00000000: bb86 0b3f d289 093f 6449 06bc acd0 d8bc
00000010: 5881 813c cc61 d7bc e81b 073f 1a2f 143f
00000020: 390e 493c 102c c53c 94d8 cfbc 98f5 103d
00000030: ef4c f23c a523 5c3b 5abd ed3e 40a1 0b3f
00000040: 4aa1 1e3f acc5 f0bb cfbe 163f 054f f1bc
00000050: ba72 f9bc 7dc8 b33c ea31 a6bb 0444 1b3d
00000060: 7218 dc3a 54c5 7fbb f177 633c d3a8 89bc
00000070: 0f7a b93c 0d63 163f 7fb5 f63c 64b2 113f
00000080: e660 c2bc ccf2 0c3f 820c 163f 3d87 eebc
00000090: 5541 213d f058 27bd 634a 043f 2037 0a3f
000000a0: 6068 2abd f4a6 8d3c 2a64 8ebc 3a77 f0bc
000000b0: e035 42bc 1b93 0e3f 4cd8 8cbc 3ff6 0c3f
000000c0: dd95 6c3c f8e0 083f f770 163d 8f7f efbc
000000d0: 054d 15bb 15c9 0d3f 240d c2bc 945c 0c3f
000000e0: db25 133f 55e8 fa3e f72e 56bc 2289 d63c
000000f0: 041c cc3c 0552 0a3f f665 11bd 9e26 ff3c
00000100: e8aa 453c 0129 153f ee7e 7dbc 5a86 2cbb
00000110: 6c65 bfbc 9f85 28bc f5f0 a0bc 8dc6 1c3f
00000120: d40b 133f 6d96 06bd 2cb3 823c 9a67 133f
00000130: 74d0 083f 9c7e dfbc 5aa4 eabb 70a0 093f
00000140: 4010 4dbc 3e55 53bb 8bac 043f 013a 71bc
00000150: 669c 7cbc 5909 113f 8e40 a1bc c8e5 9d3c
00000160: bea3 7dbc c920 c7bc efd1 4ebc 9239 0e3f
00000170: 54ee 123f 8a88 edbc 53db db3c 9114 6c3c
00000180: ace1 f9bb add9 1e3d 6987 0c3f a9ef 22bd
00000190: 6e25 913c ae96 1d3d 7e32 a0bc 15bc 133f
000001a0: 1890 183f 18b8 1d3b df88 0dbd d3fa 0b3f
000001b0: f391 09bc 9781 8ebb 127b 083f 79f0 9e3c
000001c0: 2b84 c0bc b178 173f 3cec 0d3f 23e8 17bd
000001d0: d9af 0a3f b247 013f 8648 8abc e3e0 303c
000001e0: ca77 123b b287 093f cc7d 10bd 1a41 ee3c
000001f0: adbc 0c3f caa4 133f 1c93 023c acdd 71bb

layer3.weight f4 [7, 128]
0.4583154 0.42134124 -0.0111645125 -0.026133807 0.007783679 -0.035148125 0.42580882 0.41868797
0.03653232 0.02248954 -0.03770891 -0.013144271 -0.020982714 0.02276476 0.38988465 0.43536612
0.37781903 0.028408026 0.42484432 0.016289927 0.020148806 -0.012740932 -0.014525378 0.04241511
0.025290351 -0.031219894 0.0110001825 -0.01010536 0.02017433 0.41560137 0.0010721183 0.42433304
0.027630277 0.40727565 0.44921127 0.007023105 0.036639098 0.026999801 0.41360456 0.44500047
-0.017180156 0.037883937 0.0061235297 -0.013914346 0.015229185 0.42878187 0.03599908 0.42546022
0.013726868 0.41861942 0.013109205 0.0036810043 0.02878779 0.45642993 -0.022922575 0.4564506
0.45713258 0.42848477 0.008769597 0.021386718 -0.021658605 0.4316935 -0.015428486 -0.012670913
-0.0095470715 0.4281224 0.01967517 -0.017411357 -0.036043394 -0.018296055 -0.013874376 0.3935959
0.42309037 -0.03475574 -0.03557369 0.40873575 0.4358503 0.006416983 -0.0030263185 0.42739418
0.036954265 -0.013375585 0.41784036 0.037682477 0.01037878 0.41911274 -0.031367112 0.028704492
0.009950602 0.012498563 -0.026098425 0.45840377 0.40104973 0.008901924 -0.011763285 -0.03468387
-0.03891616 0.03062196 0.4285152 0.025557958 -0.036929395 0.0055227024 -0.026444728 0.4148312
0.43536913 -0.01394762 -0.01671076 0.4595789 0.012774238 0.023317372 0.43813092 0.037575133
0.029785983 0.44668216 0.4532389 -0.019811105 0.3920622 0.4466166 -0.00525157 -0.029649451
0.039830524 0.42715508 -0.016487358 0.005362742 0.40442562 0.40892625 0.0014515682 -0.012913618
0.29112652 0.27944517 0.0074820095 -0.019662479 0.008967388 0.026703445 0.26623785 0.28177345
-0.024920605 -0.0030963568 0.010017899 0.0050318553 -0.006457659 0.035405338 0.2843861 0.2852833
0.30145362 0.0032397788 0.3187389 -0.02444048 0.012505388 -0.000114889095 0.035560846 0.03599893
0.031087015 0.031186732 -0.0139434235 0.0036263692 -0.036164477 0.31809455 0.01009208 0.27651823
0.007681168 0.30570883 0.28903845 0.010129814 -0.0072670146 -0.0018350026 0.29961288 0.30329406
0.008704549 -0.019481314 -0.008855566 0.021426613 0.034629963 0.32298514 -0.011111322 0.25470322
0.02198787 0.24348448 0.014039005 -0.0062541263 -0.020203933 0.25144762 0.012564575 0.28219426
0.29265696 0.3043785 0.013984816 -0.0115935495 0.036557067 0.2697696 -0.029225994 -0.038943607
0.024320982 0.30766934 0.020252923 0.017953452 0.024240736 0.016815102 0.0024674176 0.31677997
0.26357108 0.022851475 0.011424791 0.2789586 0.3098835 -0.0076327627 -0.035417102 0.26541144
-0.0192519 0.021922357 0.27779952 0.035926897 0.03058055 0.25257856 0.024367377 -0.026986172
-0.039359737 -0.030874578 -0.011632932 0.29253644 0.29861698 0.01913335 0.012400041 0.005348467
0.010332259 0.01454707 0.3171497 0.004476208 -0.007870484 0.015062101 -0.014620416 0.26948863
0.281258 0.006740406 0.01211735 0.31257787 0.0038484237 -0.039432604 0.2827013 -0.03686999
0.034561314 0.3091588 0.29836658 0.008442256 0.30482465 0.28149936 -0.032707084 -0.008016117
0.009118886 0.28286496 0.0027990432 -0.008843812 0.3118475 0.2838133 -0.01655566 0.02281979
00000000: 51a8 ea3e 0aba d73e 5ceb 36bc 9116 d6bc
00000010: 3b0e ff3b 7bf7 0fbd 9d03 da3e 455e d63e
00000020: eaa2 153d fc3b b83c a874 1abd 125b 57bc
00000030: f1e3 abbc 297d ba3c f69e c73e 4fe8 de3e
00000040: 7f71 c13e f3b7 e83c 3285 d93e 7472 853c
00000050: 1c0f a53c 58bf 50bc dafb 6dbc 77bb 2d3d
00000060: b62d cf3c ddc0 ffbc 1c3a 343c f490 25bc
00000070: a344 a53c b4c9 d43e 5286 8c3a 2e42 d93e
00000080: e458 e23c 6f86 d03e 05ff e53e 1322 e63b
00000090: e112 163d b02e dd3c fac3 d33e 1ad7 e33e
000000a0: 66bd 8cbc 302c 1b3d e4a7 c83b fff8 63bc
000000b0: d583 793c 4c89 db3e c573 133d ecd5 d93e
000000c0: a8e6 603c 4955 d63e fec7 563c 013d 713b
000000d0: 5fd4 eb3c 2fb1 e93e 20c8 bbbc e5b3 e93e
000000e0: 480d ea3e 5b62 db3e 5bae 0f3c 3333 af3c
000000f0: 636d b1bc ee06 dd3e c3c7 7cbc a999 4fbc
00000100: 526b 1cbc dc32 db3e d22d a13c 43a2 8ebc
00000110: 3da2 13bd 9ce1 95bc 5a51 63bc 6785 c93e
00000120: 4d9f d83e 095c 0ebd b8b5 11bd d045 d13e
00000130: c527 df3e 8e45 d23b 3355 46bb 69d3 da3e
00000140: 5b5d 173d 4525 5bbc 2cef d53e f158 1a3d
00000150: c20b 2a3c f295 d63e cd7a 00bd af25 eb3c
00000160: da07 233c c6c6 4c3c 5dcc d5bc e6b3 ea3e
00000170: 6456 cd3e 60d9 113c cbba 40bc ac10 0ebd
00000180: 8d66 1fbd e8da fa3c 5866 db3e ec5e d13c
00000190: 4743 17bd c9f7 b43b 9da2 d8bc c164 d43e
000001a0: b4e8 de3e 8f84 64bc 01e5 88bc ed4d eb3e
000001b0: 0a4b 513c 1304 bf3c b252 e03e 62e8 193d
000001c0: bc01 f43c 86b3 e43e ee0e e83e e64a a2bc
000001d0: 60bc c83e eeaa e43e 5d15 acbb 68e3 f2bc
000001e0: 5525 233d 12b4 da3e 7f10 87bc f1b9 af3b
000001f0: e010 cf3e c85e d13e 8c42 be3a a493 53bc
00000200: 890e 953e 7013 8f3e a52b f53b 3513 a1bc
00000210: f4eb 123c 2fc1 da3c 5450 883e 9c44 903e
00000220: 4c26 ccbc 3fec 4abb 1d22 243c 43e2 a43b
00000230: c59a d3bb 3005 113d 0e9b 913e a710 923e
00000240: 2158 9a3e 7852 543b bf31 a33e 6737 c8bc
00000250: 66e3 4c3c 9df0 f0b8 40a8 113d 9d73 133d
00000260: 32aa fe3c 517b ff3c f572 64bc 61a8 6d3b
00000270: 3421 14bd 4add a23e 4059 253c cc93 8d3e
00000280: 4fb2 fb3b de85 9c3e d9fc 933e 85f7 253c
00000290: 2320 eebb 7884 f0ba dc66 993e 5c49 9b3e
000002a0: 869d 0e3c 4797 9fbc f016 11bc dd86 af3c
000002b0: 26d8 0d3d 4f5e a53e 430c 36bc 7668 823e
000002c0: e81f b43c ff53 793e db03 663c 6aef ccbb
000002d0: b882 a5bc bebd 803e a6db 4d3c c47b 903e
000002e0: 22d7 953e 80d7 9b3e 9220 653c dff2 3dbc
000002f0: ddbc 153d 3e1f 8a3e 5a6b efbc 5583 1fbd
00000300: cc3c c73c d686 9d3e 75e9 a53c 1e13 933c
00000310: 8294 c63c d3bf 893c 66b4 213b fc30 a23e
00000320: caf2 863e 0433 bb3c 0c2f 3b3c a9d3 8e3e
00000330: 0da9 9e3e 411c fabb 8611 11bd 02e4 873e
00000340: 29b6 9dbc 8496 b33c bd3b 8e3e 1528 133d
00000350: 1084 fa3c fa51 813e 189e c73c 1b12 ddbc
00000360: ad37 21bd afec fcbc 0e98 3ebc 56c7 953e
00000370: 53e4 983e 8bbd 9c3c 8b29 4b3c 3142 af3b
00000380: a348 293c d556 6e3c 7261 a23e 27ad 923b
00000390: 34f3 00bc 08c7 763c 788a 6fbc 6afa 893e
000003a0: 0c01 903e a0de dc3b d987 463c 350a a03e
000003b0: d635 7c3b 1584 21bd 3abe 903e fd04 17bd
000003c0: 2a90 0d3d 104a 9e3e 81c3 983e 6351 0a3c
000003d0: fa11 9c3e af20 903e ddf7 05bd 0856 03bc
000003e0: 6167 153c add3 903e 2770 373b a3e5 10bc
000003f0: 7aaa 9f3e fa4f 913e bc9f 87bc 91f0 ba3c

layer3.bias f4 [7]
0.41592446 0.09923526 0.14140667 0.1506242 0.11941311 0.10223377 0.09885577
00000000: 0df4 d43e db3b cb3d e9cc 103e 3b3d 1a3e
00000010: dc8e f43d f05f d13d e574 ca3d

layer1.weight f4 [128, 28]
0.073499225 -0.033650078 -0.081937134 -0.08347165 -0.077993214 -0.07968691 -0.05512498 0.5951034
0.022290146 0.06980039 -0.016321607 0.064730756 -0.07575712 0.010548355 0.023232386 0.038228367
0.03969341 -0.019521873 0.04804074 0.0031771534 -0.015993394 -0.0758016 0.065906644 0.04408231
0.04846578 0.075616755 -0.038961116 0.6774641 -0.05417985 -0.058838647 0.077756 -0.022803558
-0.08426509 -0.07760896 -0.086193845 -0.047936488 -0.046015132 -0.074728124 0.07401138 0.032374583
0.031929277 0.05956567 -0.08671605 0.07625043 -0.06342184 -0.058413275 -0.017482504 -9.788854e-05
-0.03102391 -0.015468995 0.053934965 -0.013988068 -0.062145013 -0.07253266 0.0758171 -0.071158476
0.039681077 -0.015924118 -0.07400244 0.053074367 0.029148567 -0.049523044 0.005358764 -0.06848137
-0.011511108 -0.054313105 0.053684946 0.0406321 0.086831294 -0.0426709 0.03746975 -0.04363627
-0.004615471 0.045360856 0.057033278 0.05166366 0.03120985 -0.01618725 -0.054397278 0.010208953
-0.02754417 -0.009691453 -0.0012381673 0.0054466627 0.07695905 0.034972124 -0.018268691 0.07493108
-0.073879056 0.07900187 0.0071320394 0.67075807 0.07394909 -0.010274258 0.004560188 0.00238616
0.058986794 -0.05685806 0.049658798 0.06735326 0.031875797 -0.014601337 0.041571688 -0.072019316
-0.050333172 0.013193674 0.055114046 0.070649825 0.022046862 0.012021761 -0.02300805 0.6768868
0.051373765 0.025133181 -0.07074549 0.010384401 0.017432578 0.017408324 -0.015621613 0.55736864
-0.07394559 -0.027566848 -0.04572111 -0.030445555 -0.053963114 0.025959149 -0.075099304 0.03183032
-0.009396271 0.08003559 -0.05096957 0.06311255 0.01486914 -0.075959556 0.055925675 -0.0097602215
0.027446736 0.020518295 -0.07996191 0.5964716 -0.042854972 0.033994667 -0.06218591 0.0121171735
-0.011881069 -0.012328716 -0.0027231488 -0.054803897 0.065330066 0.01104681 -0.03081791 -0.033457074
-0.025454216 -0.079530284 0.034644216 0.07977793 0.025687788 0.057112135 -0.07392912 -0.06817867
-0.048528086 0.07236152 0.07839305 0.08708113 -0.08341743 0.080278374 -0.0819991 0.040134285
0.040215503 0.033917524 0.025877547 0.07277279 0.06484727 -0.08093047 -0.02077878 0.5356061
0.017598398 0.00089047995 0.08800362 -0.001202647 -0.06930127 -0.04879826 -0.07316201 -0.027715655
-0.046922304 -0.057974614 -0.073079534 -0.003730119 -0.0076178582 -0.02648611 -0.037269328 -0.020253481
-0.07563657 -0.051325344 0.014039626 0.60474586 0.0072550634 0.025890816 0.07244437 -0.04941089
0.035591494 0.054456934 0.07927272 0.016355095 -0.0009166367 0.037766654 -0.042137414 -0.08561887
-0.07789751 0.062234353 -0.04832831 0.01263646 -0.035617385 0.086957626 0.003101511 0.07596306
-0.037099715 -0.007028861 0.016664507 0.061053064 0.060938902 -0.08464657 -0.04914504 -0.017881446
-0.08121092 0.024429126 -0.023204982 -0.016804183 0.04079306 -0.014733362 0.01835672 0.68469685
-0.038621243 -0.0002656144 0.046466604 0.08180534 0.0072124572 0.05930219 -0.02941071 -0.082974344
0.018694827 -0.04041564 0.009234845 0.06613282 0.066405416 0.026704293 -0.022611527 -0.060246266
0.053705636 0.054425627 -0.055884063 0.6287818 0.04484242 -0.039344523 0.056315377 -0.012207881
00000000: c386 963d aad4 09bd a8ce a7bd 2ff3 aabd
00000010: e8ba 9fbd e432 a3bd bbca 61bd b258 183f
00000020: d399 b63c 82f3 8e3d e4b4 85bc 8f91 843d
00000030: 8d26 9bbd 02d3 2c3c d851 be3c 5995 1c3d
00000040: 8f95 223d 56ec 9fbc 5ec6 443d ca37 503b
00000050: 9404 83bc df3d 9bbd 10fa 863d a78f 343d
00000060: 0e84 463d f5dc 9a3d b195 1fbd 4a6e 2d3f
00000070: b1eb 5dbd cb00 71bd 8a3e 9f3d 87ce babc
00000080: 2d93 acbd 72f1 9ebd 6686 b0bd 0d59 44bd
00000090: 5d7a 3cbd 0f0b 99bd 4793 973d 369b 043d
000000a0: 46c8 023d 22fb 733d 2f98 b1bd 2f29 9c3d
000000b0: 4fe3 81bd c242 6fbd 7837 8fbc 8249 cdb8
000000c0: db25 febc ab71 7dbc e9ea 5c3d 362e 65bc
000000d0: c58b 7ebd 018c 94bd ff45 9b3d 89bb 91bd
000000e0: a088 223d 4c73 82bc 978e 97bd 8264 593d
000000f0: fac8 ee3c add8 4abd 9298 af3b f63f 8cbd
00000100: 1699 3cbc 6b77 5ebd bfe4 5b3d d86d 263d
00000110: 9bd4 b13d aec7 2ebd e179 193d f2bb 32bd
00000120: 613d 97bb 4ecc 393d ba9b 693d 469d 533d
00000130: cdab ff3c 209b 84bc aecf 5ebd 7443 273c
00000140: 50a4 e1bc e6c8 1ebc 004a a2ba eb79 b23b
00000150: b59c 9d3d ee3e 0f3d 39a8 95bc 7775 993d
00000160: e74d 97bd bbcb a13d e2b3 e93b cdb6 2b3f
00000170: 9f72 973d 5d55 28bc a16d 953b 1f61 1c3b
00000180: 239c 713d ffe3 68bd 0667 4b3d 82f0 893d
00000190: 3290 023d 723a 6fbc 1347 2a3d dd7e 93bd
000001a0: 282a 4ebd 482a 583c 44bf 613d dbb0 903d
000001b0: 9f9b b43c ecf6 443c 617b bcbc 7448 2d3f
000001c0: 4c6d 523d 1ae4 cd3c 03e3 90bd 5623 2a3c
000001d0: c4ce 8e3c e79b 8e3c cbf1 7fbc b6af 0e3f
000001e0: c970 97bd dfd3 e1bc 0f46 3bbd f568 f9bc
000001f0: 6d08 5dbd 48a8 d43c aacd 99bd 8260 023d
00000200: d1f2 19bc b3e9 a33d 78c5 50bd 2741 813d
00000210: b29d 733c af90 9bbd 5212 653d 56e9 1fbc
00000220: fad7 e03c fc15 a83c 12c3 a3bd 5db2 183f
00000230: b288 2fbd fe3d 0b3d a7b6 7ebd 1c87 463c
00000240: d1a8 42bc 62fe 49bc db76 32bb 0d7a 60bd
00000250: c5cb 853d aefd 343c d775 fcbc 490a 09bd
00000260: 5c85 d0bc c6e0 a2bd 18e7 0d3d 9d62 a33d
00000270: 326f d23c 6aee 693d 2768 97bd 42a1 8bbd
00000280: 63c5 46bd 4732 943d 898c a03d 9757 b23d
00000290: c2d6 aabd fd68 a43d 25ef a7bd d963 243d
000002a0: 03b9 243d 1aed 0a3d 26fd d33c e709 953d
000002b0: a5ce 843d e0be a5bd 4338 aabc 7b1d 093f
000002c0: 842a 903c 196f 693a 3e3b b43d 23a2 9dba
000002d0: d3ed 8dbd afe0 47bd f7d5 95bd f10b e3bc
000002e0: 9a31 40bd ca76 6dbd b9aa 95bd 0375 74bb
000002f0: 3a9f f9bb 66f9 d8bc b9a7 18bd a1ea a5bc
00000300: 59e7 9abd 863a 52bd 7606 663c a0d0 1a3f
00000310: e2bb ed3b fa18 d43c b75d 943d 1363 4abd
00000320: 63c8 113d 3c0e 5f3d bc59 a23d 1ffb 853c
00000330: 734a 70ba 35b1 1a3d 4898 2cbd f258 afbd
00000340: bb88 9fbd 73e9 7e3d e8f3 45bd 2809 4f3c
00000350: 89e3 11bd d716 b23d b842 4b3b 8592 9b3d
00000360: dff5 17bd 5c52 e6bb 0184 883c c712 7a3d
00000370: 129b 793d 2e5b adbd 4f4c 49bd 1c7c 92bc
00000380: e951 a6bd 971f c83c 6018 bebc eda8 89bc
00000390: a016 273d 3364 71bc d560 963c 4b48 2f3f
000003a0: 4f31 1ebd 2942 8bb9 c453 3e3d 8f89 a73d
000003b0: 7a56 ec3b dae6 723d bbee f0bc 74ee a9bd
000003c0: e525 993c df8a 25bd bf4d 173c a570 873d
000003d0: 90ff 873d f6c2 da3c cf3b b9bc cac4 76bd
000003e0: 71fa 5b3d 68ed 5e3d b0e6 64bd d8f7 203f
000003f0: afac 373d b927 21bd f4aa 663d 9003 48bc

layer1.bias f4 [128]
0.64238286 -0.008618791 0.052578367 0.5752602 0.6526742 -0.052264795 0.6722317 -0.03745399
0.6049858 -0.02276892 -0.011226668 -0.03115904 0.50586206 0.5010858 -0.0589997 -0.043771308
-0.049348537 0.025752079 -0.0028669701 -0.023228588 -0.066691704 -0.07499426 0.6000241 0.5948246
0.5362291 0.016323932 0.58564407 0.66424704 -0.0347104 0.6678209 0.6806222 0.64913625
-0.061485846 -0.038763814 0.5874972 0.013886298 0.6461891 0.66943043 -0.03558531 0.6372392
-0.043035682 0.65751034 0.62414575 0.054578416 0.6793456 -0.074630596 0.07360003 0.6563946
0.6471596 -0.081938736 -0.07048204 0.62883943 0.030129317 -0.043646436 0.04182264 0.6589783
-0.0046047093 -0.034443505 0.032640137 0.034519736 0.5733338 0.6632144 0.65683377 -0.06352121
0.007046889 -0.02960724 0.6787474 0.68145794 -0.012332405 0.05901701 0.58397704 0.68810743
0.6529478 0.033994973 -0.066744655 0.6662723 0.6603767 0.05327649 0.6620887 -0.07327727
0.041404966 0.07305323 -0.0819559 0.6839596 -0.043052323 0.05098635 0.6327046 0.538578
-0.010447221 0.5226297 0.67884666 -0.085333124 0.6713415 0.53967935 0.6169823 0.036842965
-0.07980293 0.6725669 0.047969274 0.5751112 0.042841963 0.67367023 -0.051230483 -0.071156465
0.65626913 0.5951932 0.63036966 0.5805313 0.5653342 0.5593674 -0.020920653 0.6746531
0.5477138 0.537412 -0.070645206 0.0028563652 0.6456967 -0.0043937135 -0.072040096 0.049341843
0.62077284 0.6420119 0.54878896 0.5724698 0.60955673 0.59939027 0.64874464 0.64236164
00000000: 3473 243f d435 0dbc 6a5c 573d 4144 133f
00000010: a815 273f 9c13 56bd 6017 2c3f 5b69 19bd
00000020: 59e0 1a3f e385 babc 0ff0 37bc 3e41 ffbc
00000030: 2d80 013f 2947 003f aba9 71bd 8b49 33bd
00000040: b121 4abd 06f6 d23c c7e3 3bbb e149 bebc
00000050: a995 88bd 9796 99bd 2e9b 193f 6d46 183f
00000060: 4f46 093f c4b9 853c c5ec 153f 180c 2a3f
00000070: 7e2c 0ebd 4ff6 2a3f 423d 2e3f cb2d 263f
00000080: 95d8 7bbd cec6 1ebd 3766 163f 5b83 633c
00000090: a66c 253f cb5f 2b3f e7c1 11bd 1c22 233f
000000a0: 2f46 30bd 9952 283f 04c8 1f3f 9e8d 5f3d
000000b0: 98e9 2d3f edd7 98bd 9dbb 963d 7a09 283f
000000c0: 40ac 253f 7fcf a7bd e358 90bd 9ffb 203f
000000d0: c2d1 f63c 9bc6 32bd 374e 2b3d cdb2 283f
000000e0: 1ae3 96bb a214 0dbd aab1 053d 9164 0d3d
000000f0: 01c6 123f 6bc8 293f 4226 283f 6817 82bd
00000100: 97e9 e63b e28a f2bc 64c2 2d3f 0774 2e3f
00000110: db0d 4abc d2bb 713d 857f 153f cf27 303f
00000120: 9627 273f 503e 0b3d 6cb1 88bd d290 2a3f
00000130: 730e 293f 7338 5a3d a57e 293f 6512 96bd
00000140: 4198 293d ef9c 953d 7fd8 a7bd fa17 2f3f
00000150: a257 30bd 10d7 503d eef8 213f 3fe0 093f
00000160: d22a 2bbc 0fcb 053f e5c8 2d3f 22c3 aebd
00000170: 09dd 2b3f 6d28 0a3f 8df2 1d3f a6e8 163d
00000180: b86f a3bd 582d 2c3f 6e7b 443d 7d3a 133f
00000190: 0e7b 2f3d a775 2c3f 0ed7 51bd 7bba 91bd
000001a0: 4101 283f 955e 183f e85f 213f b39d 143f
000001b0: beb9 103f b432 0f3f ca61 abbc 11b6 2c3f
000001c0: f936 0c3f d593 093f 6fae 90bd db31 3b3b
000001d0: 614c 253f 24f9 8fbb c289 93bd ac1a 4a3d
000001e0: f8ea 1e3f e45a 243f 6f7d 0c3f 618d 123f
000001f0: e90b 1c3f a471 193f 2114 263f d071 243f

layer2.weight f4 [128, 128]
0.5719803 0.012103485 -0.0048216195 0.5225129 0.517312 0.020466182 0.55440253 -0.039538268
0.55049664 -0.02575988 0.01104959 -0.03309593 0.5396682 0.5198028 0.018410718 0.033643086
-0.0068862336 0.018351765 -0.03868978 -0.019047352 -0.01371079 0.040088966 0.5742576 0.5339014
0.5621493 0.039941195 0.5537866 0.5143527 0.017640065 0.5677335 0.50865877 0.5393861
-0.029506734 0.022003038 0.5509974 -0.025113434 0.5509409 0.5776513 0.00060134387 0.55843115
0.039274145 0.53850806 0.54993665 -0.034079578 0.5504175 0.019901201 0.020478906 0.57827175
0.5160384 0.005539154 -0.00948579 0.57371426 0.022532864 0.022373844 -0.02667774 0.5770355
-0.013458741 0.03940695 -0.014520535 -0.009908241 0.5505864 0.56735754 0.55782914 0.0084361555
-0.03734756 -0.027604744 0.56540984 0.57852733 0.030559646 -0.021675084 0.5349074 0.53223604
0.5188473 0.0029855103 -0.017091058 0.5337026 0.56910896 0.003939163 0.55088544 -0.003908545
0.028448997 9.915067e-05 -0.012482682 0.51922226 -0.0035263118 -0.0196404 0.55428797 0.52691674
0.036753673 0.58071536 0.5753792 -0.023572205 0.5256133 0.53367424 0.52614677 -0.03779541
0.0009959349 0.546131 0.016949428 0.58767503 -0.027439108 0.5134864 -0.017269112 -0.010643398
0.515966 0.53423655 0.52340335 0.5647389 0.5075638 0.5266767 0.02289038 0.5605752
0.5498989 0.5503958 -0.0345894 0.007990237 0.53147775 -0.005849972 0.039819065 0.0053904946
0.52253014 0.5876971 0.53832173 0.5720843 0.5658341 0.53282404 0.53540516 0.53037655
0.5913115 -0.03471203 0.024003927 0.611724 0.5782995 -0.011174454 0.5745609 0.035693157
0.57505554 -0.00042603855 -0.035749037 0.032218512 0.58245605 0.5723185 -0.012458149 0.0065749018
0.020175146 -0.032348312 -0.036121715 -0.02891891 -0.017936265 -0.026180953 0.5752873 0.5442839
0.55750847 0.01368048 0.5754717 0.60504663 0.0034318338 0.60204303 0.58810514 0.5405523
-0.014914463 -0.02198284 0.5674625 -0.006347902 0.59253496 0.56352854 0.039986305 0.574625
0.027415974 0.6068805 0.55522984 -0.02506956 0.58984363 -0.036909614 0.0002836456 0.54173744
0.5846649 -0.005047988 0.0026518 0.58344686 -0.018400436 0.031179618 -0.005486301 0.5607687
-0.036197226 -0.019514697 0.038268972 0.019214785 0.54026395 0.56087357 0.6043632 -0.02116416
0.014912101 -0.027663827 0.5661316 0.5643378 -0.025898915 -0.028933141 0.6117255 0.55350286
0.5819894 -0.031462822 0.011947475 0.61219794 0.570543 -0.023019962 0.57139 0.009054969
-0.013308577 0.03670543 -0.0015515406 0.57730764 0.025464393 0.027624218 0.5523445 0.6199333
-0.0018566189 0.6064833 0.6174501 -0.033045504 0.5633519 0.59028596 0.6132129 0.027132746
0.0066665574 0.60206735 0.02541235 0.5580785 -0.030265126 0.6165586 0.026881736 -0.022739781
0.55189043 0.5779321 0.5872875 0.6126849 0.5864348 0.6063343 0.02971389 0.53481066
0.6136251 0.5679174 -0.018110495 -0.023362432 0.5441502 -0.03388572 0.039083954 0.016348239
0.5960755 0.58698267 0.6204063 0.5826883 0.58274627 0.58225715 0.5928373 0.5569375
00000000: 4d6d 123f b24d 463c adfe 9dbb 68c3 053f
00000010: 8f6e 043f b2a8 a73c 53ed 0d3f e1f2 21bd
00000020: 59ed 0c3f 6206 d3bc 5709 353c 998f 07bd
00000030: b227 0a3f cc11 053f 13d2 963c 55cd 093d
00000040: eaa5 e1bb 7156 963c 2d79 1ebd 3109 9cbc
00000050: 39a3 60bc 5434 243d 8c02 133f c3ad 083f
00000060: 04e9 0f3f 6199 233d f5c4 0d3f 9eac 033f
00000070: e681 903c fc56 113f 7637 023f 3515 0a3f
00000080: 1bb8 f1bc b73f b43c 2a0e 0d3f b0ba cdbc
00000090: 760a 0d3f f5e0 133f 81a3 1d3a 58f5 0e3f
000000a0: eddd 203d aadb 093f a6c8 0c3f 0797 0bbd
000000b0: 29e8 0c3f d807 a33c 61c3 a73c 9e09 143f
000000c0: 181b 043f cb81 b53b 496a 1bbc f0de 123f
000000d0: d796 b83c 5a49 b73c 478b dabc 99b8 133f
000000e0: 0d82 5cbc 2f69 213d 8ae7 6dbc 2d56 22bc
000000f0: 3bf3 0c3f 583e 113f e4cd 0e3f cd37 0a3c
00000100: c1f9 18bd 5823 e2bc b3be 103f 5e1a 143f
00000110: 3958 fa3c f28f b1bc b1ef 083f 9f40 083f
00000120: 2dd3 043f 8da8 433b 8c02 8cbc bca0 083f
00000130: 20b1 113f 1814 813b d406 0d3f 4013 80bb
00000140: df0d e93c 1cef cf38 2a84 4cbc c0eb 043f
00000150: b219 67bb e7e4 a0bc d1e5 0d3f 04e4 063f
00000160: 058b 163d c3a9 143f 0d4c 133f 7f1a c1bc
00000170: 988e 063f e09e 083f 8eb1 063f 5ccf 1abd
00000180: 088a 823a 3ecf 0b3f 87d9 8a3c df71 163f
00000190: fbc7 e0bc d873 033f f477 8dbc a661 2ebc
000001a0: 5916 043f bac3 083f c3fd 053f bb92 103f
000001b0: b4ef 013f 49d4 063f 9b84 bb3c db81 0f3f
000001c0: 2dc6 0c3f bde6 0c3f 9dad 0dbd 7ce9 023c
000001d0: ed0e 083f 1fb1 bfbb 5119 233d bfa2 b03b
000001e0: 89c4 053f 5173 163f 74cf 093f 1e74 123f
000001f0: 81da 103f 2867 083f 5010 093f c2c6 073f
00000200: 3160 173f 342e 0ebd e2a3 c43c f299 1c3f
00000210: 700b 143f 0f15 37bc 6c16 133f fd32 123d
00000220: d736 133f ed5d dfb9 956d 12bd 8ff7 033d
00000230: d71b 153f 7783 123f 441d 4cbc 4672 d73b
00000240: 5946 a53c aa7f 04bd 5df4 13bd 5ae7 ecbc
00000250: 13ef 92bc 7079 d6bc 0746 133f 3156 0b3f
00000260: e0b8 0e3f 1824 603c 1d52 133f 56e4 1a3f
00000270: 9ee8 603b 7e1f 1a3f 0f8e 163f a361 0a3f
00000280: cb5b 74bc 5b15 b4bc 3945 113f 1002 d0bb
00000290: 5fb0 173f 6843 103f aec8 233d a01a 133f
000002a0: 7797 e03c 855c 1b3f 8b23 0e3f ae5e cdbc
000002b0: feff 163f 892e 17bd 45b6 9439 4eaf 0a3f
000002c0: 99ac 153f 9869 a5bb d2c9 2d3b c65c 153f
000002d0: 83bc 96bc 666c ff3c 6ec6 b3bb 8a8e 0f3f
000002e0: 8b43 14bd 49dd 9fbc edbf 1c3d 5368 9d3c
000002f0: bd4e 0a3f 6995 0f3f 8cb7 1a3f 7660 adbc
00000300: e351 743c 409f e2bc 00ee 103f 7178 103f
00000310: f629 d4bc 3205 edbc 0b9a 1c3f 5db2 0d3f
00000320: 42fd 143f 29df 00bd 58bf 433c 01b9 1c3f
00000330: 1b0f 123f 5c94 bcbc 9d46 123f 4b5b 143c
00000340: 380c 5abc 6f58 163d 105d cbba 6fca 133f
00000350: b49a d03c 2f4c e23c 7366 0d3f f3b3 1e3f
00000360: cb59 f3ba 7d42 1b3f 3611 1e3f b95a 07bd
00000370: d537 103f fb1c 173f 85fb 1c3f 7e45 de3c
00000380: 2373 da3b 1621 1a3f 902d d03c 3cde 0e3f
00000390: 92ee f7bc c9d6 1d3f 1637 dc3c c748 babc
000003a0: b148 0d3f 5cf3 133f 7958 163f ebd8 1c3f
000003b0: 9720 163f ba38 1b3f 8b6a f33c 5ae9 083f
000003c0: 8916 1d3f 0963 113f 765c 94bc 9262 bfbc
000003d0: 6d4d 0b3f c1cb 0abd 7f16 203d beec 853c
000003e0: 6798 183f 7f44 163f f3d2 1e3f 0f2b 153f
000003f0: dc2e 153f ce0e 153f 2fc4 173f 7593 0e3f

layer2.bias f4 [128]
0.5455887 0.53783333 -0.008197885 -0.026471905 0.015812099 -0.026296966 0.5283321 0.57942736
0.012273879 0.024073705 -0.025377043 0.03539793 0.029583668 0.0033597571 0.4648942 0.5459889
0.6202516 -0.007349276 0.58943015 -0.029462595 -0.030456541 0.02195066 -0.0050728926 0.03791414
0.0016795446 -0.0039035443 0.013886373 -0.016807487 0.02264568 0.58803314 0.030121809 0.5697107
-0.023732688 0.5511534 0.58671045 -0.02912319 0.03937714 -0.040864497 0.5173303 0.54047567
-0.04161164 0.017294876 -0.0173851 -0.029359689 -0.011856087 0.557506 -0.017196335 0.55120605
0.014443012 0.5352533 0.036736276 -0.029241595 -0.0022786178 0.5544164 -0.02369275 0.54885113
0.5753746 0.49060872 -0.0130753275 0.026193652 0.024920918 0.54088026 -0.035505105 0.031152671
0.012067094 0.58324057 -0.015475321 -0.002633032 -0.02336863 -0.010287813 -0.019650245 0.6129914
0.5749817 -0.032865006 0.01595793 0.57638913 0.5350026 -0.027287643 -0.0071621956 0.538178
-0.012518689 -0.0032253372 0.5188299 -0.014726284 -0.015421311 0.5671386 -0.0196882 0.019278338
-0.015484098 -0.024312468 -0.012625901 0.5561317 0.57453275 -0.029001731 0.02684357 0.014412181
-0.007627361 0.03879 0.5495137 -0.039787535 0.017721782 0.03848124 -0.019559424 0.57767224
0.5965285 0.0024070702 -0.034561064 0.5473658 -0.00839829 -0.0043497826 0.5336902 0.01940587
-0.023505365 0.59226424 0.5549562 -0.03709409 0.54232514 0.50556666 -0.016883638 0.01079804
0.0022353905 0.53780323 -0.035283674 0.029089738 0.55032444 0.5773171 0.00797132 -0.0036913273
00000000: b3ab 0b3f 72af 093f 6c50 06bc 9cdb d8bc
00000010: 6088 813c bc6c d7bc c640 073f 5a55 143f
00000020: 6118 493c 3836 c53c 84e3 cfbc 6bfd 103d
00000030: 7359 f23c 5f2f 5c3b 9d06 ee3e eec5 0b3f
00000040: cfc8 1e3f 32d2 f0bb e5e4 163f 8a5b f1bc
00000050: ff7f f9bc dfd1 b33c 823a a6bb db4b 1b3d
00000060: 2a24 dc3a 9bd2 7fbb ab83 633c dbaf 89bc
00000070: 6f83 b93c 5789 163f 03c2 f63c 8fd8 113f
00000080: 0e6b c2bc 6418 0d3f a832 163f c293 eebc
00000090: ed49 213d 8861 27bd c26f 043f 9d5c 0a3f
000000a0: f870 2abd fcad 8d3c 326b 8ebc bb83 f0bc
000000b0: 0840 42bc b7b8 0e3f 54df 8cbc d71b 0d3f
000000c0: 62a2 6c3c 5c06 093f c778 163d 128c efbc
000000d0: dd54 15bb 3cee 0d3f 4c17 c2bc 8281 0c3f
000000e0: c04b 133f 1131 fb3e e639 56bc 1294 d63c
000000f0: f426 cc3c 2177 0a3f cd6d 11bd e333 ff3c
00000100: 10b5 453c 414f 153f 338c 7dbc f28e 2cbb
00000110: 926f bfbc 378e 28bc 8df9 a0bc 01ed 1c3f
00000120: 0032 133f 759d 06bd 34ba 823c 3d8e 133f
00000130: eef5 083f 568a dfbc dab0 eabb 09c6 093f
00000140: 301b 4dbc 2e60 53bb 09d2 043f 8346 71bc
00000150: aba9 7cbc ff2f 113f 2649 a1bc 9bed 9d3c
00000160: 04b1 7dbc f12a c7bc dedc 4ebc a65e 0e3f
00000170: 9414 133f 0a95 edbc 0ce7 db3c 1221 6c3c
00000180: f1ee f9bb 43e2 1e3d eeac 0c3f 41f8 22bd
00000190: 452d 913c 819e 1d3d 163b a0bc 54e2 133f
000001a0: 17b6 183f f0bf 1d3b e78f 0dbd 2a20 0c3f
000001b0: fb98 09bc 9f88 8ebb ec9f 083f 0ff9 9e3c
000001c0: 538e c0bc a19e 173f 9c11 0e3f f9ef 17bd
000001d0: d2d5 0a3f d16c 013f 8e4f 8abc 43ea 303c
000001e0: a17f 123b 79ad 093f 9d85 10bd 9a4d ee3c
000001f0: 10e2 0c3f 0ecb 133f 249a 023c 32ea 71bb

layer3.weight f4 [7, 128]
0.4587316 0.421759 -0.0111667495 -0.02613902 0.0077852607 -0.035155594 0.4262086 0.41910952
0.0365398 0.022494014 -0.037716363 -0.013146879 -0.020986812 0.022769233 0.3902668 0.43576872
0.3782393 0.028413616 0.42526343 0.01629328 0.020152904 -0.01274354 -0.014528358 0.042424046
0.025295567 -0.031226225 0.0110024195 -0.010107409 0.020178428 0.41601858 0.0010723278 0.42474797
0.027635869 0.40770167 0.44963264 0.0070245024 0.03664657 0.02700539 0.41401148 0.44541866
-0.017183509 0.037891414 0.0061247405 -0.013917143 0.015232349 0.42921 0.03600653 0.4258701
0.013729664 0.41903052 0.013111813 0.0036817498 0.028793756 0.456849 -0.02292705 0.45686767
0.45755526 0.4288929 0.008771464 0.021391187 -0.021663075 0.43210506 -0.015431651 -0.01267352
-0.009548942 0.42854047 0.019679267 -0.01741471 -0.03605086 -0.018299796 -0.013877171 0.39401382
0.42349905 -0.034762446 -0.03558117 0.4091584 0.43627787 0.006418287 -0.0030269239 0.42782307
0.03696173 -0.013378381 0.4182525 0.03768995 0.010380829 0.4195286 -0.031373817 0.028710458
0.009952651 0.012501171 -0.026103638 0.45882836 0.4014649 0.0089037875 -0.011765706 -0.034690574
-0.038924348 0.030628288 0.42893368 0.025563173 -0.036936846 0.005523821 -0.026449941 0.4152432
0.43579522 -0.013950415 -0.016714113 0.46000707 0.012776846 0.023322212 0.43853953 0.037582587
0.029791955 0.44710442 0.45366699 -0.019815203 0.39247546 0.44702527 -0.0052525946 -0.029655417
0.03983872 0.42757434 -0.01649071 0.00536386 0.40483528 0.40933883 0.0014518707 -0.012916226
0.2911417 0.27945933 0.007483502 -0.019666577 0.0089692585 0.026709033 0.26624668 0.28178924
-0.02492582 -0.003096962 0.010019948 0.0050328798 -0.0064589623 0.035412792 0.28440073 0.28529882
0.30146927 0.0032404307 0.31876037 -0.024445323 0.012507996 -0.000114912415 0.035568323 0.03600638
0.031093342 0.03119306 -0.013946219 0.0036271145 -0.03617193 0.3181159 0.010094129 0.27652755
0.00768275 0.3057244 0.28905413 0.010131863 -0.0072685042 -0.0018353754 0.2996285 0.30330938
0.008706225 -0.019485408 -0.008857436 0.021431085 0.03463667 0.32300648 -0.011113557 0.2547125
0.021992344 0.24349083 0.014041801 -0.00625543 -0.020208031 0.25145712 0.012567183 0.28220958
0.29267287 0.3043934 0.013987612 -0.011595969 0.03656454 0.26977906 -0.029231954 -0.038951796
0.024325825 0.3076847 0.02025702 0.017957183 0.024245579 0.016818454 0.0024679299 0.3168014
0.2635807 0.022855949 0.011427028 0.27896813 0.30990496 -0.0076343445 -0.035424564 0.26542115
-0.019255633 0.021926831 0.27780873 0.03593437 0.030586878 0.2525881 0.02437222 -0.026991762
-0.039367933 -0.030880906 -0.011635352 0.29255214 0.29863265 0.019137075 0.01240247 0.005349585
0.010334308 0.014550054 0.31717095 0.004477142 -0.0078721605 0.015065084 -0.014623398 0.2694983
0.28127325 0.0067418036 0.012119771 0.3125993 0.0038492149 -0.0394408 0.28271648 -0.036877465
0.03456802 0.30917928 0.2983822 0.008443932 0.30483967 0.2815148 -0.03271379 -0.008017793
0.009120748 0.28288037 0.002799602 -0.008845682 0.3118687 0.28382853 -0.016559012 0.022824263
00000000: dede ea3e ccf0 d73e bef4 36bc 8021 d6bc
00000010: 801b ff3b 50ff 0fbd 0338 da3e 8695 d63e
00000020: c2aa 153d 5e45 b83c 797c 1abd 0266 57bc
00000030: 89ec abbc 8b86 ba3c 0dd1 c73e 141d df3e
00000040: 95a8 c13e acc3 e83c 21bc d93e 7c79 853c
00000050: b417 a53c 48ca 50bc 5a08 6ebc d6c4 2d3d
00000060: a638 cf3c 24ce ffbc 7e43 343c 8c99 25bc
00000070: 3b4d a53c 6300 d53e 5a8d 8c3a 9178 d93e
00000080: 9e64 e23c 46be d03e 4036 e63e cc2d e63b
00000090: b71a 163d 683a dd3c 50f9 d33e ea0d e43e
000000a0: 6ec4 8cbc 0734 1b3d 0cb2 c83b bb04 64bc
000000b0: 1a91 793c 6ac1 db3e 957b 133d a50b da3e
000000c0: 62f2 603c 2b8b d63e eed2 563c 8349 713b
000000d0: e2e0 eb3c 1de8 e93e 82d1 bbbc 8fea e93e
000000e0: af44 ea3e da97 db3e 30b6 0f3c 923c af3c
000000f0: c376 b1bc e03c dd3e 09d5 7cbc 98a4 4fbc
00000100: 2a73 1cbc a869 db3e 6a36 a13c 4ba9 8ebc
00000110: 11aa 13bd 74e9 95bc 135d 63bc 2ebc c93e
00000120: ded4 d83e 1163 0ebd 90bd 11bd 367d d13e
00000130: d05f df3e 7e50 d23b 5b5f 46bb a00b db3e
00000140: 2f65 173d ff30 5bbc 3125 d63e c760 1a3d
00000150: 5a14 2a3c 74cc d63e d581 00bd 3232 eb3c
00000160: 7210 233c b6d1 4c3c 4cd7 d5bc 8deb ea3e
00000170: cf8c cd3e 31e1 113c f3c4 40bc b417 0ebd
00000180: 236f 1fbd 2de8 fa3c 329d db3e dc69 d13c
00000190: 174b 17bd 2b01 b53b 8cad d8bc c29a d43e
000001a0: 8d20 df3e 4890 64bc 09ec 88bc 0c86 eb3e
000001b0: fa55 513c 390e bf3c 4188 e03e 33f0 193d
000001c0: 420e f43c dfea e43e 0a47 e83e 7e53 a2bc
000001d0: 8bf2 c83e 7fe0 e43e f51d acbb ebef f2bc
000001e0: ed2d 233d 06eb da3e 8717 87bc 52c3 af3b
000001f0: 9246 cf3e dc94 d13e b24c be3a 949e 53bc
00000200: 8610 953e 4b15 8f3e 2a38 f53b cd1b a1bc
00000210: ccf3 123c e7cc da3c 7c51 883e ae46 903e
00000220: 3c31 ccbc 67f6 4abb b52a 243c dbea a43b
00000230: b4a5 d3bb 010d 113d f99c 913e b012 923e
00000240: 2e5a 9a3e 685d 543b 8f34 a33e 8f41 c8bc
00000250: 56ee 4c3c 22fd f0b8 17b0 113d 6d7b 133d
00000260: 77b7 fe3c 9788 ff3c af7e 64bc e2b4 6d3b
00000270: 0529 14bd 16e0 a23e d861 253c 0595 8d3e
00000280: 94bf fb3b e987 9c3e e7fe 933e 1d00 263c
00000290: a22c eebb fb90 f0ba e868 993e 5e4b 9b3e
000002a0: 8ea4 0e3c dd9f 9fbc c71e 11bc 3e90 af3c
000002b0: 2edf 0d3d 1b61 a53e a315 36bc ad69 823e
000002c0: 4a29 b43c a955 793e 950f 663c 5afa ccbb
000002d0: 508b a5bc fdbe 803e 96e6 4d3c c67d 903e
000002e0: 38d9 953e 74d9 9b3e 4c2c 653c 05fd 3dbc
000002f0: b3c4 153d 7b20 8a3e da77 efbc eb8b 1fbd
00000300: f446 c73c d988 9d3e 0df2 a53c f11a 933c
00000310: aa9e c63c dbc6 893c febc 213b cb33 a23e
00000320: 0df4 863e 663c bb3c 6e38 3b3c e9d4 8e3e
00000330: ddab 9e3e 8629 fabb 5919 11bd 48e5 873e
00000340: fdbd 9dbc e69f b33c f23c 8e3e eb2f 133d
00000350: 5591 fa3c 3a53 813e 40a8 c73c d41d ddbc
00000360: 4540 21bd f4f9 fcbc 34a2 3ebc 65c9 953e
00000370: 61e6 983e 5bc5 9c3c bb33 4b3c 924b af3b
00000380: 3b51 293c 5a63 6e3c 3b64 a23e fdb4 923b
00000390: 3cfa 00bc 8bd3 763c fa96 6fbc aefb 893e
000003a0: 0c03 903e 59ea dc3b 0192 463c 040d a03e
000003b0: 1c43 7c3b ad8c 21bd 37c0 903e d30c 17bd
000003c0: 3297 0d3d bf4c 9e3e 8dc5 983e 6b58 0a3c
000003d0: f213 9c3e b522 903e e5fe 05bd 105d 03bc
000003e0: 316f 153c b2d5 903e 8779 373b 7bed 10bc
000003f0: 41ad 9f3e f951 913e c4a6 87bc f3f9 ba3c

layer3.bias f4 [7]
0.41673958 0.099211305 0.1416693 0.15071747 0.119413346 0.102212615 0.09898793
00000000: e45e d53e 4c2f cb3d c211 113e ae55 1a3e
00000010: fc8e f43d d954 d13d 2fba ca3d
