Backup/Video_Streaming_DQN_1h40/models_1050000.pth (torch, 173027 bytes, 12 tensors)

layer1.weight f4 [128, 28]
000000 15 c3 5d 3d ea f8 ca bc b3 39 77 bd 24 01 7c bd
       0.054141123 -0.024776895 -0.06035776 -0.061524525
000010 13 7a 6b bd ad 85 70 bd 3c 9f 26 bd 43 20 e1 3e
       -0.057489466 -0.058721233 -0.0406792 0.43969926
000020 54 c6 86 3c ac e9 52 3d e9 03 45 bc 19 5f 43 3d
       0.016451992 0.051492378 -0.012024858 0.047698114
000030 c8 b2 64 bd af e6 fe 3b 8f 71 8c 3c f2 d8 e6 3c
       -0.05583456 0.0077789645 0.017143993 0.02817962
000040 d5 a0 ef 3c f8 c1 6b bc 57 1e 11 3d 7b a6 19 3b
       0.029251495 -0.0143895075 0.035429325 0.0023445177
000050 af 21 41 bc c1 d5 64 bd 9b d9 46 3d b1 3e 05 3d
       -0.011787816 -0.055867914 0.04854737 0.03253049
000060 2d 75 12 3d 5e 44 64 3d f1 43 eb bc 5f 43 00 3f
       0.03575628 0.055729263 -0.02871892 0.501028
000070 7c c8 23 bd c8 d0 31 bd 2d c5 6a 3d d9 ed 89 bc
       -0.03998612 -0.043412 0.057316948 -0.016837047
000080 08 84 7e bd 0a 55 6a bd c0 37 82 bd 3f ca 10 bd
       -0.062137634 -0.057210006 -0.0635829 -0.035349127
000090 27 2b 0b bd 81 89 61 bd dd 55 5f 3d 09 6d c3 3c
       -0.0339767 -0.055062775 0.054525245 0.023855703
0000a0 93 ca c0 3c 86 0c 34 3d 17 05 83 bd b7 36 66 3d
       0.023534095 0.043957256 -0.06397455 0.056204524
0000b0 d9 7f 3f bd 44 82 30 bd 12 4d 53 bc 91 8e 97 b8
       -0.046752784 -0.04309298 -0.012896793 -7.226796e-05
0000c0 79 6c bb bc 48 ed 3a bc 2d 0c 23 3d 66 1b 29 bc
       -0.022878872 -0.011409111 0.039806534 -0.010321474
0000d0 69 b4 3b bd f2 ca 5a bd e9 e1 64 3d c8 d2 56 bd
       -0.04582635 -0.0534162 0.055879507 -0.05244711
0000e0 05 8e ef 3c d4 4f 40 bc cd 4e 5f bd 8a 69 20 3d
       0.029242525 -0.0117377825 -0.05451851 0.03916315
0000f0 ed 26 b0 3c f7 c9 15 bd 61 85 81 3b ef b5 4e bd
       0.021502936 -0.03656956 0.0039526676 -0.050466474
000100 6c 40 0b bc f4 2e 24 bd ed 4b 22 3d 85 38 f5 3c
       -0.008499246 -0.04008384 0.03962319 0.029934177
000110 68 32 83 3d b7 e8 00 bd be 2f e2 3c e9 df 03 bd
       0.064060986 -0.031471934 0.027610656 -0.03219596
000120 fc d4 5e bb 2e 2c 09 3d 56 58 2c 3d 8a 13 1c 3d
       -0.003400146 0.0334894 0.04207643 0.03810457
000130 5b 85 bc 3c eb 6c 43 bc ac 6f 24 bd 38 6f f6 3b
       0.023012808 -0.011927824 -0.04014556 0.0075205825
000140 11 83 a6 bc 0f 1a ea bb ed 32 6f ba 64 ae 83 3b
       -0.02032617 -0.0071442197 -0.0009124715 0.0040185917
000150 04 64 68 3d 81 57 d3 3c 46 75 5c bc 1d 29 62 3d
       0.056736007 0.025798561 -0.013455695 0.05521499
000160 cf ed 5e bd 43 7b 6e 3d f1 68 ac 3b c6 e9 fd 3e
       -0.05442601 0.05822302 0.0052615334 0.49592417
000170 d9 24 5f 3d a3 fd f7 bb 5c 1d 5c 3b 98 8a e6 3a
       0.0544785 -0.0075680776 0.0033586835 0.0017588912
000180 4c 45 32 3d e7 d3 2b bd ef 35 16 3d 22 21 4b 3d
       0.043523118 -0.041950133 0.03667253 0.049592145
000190 92 79 c0 3c 05 7c 30 bc 27 f7 fa 3c a2 4a 59 bd
       0.02349547 -0.010771756 0.03063543 -0.05304969
0001a0 07 2f 18 bd a5 72 1f 3c d6 96 26 3d 6e 5d 55 3d
       -0.037154224 0.009731923 0.040671192 0.052091055
0001b0 ac 47 85 3c b0 43 11 3c db 2b 8b bc 15 27 00 3f
       0.016269527 0.008866236 -0.016988685 0.50059634
0001c0 6b 3a 1b 3d fe fc 97 3c a4 a3 55 bd eb bf fa 3b
       0.03789751 0.018553253 -0.052158013 0.007652273
0001d0 84 b0 52 3c 66 61 52 3c d5 ba 3c bc 3b 39 d3 3e
       0.012859467 0.012840604 -0.011519154 0.412546
0001e0 18 22 5f bd f0 a5 a6 bc 7f 47 0a bd 4f 14 b8 bc
       -0.054475874 -0.020342797 -0.03375959 -0.022470621
0001f0 d3 21 23 bd 43 d2 9c 3c 67 ad 62 bd b1 34 c0 3c
       -0.03982718 0.01914323 -0.05534115 0.023462625
000200 24 e5 e2 bb 95 8f 71 3d af 0b 1a bd 9e 95 3e 3d
       -0.0069242883 0.05897482 -0.0376088 0.046529405
000210 72 c6 33 3c f0 51 65 bd f0 06 29 3d 9c bd eb bb
       0.010972606 -0.055986345 0.04126638 -0.007194234
000220 37 ed a5 3c 73 a1 77 3c 65 57 71 bd df ac e1 3e
       0.020254714 0.015114176 -0.058921237 0.44077203
000230 7a 79 01 bd a5 24 cd 3c af d2 3b bd 87 77 12 3c
       -0.03160999 0.025041888 -0.04585522 0.00893963
000240 c3 7d 0f bc 0b 22 15 bc 18 ac 03 bb 59 a8 25 bd
       -0.008758011 -0.009102355 -0.002009159 -0.040443752
000250 f4 24 45 3d 36 91 05 3c 85 3b ba bc 98 d4 c9 bc
       0.048130944 0.008152297 -0.02273346 -0.024637505
000260 e3 dd 99 bc 3c 0e 70 bd 24 48 d1 3c 17 cb 70 3d
       -0.018782562 -0.058607325 0.025547095 0.05878743
000270 c6 3b 9b 3c 2d 91 2c 3d 2d 15 5f bd 10 bf 4d bd
       0.0189494 0.042130638 -0.054463554 -0.05023104
000280 6e a7 12 bd ca 45 5a 3d fa aa 6c 3d a5 94 83 3d
       -0.035804205 0.053289212 0.057780243 0.06424836
000290 35 d5 7b bd ba 48 72 3d f5 68 77 bd 3f 41 f2 3c
       -0.061482627 0.05915139 -0.06040283 0.029572127
0002a0 1f bd f2 3c d0 a6 cc 3c 06 58 9c 3c cb 87 5b 3d
       0.029631196 0.024981886 0.019084942 0.0535963
0002b0 54 b7 43 3d 05 3a 74 bd 42 e0 7a bc f9 89 ca 3e
       0.047782257 -0.059625644 -0.015312256 0.3955839
0002c0 53 a1 54 3c 96 39 2c 3a 62 ff 84 3d 1f 6c 68 ba
       0.012977916 0.000656986 0.06494023 -0.0008866209
0002d0 9b 52 51 bd 5a 81 13 bd e7 b9 5c bd cd 8a a7 bc
       -0.05110417 -0.03601203 -0.053888228 -0.020451928
0002e0 b2 bd 0d bd 49 29 2f bd 08 79 5c bd f3 67 34 bb
       -0.034604736 -0.042763982 -0.053826362 -0.002752778
0002f0 9d 3a b8 bb 62 15 a0 bc 88 f4 e0 bc a8 79 74 bc
       -0.0056222216 -0.019541446 -0.027460352 -0.014921583
000300 f8 53 64 bd 25 16 1b bd fa b9 29 3c dd e0 e4 3e
       -0.05574414 -0.037862916 0.010359282 0.44702807
000310 1b 5d af 3b e6 6b 9c 3c 85 85 5a 3d 80 6f 15 bd
       0.005351675 0.019094419 0.05334999 -0.036483288
000320 c8 e4 d6 3c 8c 9d 24 3d cf 49 6f 3d 5a 69 45 3c
       0.026232138 0.04018931 0.05842 0.012049044
000330 08 48 31 ba c0 02 e4 3c ed 8b fe bc aa 55 81 bd
       -0.00067627477 0.027833343 -0.031072581 -0.06315167
000340 17 31 6b bd 89 f6 3b 3d 4b 06 12 bd 50 ce 18 3c
       -0.057419863 0.04588941 -0.035650533 0.0093265325
000350 ca 0a d7 bc 15 64 83 3d 72 1b 16 3b ba 54 65 3d
       -0.026250262 0.064155735 0.0022904542 0.055989005
000360 bd e9 df bc a4 f1 a9 bb a0 12 49 3c 2f 8c 38 3d
       -0.027333135 -0.0051862765 0.012272507 0.045055564
000370 ae 37 38 3d 33 b3 7f bd 10 99 14 bd 5b e0 57 bc
       0.044974975 -0.062426757 -0.036278784 -0.013176049
000380 e3 0f 75 bd bf b1 93 3c c6 49 8c bc bc b9 4a bc
       -0.059829604 0.018029092 -0.017125022 -0.012373384
000390 05 2e f6 3c 58 1b 32 bc 2c 8a 5d 3c 92 9d 01 3f
       0.03005124 -0.010870777 0.013521712 0.5063106
0003a0 4e 40 e9 bc 22 2b 4d b9 e4 72 0c 3d 31 d5 76 3d
       -0.028473046 -0.00019566392 0.034289256 0.06026191
0003b0 0c 51 ae 3b 51 3d 33 3d 3b c3 b1 bc 31 6e 7a bd
       0.00531972 0.043759648 -0.021699538 -0.061140243
0003c0 c4 b1 61 3c 5f ee f3 bc 88 ed de 3b e4 84 47 3d
       0.013775293 -0.02977675 0.0068032183 0.04871072
0003d0 53 53 48 3d 6b 77 a1 3c cf bf 88 bc c5 23 36 bd
       0.04890759 0.019710263 -0.016693024 -0.044467706
0003e0 d5 5b 22 3d 7a 85 24 3d f2 e6 28 bd 07 f1 ed 3e
       0.03963836 0.040166356 -0.04123587 0.46472952
0003f0 77 94 07 3d b5 8c ed bc 9a 32 2a 3d 2f 9c 13 bc
       0.03310057 -0.028997758 0.041552164 -0.009009405

layer1.bias f4 [128]
000000 22 06 f3 3e 64 34 d0 bb e6 d0 1e 3d a4 a5 d9 3e
       0.47465616 -0.0063539017 0.03877344 0.42509186
000010 1c c7 f6 3e c8 d5 1d bd b6 7d fe 3e f9 16 e2 bc
       0.48198783 -0.038533956 0.49705285 -0.027598845
000020 82 fa e4 3e 60 b7 89 bc 00 c7 07 bc 83 34 bc bc
       0.44722372 -0.016811073 -0.008287191 -0.022974258
000030 2c 91 bf 3e 5f db bd 3e 70 4f 32 bd 1c 4a 04 bd
       0.37415445 0.3708143 -0.04353279 -0.03229724
000040 35 3d 15 bd 14 9c 9b 3c ca bd 0a bb 0b 6c 8c bc
       -0.036435325 0.018995322 -0.0021170252 -0.017141363
000050 22 2c 49 bd d3 5a 62 bd c7 12 e3 3e ac 04 e1 3e
       -0.049114354 -0.055262398 0.44350263 0.43948877
000060 4a c5 ca 3e f3 0a 45 3c 63 84 dd 3e 57 4e fb 3e
       0.39603645 0.012026536 0.43265066 0.49083206
000070 18 b4 d1 bc e4 be fc 3e 03 de 00 3f 83 73 f5 3e
       -0.02559857 0.49364388 0.50338763 0.4793969
000080 84 cc 39 bd 05 17 ea bc dc 30 de 3e 5f e2 27 3c
       -0.045361057 -0.02857543 0.43396652 0.010246842
000090 2e 64 f4 3e ae 64 fd 3e ac db d6 bc 0f 18 f1 3e
       0.4773268 0.49490875 -0.026227795 0.47088668
0000a0 97 07 02 bd 06 94 f8 3e 1e 35 ec 3e f6 fa 24 3d
       -0.03174552 0.48550433 0.46134275 0.040278398
0000b0 1c a3 00 3f ce 3c 61 bd 55 12 5e 3d 57 26 f8 3e
       0.50248885 -0.05498963 0.0542167 0.4846675
0000c0 68 bf f4 3e ec 3a 77 bd 46 e2 54 bd 4a f4 ed 3e
       0.4780228 -0.060358927 -0.051973604 0.4647544
0000d0 7f 2d b6 3c e9 e7 03 bd d3 8d fc 3c b8 2e f9 3e
       0.022238491 -0.03220359 0.030829346 0.48668456
0000e0 8f 4d 5e bb c0 00 d0 bc 40 ff c4 3c 19 7d d0 3c
       -0.003392074 -0.025390983 0.024047494 0.025450276
0000f0 cb f7 d8 3e 1a e1 fa 3e 7c 50 f8 3e 19 cb 3f bd
       0.4237655 0.48999864 0.48498905 -0.04682455
000100 8b 60 aa 3b 57 f8 b2 bc f0 84 00 3f 07 04 01 3f
       0.005199497 -0.021846933 0.50202847 0.5039677
000110 f2 2d 15 bc 0a 5d 32 3d 73 ea dc 3e a2 4a 02 3f
       -0.0091051925 0.04354576 0.4314762 0.5089513
000120 b1 e4 f6 3e 24 25 cd 3c 3b 54 49 bd 45 21 fc 3e
       0.48221353 0.025042124 -0.049152594 0.49244133
000130 60 bb f9 3e 10 10 21 3d 45 6e fa 3e 8a 14 5d bd
       0.48775768 0.03932196 0.48912254 -0.053974666
000140 fa e8 f9 3c 4e 64 5c 3d 03 48 77 bd 47 7c 01 3f
       0.0305066 0.053806596 -0.06037141 0.5058026
000150 ad 14 02 bd 3f 18 1a 3d e1 5e ef 3e 85 ab cb 3e
       -0.031758 0.03762078 0.46752074 0.39779297
000160 1f 57 fc bb d3 bd c5 3e 5f 8a 00 3f 4e e5 80 bd
       -0.0077008153 0.38621387 0.5021114 -0.062937364
000170 21 20 fe 3e d7 1c cc 3e 53 8d e9 3e e1 55 de 3c
       0.49633887 0.39865753 0.45615634 0.02714056
000180 27 de 70 bd c8 9c fe 3e b1 e4 10 3d 9c 97 d9 3e
       -0.05880561 0.4972899 0.035374347 0.4249848
000190 3f 6f 01 3d db 0b ff 3e 19 cf 1a bd 50 d1 56 bd
       0.031600233 0.49813733 -0.03779516 -0.05244571
0001a0 d4 1a f8 3e 6f 28 e1 3e fc 84 ee 3e 39 a9 db 3e
       0.48457968 0.4397616 0.46585834 0.42902544
0001b0 f5 2c d6 3e 5a 08 d4 3e 13 ac 7c bc cf 6e ff 3e
       0.41831174 0.41412622 -0.015421885 0.49889228
0001c0 ce 61 cf 3e b8 38 cb 3e 0c 5a 55 bd 58 38 0a 3b
       0.40504307 0.3969171 -0.05208783 0.0021090712
0001d0 20 37 f4 3e 36 5c 54 bb dd 59 59 bd cd 37 15 3d
       0.47698307 -0.0032403595 -0.053064216 0.03643017
0001e0 98 f5 ea 3e fe e2 f2 3e 33 c7 cf 3e c5 a4 d8 3e
       0.45890498 0.47438806 0.40581664 0.4231321
0001f0 be bb e6 3e e2 d4 e2 3e 19 51 f5 3e 89 04 f3 3e
       0.4506511 0.44303042 0.47913435 0.47464398

layer2.weight f4 [128, 128]
000000 96 73 d8 3e 5c 4b 12 3c eb f6 68 bb ad ad c5 3e
       0.42275685 0.0089291 -0.0035547565 0.38609067
000010 46 c1 c3 3e 7c 02 77 3c 63 ff d1 3e 35 b4 ee bc
       0.38233393 0.015076276 0.41015157 -0.029138664
000020 d0 68 d0 3e c3 a7 9b bc f6 99 05 3c 98 b1 c7 bc
       0.40704966 -0.019000893 0.008154383 -0.024376675
000030 4f 11 cc 3e 2f b1 c4 3e 11 34 5e 3c 54 ee ca 3c
       0.39856955 0.3841643 0.013562218 0.024771847
000040 3e 84 a6 bb 91 7a 5d 3c 1a a6 e9 bc b6 06 66 bc
       -0.0050816825 0.013517992 -0.028521586 -0.014039686
000050 8a c6 25 bc 21 fc f1 3c d0 44 d9 3e 9e e8 c9 3e
       -0.010118136 0.02953917 0.42435312 0.39435285
000060 51 06 d5 3e bf 1a f1 3c 9f be d1 3e d2 9d c2 3e
       0.41606382 0.029431699 0.40965745 0.38011032
000070 a9 1b 55 3c 85 00 d7 3e be 96 c0 3e e5 f5 cb 3e
       0.013007083 0.41992584 0.37615007 0.3983604
000080 45 5a b2 bc be 02 85 3c 80 9e d0 3e 68 df 97 bc
       -0.02177156 0.01623666 0.40745926 -0.018539146
000090 df 9a d0 3e e0 86 da 3e 2c 6e e8 39 b4 9d d3 3e
       0.40743157 0.42681026 0.00044332573 0.41331255
0000a0 5d 21 ed 3c 91 9d cb 3e 13 31 d0 3e 26 af cd bc
       0.028946573 0.3976865 0.4066244 -0.025107931
0000b0 ff 60 d0 3e 0f 47 70 3c 4c 29 77 3c 1f c5 da 3e
       0.40699002 0.014665379 0.01508553 0.42728516
0000c0 59 44 c3 3e 4c f4 85 3b 5e 18 e5 bb 3a 13 d9 3e
       0.38138083 0.0040879603 -0.00699143 0.4239748
0000d0 16 44 88 3c f7 49 87 3c 94 4e a1 bc ef 45 da 3e
       0.016634028 0.016514761 -0.01969079 0.4263148
0000e0 48 bf 22 bc ec eb ed 3c d7 7d 2f bc a3 44 ef bb
       -0.0099333 0.02904316 -0.010711155 -0.0073018833
0000f0 72 73 d0 3e af de d6 3e 18 61 d3 3e ca 8c cb 3b
       0.40713078 0.4196677 0.41285014 0.0062118517
000100 94 6f e1 bc 39 e0 a6 bc 68 29 d6 3e bd de da 3e
       -0.027519025 -0.02037059 0.41828465 0.4274806
000110 34 bd b8 3c e9 fe 82 bc 30 42 ca 3e 43 46 c9 3e
       0.022551157 -0.015990691 0.39503622 0.39311418
000120 42 59 c4 3e 7b 42 10 3b 66 56 4e bc 66 d6 c9 3e
       0.38349348 0.0022012282 -0.012593841 0.39421386
000130 7b 78 d7 3e 89 54 3e 3b 9b 93 d0 3e 8b e1 3c bb
       0.42084107 0.0029042086 0.40737614 -0.0028820958
000140 9b f2 ab 3c 91 72 99 38 9b 01 17 bc 11 79 c4 3e
       0.020989707 7.316948e-05 -0.009216691 0.38373616
000150 d2 83 2a bb 83 2b 6d bc 49 f3 d1 3e db 58 c7 3e
       -0.0026018512 -0.014475706 0.41005924 0.3893498
000160 71 c9 dd 3c 3a b3 db 3e 82 a9 d9 3e ee 5e 8e bc
       0.027073594 0.42910177 0.42512137 -0.01737925
000170 8b db c6 3e 65 d2 c9 3e 4e 0f c7 3e f2 2f e4 bc
       0.38839373 0.3941833 0.38878864 -0.027854893
000180 ab 70 40 3a af bf ce 3e 5e 88 4c 3c 86 38 de 3e
       0.00073410076 0.40380618 0.012483684 0.434025
000190 7f e1 a5 bc 85 4b c2 3e 40 9b 50 bc 33 9c 00 bc
       -0.020249126 0.37948242 -0.012732327 -0.007849741
0001a0 8e 3d c3 3e 1c 08 ca 3e 97 02 c6 3e 77 ee d5 3e
       0.381329 0.39459312 0.3867385 0.41783497
0001b0 f9 2b c0 3e cd 3f c7 3e 6a 76 8a 3c 32 76 d4 3e
       0.37533548 0.38915864 0.016902167 0.41496426
0001c0 07 2e d0 3e 14 5e d0 3e ba ee d0 bc 8b fa c0 3b
       0.40660116 0.40696776 -0.025504459 0.005889242
0001d0 ac ff c8 3e c1 64 8d bb 7a 60 f0 3c 03 4d 82 3b
       0.39257562 -0.0043149893 0.029342879 0.0039764657
0001e0 f2 ad c5 3e 18 3b de 3e a5 88 cb 3e 5c 7a d8 3e
       0.38609272 0.4340446 0.3975269 0.42280853
0001f0 83 55 d6 3e 5c 7d c9 3e 69 6f ca 3e bb a0 c8 3e
       0.41862115 0.39353454 0.39538124 0.39185128
000200 40 aa df 3e c0 b6 d1 bc d0 03 91 3c 2f 86 e7 3e
       0.43684578 -0.025599837 0.017702013 0.4521956
000210 0b d0 da 3e c0 22 07 bc 15 68 d9 3e 08 7a d7 3c
       0.4273685 -0.008248031 0.4246222 0.026303306
000220 71 94 d9 3e fe d7 a4 b9 06 cc d7 bc a6 80 c2 3c
       0.42496064 -0.00031441444 -0.026342403 0.023742985
000230 68 64 dc 3e fc 97 d8 3e 1b b8 16 bc 12 e2 9e 3b
       0.43045354 0.42303455 -0.009199168 0.004848727
000240 b5 8a 73 3c 40 45 c3 bc 24 ef d9 bc b5 bd ae bc
       0.014864613 -0.023836732 -0.026603289 -0.021330694
000250 4e 81 58 bc 8e 1e 9e bc 4f a8 d9 3e 77 0b ce 3e
       -0.013214422 -0.019301679 0.42511222 0.40243122
000260 46 4a d3 3e 4d 69 25 3c 30 bb d9 3e 89 00 e5 3e
       0.41267604 0.010095906 0.42525625 0.4472697
000270 6e f9 25 3b e5 d5 e3 3e 02 6a de 3e 98 7b cc 3e
       0.0025325674 0.44499126 0.43440253 0.39938045
000280 07 55 34 bc f8 e2 84 bc e5 f2 d6 3e 1b 80 99 bb
       -0.0110066 -0.016221508 0.4198219 -0.004684461
000290 cc 24 e0 3e 88 8f d5 3e 8d 5f f1 3c 5d 6d d9 3e
       0.43778074 0.41711068 0.029464507 0.4246625
0002a0 e9 bd a5 3c 1c bc e5 3e fc 60 d2 3e b1 9d 97 bc
       0.020232158 0.4487008 0.41089618 -0.01850781
0002b0 54 18 df 3e c0 be de bc 54 0a 5b 39 47 f9 cc 3e
       0.43573248 -0.027190566 0.00020889315 0.40033934
0002c0 43 29 dd 3e f8 bd 73 bb 51 2a 00 3b 1c bc dc 3e
       0.43195543 -0.0037192088 0.0019556473 0.43112266
0002d0 af 13 5e bc df 54 bc 3c c6 a7 84 bb c6 91 d4 3e
       -0.013554498 0.022989688 -0.0040483205 0.41517466
0002e0 43 5e da bc 15 ac 6b bc d2 18 e7 3c 6b 15 68 3c
       -0.026656276 -0.014384289 0.028210077 0.014165263
0002f0 53 5c cc 3e 76 9c d4 3e 0c bc e4 3e ae ba 7f bc
       0.39914188 0.4152562 0.44674718 -0.015608473
000300 9b 4d 34 3c 15 3b a7 bc c1 7a d6 3e 7f d5 d5 3e
       0.011004831 -0.020413915 0.4189053 0.41764447
000310 09 78 9c bc 13 d4 ae bc 6f 85 e7 3e 89 a9 d1 3e
       -0.019100206 -0.02134136 0.4521899 0.40949658
000320 1d 39 dc 3e 14 08 be bc 03 54 10 3c 8f b4 e7 3e
       0.43012324 -0.023197211 0.008809092 0.45254943
000330 31 f9 d7 3e 26 3d 8b bc 76 47 d8 3e db 81 da 3b
       0.42182305 -0.016996931 0.4224202 0.006668312
000340 51 ed 20 bc 91 7d dd 3c d2 2e 96 ba 0e 6d da 3e
       -0.009822206 0.027037414 -0.0011458045 0.42661327
000350 23 ed 99 3c 2d fe a6 3c c3 32 d1 3e b5 a5 ea 3e
       0.018789833 0.020384872 0.4085904 0.4582955
000360 88 93 b3 ba cb 92 e5 3e d8 bd e9 3e 38 65 c7 bc
       -0.0013700584 0.44838557 0.45652652 -0.024340257
000370 1b 7d d5 3e eb 44 df 3e 9d 16 e8 3e 56 0a a4 3c
       0.4169701 0.43607268 0.45329753 0.02002446
000380 e0 3c a1 3b 61 d9 e3 3e 2d 9f 99 3c 05 83 d3 3e
       0.004920587 0.44501784 0.018752659 0.41310897
000390 1b 03 b7 bc 44 60 e9 3e 4e 88 a2 3c 89 89 89 bc
       -0.022340348 0.45581257 0.019840386 -0.016789215
0003a0 07 04 d1 3e 48 ab da 3e b8 1c de 3e a9 e3 e7 3e
       0.40823385 0.42708802 0.43381286 0.45290878
0003b0 d3 ca dd 3e ec 83 e5 3e 17 a0 b3 3c 70 42 ca 3e
       0.43318805 0.4482721 0.021926923 0.39503813
0003c0 da 40 e8 3e 2b 1a d7 3e 99 83 5a bc 5f 2e 8d bc
       0.45361978 0.42012152 -0.013337039 -0.017234026
0003d0 04 fd cd 3e f2 72 cc bc 48 ff eb 3c 95 54 45 3c
       0.40232098 -0.024957154 0.028808251 0.012044092
0003e0 5a 86 e1 3e 17 fe dd 3e fa d2 ea 3e 0e 79 dc 3e
       0.44047815 0.43357918 0.45864087 0.43061107
0003f0 38 7e dc 3e 09 52 dc 3e b6 42 e0 3e 7a 0c d3 3e
       0.43065047 0.43031338 0.43800896 0.41220456

layer2.bias f4 [128]
000000 c2 5e cf 3e 43 41 cc 3e 91 e4 c5 bb fb fd 9f bc
       0.40501982 0.3989354 -0.00603921 -0.019530287
000010 7f fc 3e 3c b7 dd 9e bc 32 bb c8 3e bf 14 dc 3e
       0.011656879 -0.019392831 0.3920532 0.42984578
000020 1e 71 14 3c 61 74 91 3c 49 6a 99 bc 9c c8 d5 3c
       0.009060172 0.01775569 -0.018727439 0.026096635
000030 45 d3 b2 3c a5 82 22 3b be 23 b1 3e e8 95 cf 3e
       0.021829257 0.0024797108 0.34597582 0.40544057
000040 ac cc eb 3e d2 ad b1 bb ad ca df 3e d5 14 b2 bc
       0.4605459 -0.0054223323 0.43709317 -0.02173845
000050 93 24 b8 bc 5b b0 84 3c d8 ed 74 bb b2 ea e4 3c
       -0.022478377 0.016197374 -0.0037373211 0.027943943
000060 6f 7a a2 3a 06 a3 3c bb 98 e2 27 3c bf c3 4a bc
       0.0012396107 -0.0028783693 0.010246895 -0.012375771
000070 88 f5 88 3c 23 3b df 3e b1 21 b6 3c 74 8d d8 3e
       0.01671864 0.43599805 0.022232862 0.4229542
000080 40 4e 8f bc cf a0 d1 3e c5 bc de 3e ff fe af bc
       -0.017493367 0.40943 0.43503395 -0.021483896
000090 75 be ed 3c f8 9a f6 bc 23 8f c4 3e f1 48 cd 3e
       0.029021481 -0.030103192 0.38390455 0.40094712
0000a0 e6 37 fb bc 4c ef 50 3c a0 15 52 bc fd 72 b1 bc
       -0.030666303 0.012752365 -0.012822539 -0.021661276
0000b0 28 2d 0f bc 05 40 d4 3e d6 ad 4f bc 5e 88 d1 3e
       -0.008738793 0.41455093 -0.012675723 0.40924352
0000c0 f7 89 2e 3c f3 3a cb 3e 1f ae dd 3c 3d b9 b0 bc
       0.010653011 0.39693412 0.027060566 -0.021572703
0000d0 33 f8 db ba de da d2 3e f2 0d 8f bc e9 9f d0 3e
       -0.0016782343 0.41182607 -0.017462704 0.40747002
0000e0 a0 81 da 3e 60 ec ba 3e 22 f1 1d bc 7b 33 9e 3c
       0.4267702 0.36508465 -0.00964001 0.019311657
0000f0 07 bf 96 3c 04 7c cd 3e ed 65 d6 bc 15 2b bc 3c
       0.018401636 0.4013368 -0.026171649 0.022969762
000100 f3 d5 11 3c 86 72 dd 3e 03 00 3b bc 7f 7d fe ba
       0.008901107 0.43251437 -0.011413577 -0.0019416063
000110 5f 37 8d bc 55 50 f8 bb 8c 49 6d bc 74 d7 e8 3e
       -0.017238317 -0.0075779357 -0.014482867 0.45476878
000120 58 68 da 3e d7 53 c6 bc 3f b6 40 3c d6 fe da 3e
       0.42657733 -0.0242099 0.011762201 0.4277255
000130 d8 1a cb 3e 8d f8 a4 bc dc 16 ad bb 47 6b cc 3e
       0.39668918 -0.02013805 -0.005282266 0.39925596
000140 7b 6d 17 bc e7 e7 1b bb 71 16 c5 3e 13 05 32 bc
       -0.009242411 -0.0023789348 0.38493684 -0.010865468
000150 1a 60 3a bc da bb d7 3e 53 bd 6d bc 57 dd 68 3c
       -0.011375451 0.42135507 -0.01451047 0.014212928
000160 ff 19 3b bc 8d f5 92 bc ae ae 18 bc c9 9a d3 3e
       -0.011419772 -0.017939353 -0.009318991 0.4132903
000170 92 45 da 3e f9 3f af bc 9c 4d a2 3c ff 28 2e 3c
       0.42631203 -0.02139281 0.019812398 0.010629891
000180 e2 72 b8 bb f5 3e ea 3c 86 e9 d0 3e 63 30 f0 bc
       -0.0056289295 0.028594473 0.40803164 -0.029319948
000190 95 0b 56 3c b0 66 e8 3c 81 34 6c bc 50 74 db 3e
       0.013064285 0.028369278 -0.014416815 0.42862177
0001a0 9c 85 e2 3e d0 98 e8 3a 82 c0 d0 bc fd 1d d0 3e
       0.4424256 0.0017745737 -0.02548242 0.4064788
0001b0 b5 a2 ca bb 66 43 52 bb 1d 9e ca 3e 1d 60 6a 3c
       -0.006183947 -0.003208363 0.39573756 0.014305142
0001c0 e3 fd 8d bc c1 dc e0 3e c4 26 d3 3e e0 e0 df bc
       -0.017332977 0.43918422 0.41240513 -0.027328908
0001d0 ce 2d ce 3e a7 2f c0 3e bf b1 4b bc a8 82 02 3c
       0.4026932 0.37536356 -0.012432515 0.007965721
0001e0 49 e5 d7 3a 41 35 cc 3e e6 20 d5 bc 65 ca af 3c
       0.001647153 0.3988438 -0.026016664 0.021458814
0001f0 44 3e d1 3e 0b 52 db 3e ef 87 c0 3b d2 7f 32 bb
       0.40867817 0.4283603 0.0058755795 -0.0027236831

layer3.weight f4 [7, 128]
000000 9d cd ad 3e db d1 9f 3e 82 0a 07 bc b4 df 9d bc
       0.33945933 0.31214795 -0.008242251 -0.019271709
000010 df 19 bc 3b da 64 d4 bc 8b 9f a1 3e a7 b6 9e 3e
       0.0057403888 -0.025926996 0.31567034 0.30998728
000020 0b 79 dc 3c fa 06 88 3c a8 b3 e3 bc 6e d8 1e bc
       0.026913187 0.01660489 -0.027795628 -0.009695156
000030 80 82 7d bc dc b7 89 3c f3 f1 93 3e a8 14 a5 3e
       -0.015473008 0.016811304 0.2889553 0.32242322
000040 64 3d 8f 3e 34 bc ab 3c 8e 4d a1 3e 1a ae 44 3c
       0.27976525 0.020963766 0.31504482 0.0120044
000050 dc 46 73 3c 1f 0f 1a bc 75 96 2f bc 96 26 00 3d
       0.014848437 -0.009403019 -0.010717024 0.0312868
000060 3d f0 98 3c 9c 9f bc bc 92 05 05 3c b8 03 f4 bb
       0.018669242 -0.023025326 0.008119004 -0.0074467324
000070 b7 94 73 3c e2 84 9d 3e 50 2e 4f 3a 2c 10 a1 3e
       0.014866999 0.30765444 0.00079033244 0.3145765
000080 17 10 a7 3c 4f 79 9a 3e bc 54 aa 3e d4 d6 a9 3b
       0.020393414 0.30170676 0.33267772 0.00518308
000090 fd 20 dd 3c 7a 46 a3 3c 76 b7 9c 3e 65 b7 a8 3e
       0.02699327 0.019931067 0.3060872 0.3295242
0000a0 ff 83 4f bc f4 c6 e4 3c 67 22 94 3b 3c 41 28 bc
       -0.012665748 0.0279269 0.0045207026 -0.010269459
0000b0 a5 30 38 3c 29 da a2 3e 10 46 d9 3c 6d 86 a1 3e
       0.0112420665 0.31807068 0.026522666 0.3154787
0000c0 96 00 26 3c 73 aa 9e 3e e0 64 1e 3c 53 07 32 3b
       0.010131976 0.30989417 0.009667605 0.002716501
0000d0 d9 f8 ad 3c a1 0b ad 3e 15 b0 8a bc 4c 0d ad 3e
       0.021236824 0.33797935 -0.016929666 0.33799207
0000e0 86 56 ad 3e 1d af a2 3e 7a fe d3 3b 63 40 81 3c
       0.33855075 0.31774226 0.006469545 0.015777772
0000f0 07 ec 82 bc 29 e3 a3 3e b6 7e 3a bc 58 3d 19 bc
       -0.015981687 0.32009247 -0.011382749 -0.009353004
000100 a7 a5 e6 bb 3c 91 a2 3e 13 a2 6d 3c 3a 76 52 bc
       -0.0070387903 0.3175143 0.014503974 -0.01284557
000110 1c 87 d9 bc 16 d7 5c bc 4c c6 27 bc 45 95 95 3e
       -0.026553683 -0.013479015 -0.010240149 0.29215446
000120 c4 83 a0 3e fc 08 d2 bc 97 d5 d6 bc b9 08 9b 3e
       0.3135053 -0.02563905 -0.026224894 0.30280092
000130 1e 4d a5 3e d7 25 9b 3b f2 58 12 bb 9e 4f a2 3e
       0.32285398 0.0047347355 -0.0022330848 0.31701368
000140 b3 10 df 3c 1a c8 21 bc 3a 5d 9e 3e 15 8a e3 3c
       0.027229642 -0.009874368 0.309305 0.027775804
000150 c3 a8 fa 3b 32 e2 9e 3e 44 81 bd bc d5 75 ad 3c
       0.0076495125 0.31031948 -0.023132928 0.02117435
000160 93 53 f0 3b ff 38 17 3c b4 aa 9d bc 11 dc ad 3e
       0.0073341816 0.0092298975 -0.019246437 0.3395696
000170 0d 3f 98 3e 82 07 d7 3b b4 23 0e bc c0 93 d1 bc
       0.29735604 0.0065621743 -0.0086755045 -0.025583148
000180 dd 0b eb bc d1 22 b9 3c c2 b9 a2 3e 1b 81 9a 3c
       -0.02869218 0.02259961 0.31782347 0.01886039
000190 97 e9 de bc d4 93 85 3b ca d9 9f bc 44 36 9d 3e
       -0.027210994 0.0040764604 -0.01951303 0.30705464
0001a0 96 1f a5 3e 95 a7 28 bc e5 a8 49 bc 1e 51 ae 3e
       0.3225066 -0.010293861 -0.012308334 0.34046263
0001b0 e6 72 1a 3c fa f3 8c 3c c4 21 a6 3e 3f e1 e2 3c
       0.009426808 0.01720618 0.32447636 0.027695296
0001c0 de 1a b4 3c 5a 64 a9 3e 82 ea ab 3e bc 40 6f bc
       0.021985468 0.33084375 0.33577353 -0.014602836
0001d0 ba ef 94 3e 99 56 a9 3e e0 ce 7d bb 20 44 b3 bc
       0.29089147 0.3307388 -0.0038728043 -0.02188307
0001e0 75 7e f0 3c e5 30 a2 3e 2a 04 47 bc 72 a5 81 3b
       0.029357174 0.3167793 -0.012146989 0.00395649
0001f0 b4 72 99 3e ff 15 9b 3e ff 6d 8c 3a 79 14 1c bc
       0.29970324 0.3029022 0.0010713934 -0.009526365
000200 db cf 5d 3e 26 2e 55 3e 4d fa b4 3b 5d 7b 6d bc
       0.21661322 0.20818385 0.0055230022 -0.014494744
000210 eb 87 d8 3b b5 7e a1 3c 62 cd 4a 3e 93 ad 56 3e
       0.0066079996 0.019713739 0.1980491 0.20964651
000220 5f c6 96 bc d3 e0 15 bb 23 ee f1 3b 9f 05 73 3b
       -0.018405138 -0.0022869601 0.0073831244 0.0037082208
000230 90 19 9c bb 72 de d5 3c 8c c4 58 3e d9 6b 59 3e
       -0.0047637895 0.026107047 0.21168727 0.21232547
000240 d8 60 65 3e c7 9c 1c 3b 3d 95 72 3e df cb 93 bc
       0.22400224 0.0023897158 0.23689742 -0.01804155
000250 71 4d 17 3c 07 ce b1 b8 bb c2 d6 3c d8 45 d9 3c
       0.009234772 -8.478393e-05 0.026215902 0.026522562
000260 41 d3 bb 3c 6c 6a bc 3c ac 9a 28 bc db 57 2f 3b
       0.022927882 0.022999965 -0.010290783 0.0026755247
000270 de 38 da bc 8f 05 72 3e b3 b2 f3 3b 9f c8 52 3e
       -0.026638445 0.23634933 0.007437074 0.20584343
000280 dd ba b9 3b 0c a8 68 3e 60 16 5c 3e e8 98 f4 3b
       0.005668028 0.22720355 0.2149291 0.007464517
000290 ac b1 af bb ec 7c b1 ba ae f4 63 3e 48 f1 66 3e
       -0.0053617563 -0.0013541258 0.22261307 0.22552979
0002a0 dc 6e d2 3b bd 52 6b bc 4b f7 d5 bb 23 7f 81 3c
       0.006421907 -0.014362988 -0.0065297238 0.015807694
0002b0 d4 3b d1 3c 3e c2 75 3e 30 63 06 bc 00 57 42 3e
       0.025541224 0.23999879 -0.008202359 0.189785
0002c0 eb f1 84 3c 2b 17 3a 3e aa c0 29 3c 06 56 97 bb
       0.016228637 0.181729 0.010360876 -0.004618409
0002d0 05 ef 73 bc ea ba 3f 3e c4 fe 17 3c 90 02 57 3e
       -0.01488853 0.18723646 0.009277049 0.20997071
0002e0 12 bf 5e 3e 02 b0 67 3e fd 19 29 3c d6 36 0c bc
       0.21752575 0.22625735 0.0103211375 -0.008557996
0002f0 f7 9f dc 3c 3c 4d 4d 3e 15 aa b0 bc ba 35 eb bc
       0.026931746 0.20048994 -0.021565476 -0.028712142
000300 19 0b 93 3c 0d 11 6a 3e 75 84 74 3c be be 58 3c
       0.017949628 0.22858067 0.014924158 0.01322907
000310 a5 89 92 3c f8 e4 4a 3c d3 65 ee 3a 73 ed 70 3e
       0.0178879 0.012383692 0.0018188305 0.2352808
000320 ae bd 48 3e 40 40 8a 3c 46 3d 0a 3c bf cd 54 3e
       0.19603607 0.01687634 0.00843746 0.20781611
000330 cf d0 6b 3e 3d 9c b8 bb b6 ef d5 bc 74 24 4a 3e
       0.23028873 -0.0056338594 -0.02611528 0.19740468
000340 e8 95 68 bc e0 8a 84 3c c3 da 53 3e 18 dc d8 3c
       -0.014195897 0.016179502 0.2068892 0.026472136
000350 84 e5 b8 3c 02 97 40 3e f1 55 93 3c 84 31 a3 bc
       0.02257038 0.18807605 0.017985316 -0.019921072
000360 68 b0 ed bc c6 98 ba bc 32 a9 0c bc 53 aa 5e 3e
       -0.029014781 -0.022777926 -0.008585261 0.21744661
000370 33 47 63 3e fd 20 67 3c fa 0f 16 3c a2 4b 81 3b
       0.22195129 0.014106986 0.009159083 0.0039457837
000380 36 7b f9 3b b1 da 2f 3c f8 3c 71 3e fe 2f 58 3b
       0.007613565 0.010733292 0.23558414 0.003298759
000390 2f 2f be bb d8 2e 36 3c 6c c1 30 bc 73 14 4d 3e
       -0.0058039646 0.011119567 -0.010788303 0.20027332
0003a0 20 5a 56 3e c3 0b a3 3b e7 7f 12 3c ca d7 6d 3e
       0.20932817 0.0049757673 0.008941627 0.23226848
0003b0 b5 17 3a 3b 8c 1f ee bc 58 79 57 3e 27 8c de bc
       0.0028395478 -0.029067777 0.21042383 -0.02716644
0003c0 da cb d0 3c 81 40 6b 3e 81 13 63 3e 88 bf cb 3b
       0.025487829 0.22973825 0.22175409 0.0062179007
0003d0 2d 0b 68 3e 0f 81 56 3e ce 6e c5 bc 7e a1 c1 bb
       0.22660513 0.2094767 -0.024100687 -0.005909144
0003e0 be 1f dc 3b ba 9d 57 3e 1a 6e 07 3b 46 b2 d5 bb
       0.006717651 0.21056262 0.002066499 -0.006521496
0003f0 33 4a 6d 3e 0b 63 58 3e 0f d3 47 bc 6a 0e 8a 3c
       0.23172836 0.21131532 -0.012196316 0.016852576

layer3.bias f4 [7]
000000 2e 3d 9f 3e f0 88 9c 3d e4 39 db 3d df d7 e7 3d
       0.31101364 0.07643306 0.10704401 0.11320471
000010 5e 12 c0 3d 24 41 a2 3d 2c f9 96 3d
       0.09378503 0.07922581 0.073717445

layer1.weight f4 [128, 28]
000000 ce ce 5d 3d 11 03 cb bc 33 46 77 bd 6a 0e 7c bd
       0.054152302 -0.024781736 -0.06036968 -0.061537184
000010 92 86 6b bd 32 92 70 bd d4 a7 26 bd d5 29 e1 3e
       -0.057501383 -0.058733173 -0.040687397 0.43977228
000020 5c cd 86 3c 9c f4 52 3d 11 0e 45 bc 41 69 43 3d
       0.016455345 0.05150281 -0.0120272795 0.0477078
000030 83 be 64 bd f4 f3 fe 3b 97 78 8c 3c ab e4 e6 3c
       -0.05584575 0.0077805463 0.017147345 0.02818521
000040 5a ad ef 3c 7a ce 6b bc 29 26 11 3d 4d ae 19 3b
       0.029257465 -0.01439249 0.035436783 0.0023449839
000050 d7 2b 41 bc 79 e1 64 bd c3 e3 46 3d b9 45 05 3d
       -0.011790237 -0.05587909 0.048557054 0.032537196
000060 03 7d 12 3d 1a 50 64 3d 72 50 eb bc 55 49 00 3f
       0.03576375 0.055740453 -0.028724883 0.50111896
000070 14 d1 23 bd 2a da 31 bd b2 d1 6a 3d e1 f4 89 bc
       -0.039994314 -0.043420948 0.057328887 -0.0168404
000080 4d 91 7e bd 8a 61 6a bd c8 3e 82 bd 0f d2 10 bd
       -0.06215029 -0.057221927 -0.06359631 -0.035356577
000090 2f 32 0b bd 3c 95 61 bd 94 61 5f 3d 31 77 c3 3c
       -0.033983406 -0.05507396 0.054536417 0.023860546
0000a0 bb d4 c0 3c e7 15 34 3d 1f 0c 83 bd 71 42 66 3d
       0.023538938 0.0439662 -0.06398796 0.056215707
0000b0 ff 89 3f bd a6 8b 30 bd 02 58 53 bc 67 96 97 b8
       -0.046762463 -0.04310193 -0.012899401 -7.228256e-05
0000c0 db 75 bb bc aa f6 3a bc c5 14 23 3d fe 23 29 bc
       -0.022883346 -0.011411348 0.03981473 -0.010323523
0000d0 cb bd 3b bd ab d6 5a bd a4 ed 64 3d b8 dd 56 bd
       -0.045835298 -0.05342738 0.055890694 -0.05245754
0000e0 8a 9a ef 3c fc 59 40 bc 86 5a 5f bd 22 72 20 3d
       0.029248495 -0.011740204 -0.05452969 0.039171346
0000f0 4f 30 b0 3c c9 d1 15 bd 69 8c 81 3b de c0 4e bd
       0.02150741 -0.03657702 0.003953506 -0.0504769
000100 74 47 0b bc 8c 37 24 bd 85 54 22 3d 0a 45 f5 3c
       -0.0085009225 -0.040092036 0.039631385 0.029940147
000110 70 39 83 3d bf ef 00 bd 77 3b e2 3c f1 e6 03 bd
       0.0640744 -0.03147864 0.027616246 -0.032202665
000120 b5 e0 5e bb 36 33 09 3d ee 60 2c 3d 5b 1b 1c 3d
       -0.0034008448 0.033496104 0.042084627 0.038112026
000130 81 8f bc 3c 13 77 43 bc 44 78 24 bd bb 7b f6 3b
       0.023017647 -0.011930245 -0.040153757 0.007522074
000140 a9 8b a6 bc 92 26 ea bb 72 3f 6f ba 6c b5 83 3b
       -0.020330267 -0.007145711 -0.00091265806 0.00401943
000150 bf 6f 68 3d 70 62 d3 3c ff 80 5c bc d8 34 62 3d
       0.056747194 0.025803775 -0.013458489 0.055226177
000160 88 f9 5e bd c2 87 6e 3d 89 71 ac 3b ea f4 fd 3e
       -0.05443719 0.058234937 0.005262558 0.49600917
000170 92 30 5f 3d 23 0a f8 bb 15 29 5c 3b 54 96 e6 3a
       0.05448968 -0.0075695678 0.0033593823 0.0017592409
000180 ae 4e 32 3d 7f dc 2b bd c1 3d 16 3d 4c 2b 4b 3d
       0.043532066 -0.04195833 0.036679987 0.049601838
000190 ba 83 c0 3c 67 85 30 bc 6d 04 fb 3c 92 55 59 bd
       0.023500312 -0.010773993 0.030641759 -0.05306012
0001a0 df 36 18 bd 3b 7b 1f 3c 6e 9f 26 3d 5e 68 55 3d
       -0.037161704 0.00973397 0.040679388 0.052101485
0001b0 b4 4e 85 3c 81 4b 11 3c e3 32 8b bc 0e 2d 00 3f
       0.01627288 0.008868099 -0.016992038 0.5006875
0001c0 3f 42 1b 3d d5 04 98 3c 94 ae 55 bd 30 cd fa 3b
       0.037904974 0.018556992 -0.052168444 0.007653855
0001d0 74 bb 52 3c 56 6c 52 3c fb c4 3c bc 0f 42 d3 3e
       0.012862075 0.012843212 -0.011521573 0.41261336
0001e0 d1 2d 5f bd 88 ae a6 bc 87 4e 0a bd af 1d b8 bc
       -0.054487053 -0.020346895 -0.033766296 -0.022475092
0001f0 6b 2a 23 bd 19 da 9c 3c 21 b9 62 bd d9 3e c0 3c
       -0.039835375 0.019146966 -0.055352334 0.023467468
000200 df f0 e2 bb 1a 9c 71 3d 83 13 1a bd c4 9f 3e 3d
       -0.0069256867 0.05898676 -0.037616264 0.046539083
000210 d3 cf 33 3c ac 5d 65 bd 88 0f 29 3d 22 ca eb bb
       0.010974842 -0.055997536 0.041274577 -0.007195727
000220 cf f5 a5 3c f3 ad 77 3c ea 63 71 bd 6e b6 e1 3e
       0.020258812 0.015117156 -0.058933176 0.44084495
000230 82 80 01 bd 94 2f cd 3c 0f dc 3b bd 5b 7f 12 3c
       -0.031616695 0.025047101 -0.04586416 0.008941497
000240 98 85 0f bc db 29 15 bc 20 b3 03 bb f1 b0 25 bd
       -0.008759879 -0.009104217 -0.002009578 -0.040451948
000250 1c 2f 45 3d 3e 98 05 3c e7 44 ba bc bf de c9 bc
       0.04814063 0.008153973 -0.022737933 -0.024642346
000260 bb e5 99 bc c2 1a 70 bd 14 53 d1 3c 9b d7 70 3d
       -0.018786302 -0.05861927 0.02555231 0.058799367
000270 9d 43 9b 3c c5 99 2c 3d e4 20 5f bd 00 ca 4d bd
       0.018953139 0.042138834 -0.054474726 -0.05024147
000280 3f af 12 bd da 50 5a 3d 7a b7 6c 3d ad 9b 83 3d
       -0.03581166 0.053299762 0.057792164 0.06426177
000290 7a e2 7b bd 3b 55 72 3d 7a 75 77 bd c3 4d f2 3c
       -0.06149528 0.059163313 -0.06041477 0.029578095
0002a0 a3 c9 f2 3c c0 b1 cc 3c de 5f 9c 3c 84 93 5b 3d
       0.029637164 0.024987102 0.019088682 0.05360748
0002b0 7c c1 43 3d 8a 46 74 bd 87 ed 7a bc 08 92 ca 3e
       0.047791943 -0.059637584 -0.01531542 0.39564538
0002c0 42 ac 54 3c 2e 42 2c 3a 6a 06 85 3d da 77 68 ba
       0.012980523 0.0006571141 0.06495364 -0.0008867957
0002d0 8a 5d 51 bd 2d 89 13 bd a0 c5 5c bd 65 93 a7 bc
       -0.051114596 -0.036019493 -0.053899407 -0.020456025
0002e0 ba c4 0d bd aa 32 2f bd bf 84 5c bd 53 71 34 bb
       -0.03461144 -0.042772926 -0.053837534 -0.0027533367
0002f0 ff 43 b8 bb fa 1d a0 bc 40 00 e1 bc 2b 86 74 bc
       -0.00562334 -0.019545544 -0.02746594 -0.014924566
000300 b0 5f 64 bd f5 1d 1b bd 92 c2 29 3c 7a ea e4 3e
       -0.055755317 -0.037870366 0.010361331 0.4471014
000310 7a 66 af 3b b7 73 9c 3c 3c 91 5a 3d 51 77 15 bd
       0.0053527923 0.019098146 0.053361163 -0.036490742
000320 b8 ef d6 3c 24 a6 24 3d 52 56 6f 3d 82 73 45 3c
       0.026237354 0.040197507 0.05843193 0.012051465
000330 6a 51 31 ba 7a 0e e4 3c 32 99 fe bc b2 5c 81 bd
       -0.0006764146 0.027838934 -0.031078909 -0.06316508
000340 9a 3d 6b bd eb ff 3b 3d 1d 0e 12 bd 21 d6 18 3c
       -0.057431795 0.04589836 -0.03565799 0.009328396
000350 ba 15 d7 bc 1d 6b 83 3d 45 23 16 3b 72 60 65 3d
       -0.026255477 0.064169146 0.0022909206 0.05600018
000360 77 f5 df bc 3c fa a9 bb c8 1c 49 3c 8f 95 38 3d
       -0.027338726 -0.005187301 0.012274928 0.045064505
000370 0f 41 38 3d 78 c0 7f bd e7 a0 14 bd 4a eb 57 bc
       0.04498392 -0.062439412 -0.03628626 -0.013178656
000380 63 1c 75 bd 93 b9 93 3c ce 50 8c bc e3 c3 4a bc
       -0.059841525 0.018032825 -0.017128374 -0.012375805
000390 8a 3a f6 3c ba 24 32 bc e4 95 5d 3c 89 a3 01 3f
       0.03005721 -0.010873014 0.013524506 0.5064016
0003a0 0c 4c e9 bc 12 36 4d b9 ec 79 0c 3d b3 e1 76 3d
       -0.028478645 -0.00019570466 0.03429596 0.060273837
0003b0 6e 5a ae 3b b3 46 33 3d 9b cc b1 bc 76 7b 7a bd
       0.0053208387 0.043768596 -0.021704009 -0.061152898
0003c0 7d bd 61 3c e3 fa f3 bc 42 f9 de 3b 0c 8f 47 3d
       0.013778088 -0.029782718 0.006804616 0.048720405
0003d0 7b 5d 48 3d 03 80 a1 3c d7 c6 88 bc 27 2d 36 bd
       0.048917275 0.019714361 -0.016696377 -0.044476654
0003e0 6d 64 22 3d 12 8e 24 3d 8a ef 28 bd 6d fb ed 3e
       0.039646555 0.04017455 -0.041244067 0.46480885
0003f0 7f 9b 07 3d 3a 99 ed bc 32 3b 2a 3d 03 a4 13 bc
       0.033107277 -0.029003728 0.04156036 -0.009011271

layer1.bias f4 [128]
000000 81 10 f3 3e 54 3f d0 bb 7c d9 1e 3d 78 ae d9 3e
       0.4747353 -0.0063552056 0.038781628 0.42515922
000010 78 d1 f6 3e a0 dd 1d bd e0 88 fe 3e b3 22 e2 bc
       0.48206687 -0.038541436 0.49713802 -0.027604437
000020 25 04 e5 3e 68 be 89 bc 08 ce 07 bc 39 3e bc bc
       0.44729725 -0.016814426 -0.008288868 -0.022978889
000030 34 99 bf 3e 67 e3 bd 3e d2 58 32 bd 24 51 04 bd
       0.37421572 0.37087557 -0.043541737 -0.032303944
000040 0b 45 15 bd e7 a3 9b 3c d2 c4 0a bb 13 73 8c bc
       -0.036442798 0.018999053 -0.0021174443 -0.017144715
000050 4a 36 49 bd 8d 66 62 bd 5a 1c e3 3e 4a 0e e1 3e
       -0.04912404 -0.05527358 0.44357568 0.43956214
000060 59 cd ca 3e 1b 15 45 3c 00 8e dd 3e 85 59 fb 3e
       0.39609793 0.012028958 0.432724 0.49091735
000070 08 bf d1 bc 12 ca fc 3e 04 e4 00 3f e2 7d f5 3e
       -0.025603786 0.49372917 0.50347924 0.47947603
000080 e6 d5 39 bd 8a 23 ea bc 74 3a de 3e f7 ea 27 3c
       -0.045370005 -0.0285814 0.4340397 0.010248891
000090 8a 6e f4 3e e1 6f fd 3e 9c e6 d6 bc 75 22 f1 3e
       0.47740585 0.4949942 -0.02623301 0.470966
0000a0 9f 0e 02 bd 2c 9f f8 3e 7a 3f ec 3e 8e 03 25 3d
       -0.031752225 0.48558939 0.4614218 0.040286593
0000b0 13 a9 00 3f 89 48 61 bd 0f 1e 5e 3d c2 30 f8 3e
       0.50257987 -0.055000816 0.054227885 0.484747
0000c0 cc c9 f4 3e 72 47 77 bd 36 ed 54 bd af fe ed 3e
       0.4781021 -0.06037087 -0.051984034 0.4648337
0000d0 df 36 b6 3c f1 ee 03 bd 18 9b fc 3c dd 39 f9 3e
       0.022242961 -0.032210294 0.030835673 0.4867696
0000e0 48 59 5e bb b0 0b d0 bc 68 09 c5 3c 08 88 d0 3c
       -0.0033927727 -0.025396198 0.024052337 0.02545549
0000f0 a1 00 d9 3e 42 ec fa 3e f1 5a f8 3e 3f d5 3f bd
       0.42383292 0.49008375 0.48506883 -0.046834227
000100 23 69 aa 3b b7 01 b3 bc e9 8a 00 3f fc 09 01 3f
       0.0052005216 -0.021851404 0.5021196 0.5040586
000110 c5 35 15 bc 6b 66 32 3d 11 f4 dc 3e 9c 50 02 3f
       -0.009107058 0.043554705 0.43154958 0.5090425
000120 16 ef f6 3e 14 30 cd 3c 63 5e 49 bd 75 2c fc 3e
       0.48229283 0.02504734 -0.04916228 0.49252668
000130 82 c6 f9 3e a8 18 21 3d 68 79 fa 3e 41 20 5d bd
       0.48784262 0.039330155 0.4892075 -0.053985838
000140 3f f6 f9 3c 06 70 5c 3d 83 54 77 bd 3d 82 01 3f
       0.030512927 0.05381777 -0.06038333 0.5058935
000150 b5 1b 02 bd 17 20 1a 3d 46 69 ef 3e 5c b4 cb 3e
       -0.031764705 0.03762826 0.46760005 0.3978604
000160 64 64 fc bb e2 c5 c5 3e 58 90 00 3f 56 ec 80 bd
       -0.007702397 0.38627535 0.5022025 -0.062950775
000170 4d 2b fe 3e a8 25 cc 3e af 97 e9 3e 9a 61 de 3c
       0.4964241 0.3987248 0.45623538 0.02714615
000180 ab ea 70 bd f4 a7 fe 3e 81 ec 10 3d 6f a0 d9 3e
       -0.058817547 0.49737513 0.035381798 0.42505214
000190 47 76 01 3d 09 17 ff 3e f1 d6 1a bd 40 dc 56 bd
       0.03160694 0.49822262 -0.03780264 -0.05245614
0001a0 3a 25 f8 3e 0b 32 e1 3e 5c 8f ee 3e cf b2 db 3e
       0.48465902 0.43983492 0.4659375 0.42909858
0001b0 cd 35 d6 3e 30 11 d4 3e 58 b9 7c bc f1 79 ff 3e
       0.41837922 0.41419363 -0.015425049 0.4989772
0001c0 a3 6a cf 3e f4 40 cb 3e fc 64 55 bd 60 3f 0a 3b
       0.40511045 0.39697993 -0.05209826 0.0021094903
0001d0 81 41 f4 3e 26 67 54 bb cc 64 59 bd 9d 3f 15 3d
       0.47706226 -0.0032410114 -0.053074643 0.03643762
0001e0 f7 ff ea 3e 5c ed f2 3e 05 d0 cf 3e 9a ad d8 3e
       0.4589841 0.47446716 0.40588394 0.42319947
0001f0 60 c5 e6 3e 78 de e2 3e 74 5b f5 3e eb 0e f3 3e
       0.4507246 0.44310355 0.47921336 0.4747232

layer2.weight f4 [128, 128]
000000 a2 7c d8 3e 2d 53 12 3c a4 02 69 bb f0 b5 c5 3e
       0.42282587 0.008930963 -0.0035554552 0.3861537
000010 8b c9 c3 3e 02 0f 77 3c 71 08 d2 3e ba c0 ee bc
       0.38239703 0.015079262 0.41022065 -0.029144634
000020 dd 71 d0 3e 95 af 9b bc fe a0 05 3c c0 bb c7 bc
       0.4071187 -0.019004622 0.008156059 -0.024381518
000030 5a 1a cc 3e 75 b9 c4 3e ca 3f 5e 3c 7c f8 ca 3c
       0.39863855 0.38422742 0.013565013 0.02477669
000040 d6 8c a6 bb 49 86 5d 3c 9a b2 e9 bc 6f 12 66 bc
       -0.005082707 0.013520786 -0.028527547 -0.014042481
000050 22 cf 25 bc a3 08 f2 3c e2 4d d9 3e e3 f0 c9 3e
       -0.010120185 0.029545134 0.42442232 0.39441594
000060 59 0f d5 3e 43 27 f1 3c aa c7 d1 3e 17 a6 c2 3e
       0.41613272 0.029437667 0.40972644 0.38017341
000070 98 26 55 3c 8e 09 d7 3e 0a 9f c0 3e f2 fe cb 3e
       0.01300969 0.41999477 0.37621337 0.39842945
000080 a7 63 b2 bc c6 09 85 3c 8a a7 d0 3e 39 e7 97 bc
       -0.021776034 0.016240012 0.40752822 -0.018542873
000090 ee a3 d0 3e b2 90 da 3e e7 79 e8 39 bf a6 d3 3e
       0.40750068 0.4268852 0.00044341313 0.41338155
0000a0 e2 2d ed 3c a1 a6 cb 3e 21 3a d0 3e 16 ba cd bc
       0.028952543 0.39775565 0.4066935 -0.025113147
0000b0 0d 6a d0 3e 93 53 70 3c d2 35 77 3c f9 ce da 3e
       0.4070591 0.014668363 0.015088515 0.42736033
0000c0 a0 4c c3 3e 54 fb 85 3b 18 24 e5 bb 45 1c d9 3e
       0.38144398 0.0040887985 -0.006992828 0.4240438
0000d0 1e 4b 88 3c ff 50 87 3c 2c 57 a1 bc 22 4f da 3e
       0.016637381 0.016518114 -0.019694887 0.426385
0000e0 e0 c7 22 bc 72 f8 ed 3c 36 87 2f bc 22 51 ef bb
       -0.009935349 0.029049132 -0.010713389 -0.007303373
0000f0 7b 7c d0 3e bf e7 d6 3e 28 6a d3 3e ba 97 cb 3b
       0.4071997 0.41973683 0.41291928 0.0062131556
000100 4c 7b e1 bc d1 e8 a6 bc 7b 32 d6 3e 97 e8 da 3e
       -0.027524613 -0.020374687 0.4183539 0.42755577
000110 96 c6 b8 3c f1 05 83 bc 75 4a ca 3e 89 4e c9 3e
       0.02255563 -0.015994044 0.3950993 0.3931773
000120 90 61 c4 3e 51 4a 10 3b 56 61 4e bc a7 de c9 3e
       0.38355684 0.0022016952 -0.012596449 0.39427683
000130 87 81 d7 3e af 5e 3e 3b a4 9c d0 3e b1 eb 3c bb
       0.4209101 0.0029048135 0.40744507 -0.0028827006
000140 33 fb ab 3c 63 7a 99 38 6d 09 17 bc 56 81 c4 3e
       0.020993805 7.318405e-05 -0.009218556 0.38379925
000150 6a 8c 2a bb 02 38 6d bc 5a fc d1 3e 22 61 c7 3e
       -0.0026023635 -0.014478685 0.4101284 0.38941294
000160 2b d5 dd 3c 11 bd db 3e 94 b2 d9 3e f6 65 8e bc
       0.027079185 0.42917684 0.42519057 -0.017382603
000170 cd e3 c6 3e a7 da c9 3e 94 17 c7 3e ac 3b e4 bc
       0.38845673 0.3942463 0.38885176 -0.027860485
000180 d3 7a 40 3a bb c8 ce 3e 4e 93 4c 3c 58 42 de 3e
       0.0007342521 0.4038752 0.012486292 0.4340999
000190 17 ea a5 bc c9 53 c2 3e 30 a6 50 bc 3b a3 00 bc
       -0.020253224 0.37954548 -0.012734935 -0.007851417
0001a0 d2 45 c3 3e 65 10 ca 3e dd 0a c6 3e 82 f7 d5 3e
       0.38139206 0.39465633 0.38680163 0.41790396
0001b0 3f 34 c0 3e 0f 48 c7 3e 72 7d 8a 3c 3f 7f d4 3e
       0.3753986 0.38922164 0.01690552 0.4150333
0001c0 10 37 d0 3e 24 67 d0 3e aa f9 d0 bc b3 04 c1 3b
       0.4066701 0.4070369 -0.025509674 0.005890453
0001d0 ee 07 c9 3e c9 6b 8d bb fb 6c f0 3c 0b 54 82 3b
       0.39263862 -0.0043158275 0.029348841 0.003977304
0001e0 37 b6 c5 3e f1 44 de 3e ac 91 cb 3e 72 83 d8 3e
       0.3861558 0.43411973 0.39759576 0.42287785
0001f0 8d 5e d6 3e a0 85 c9 3e ad 77 ca 3e 05 a9 c8 3e
       0.41869012 0.3935976 0.3954443 0.39191452
000200 f9 b3 df 3e b0 c1 d1 bc a3 0b 91 3c ee 8f e7 3e
       0.43691996 -0.025605053 0.017705744 0.45226997
000210 c5 d9 da 3e c8 29 07 bc 08 71 d9 3e f8 84 d7 3c
       0.4274427 -0.0082497075 0.42469049 0.026308522
000220 5b 9d d9 3e 96 e0 a4 b9 f6 d6 d7 bc ce 8a c2 3c
       0.42502865 -0.00031447847 -0.026347619 0.023747828
000230 15 6e dc 3e e6 a0 d8 3e f3 bf 16 bc a8 ea 9e 3b
       0.43052736 0.42310256 -0.009201038 0.0048497505
000240 3a 97 73 3c 68 4f c3 bc 14 fa d9 bc 16 c7 ae bc
       0.014867598 -0.023841575 -0.026608504 -0.021335166
000250 3e 8c 58 bc 24 27 9e bc 3e b1 d9 3e 66 14 ce 3e
       -0.01321703 -0.019305773 0.42518038 0.40249938
000260 32 53 d3 3e e5 71 25 3c 17 c4 d9 3e 3a 0a e5 3e
       0.4127441 0.010097955 0.42532417 0.44734365
000270 06 02 26 3b 94 df e3 3e bb 73 de 3e 8a 84 cc 3e
       0.0025330796 0.44506514 0.4344767 0.3994487
000280 67 5e 34 bc 00 ea 84 bc cc fb d6 3e f1 87 99 bb
       -0.011008835 -0.016224861 0.4198898 -0.004685395
000290 7c 2e e0 3e 75 98 d5 3e 12 6c f1 3c 4a 76 d9 3e
       0.43785465 0.41717878 0.029470477 0.4247306
0002a0 81 c6 a5 3c ce c5 e5 3e ef 69 d2 3e 85 a5 97 bc
       0.020236256 0.44877476 0.41096446 -0.018511543
0002b0 12 22 df 3e 77 ca de bc 0c 16 5b 39 39 02 cd 3e
       0.4358068 -0.027196152 0.0002089368 0.40040758
0002c0 f2 32 dd 3e 7b ca 73 bb 59 31 00 3b ca c5 dc 3e
       0.4320293 -0.0037199545 0.0019560663 0.4311965
0002d0 68 1f 5e bc 05 5f bc 3c ce ae 84 bb b5 9a d4 3e
       -0.0135572925 0.022994528 -0.0040491587 0.41524282
0002e0 fa 69 da bc 9a b8 6b bc 8e 24 e7 3c 27 21 68 3c
       -0.026661862 -0.014387274 0.028215673 0.01416806
0002f0 42 65 cc 3e 5e a5 d4 3e c8 c5 e4 3e f3 c7 7f bc
       0.39921004 0.41532415 0.44682145 -0.015611636
000300 fb 56 34 3c ad 43 a7 bc b1 83 d6 3e 67 de d5 3e
       0.011007066 -0.020418013 0.41897348 0.41771242
000310 dd 7f 9c bc 72 dd ae bc 2a 8f e7 3e 75 b2 d1 3e
       -0.019103939 -0.021345828 0.45226413 0.40956464
000320 db 42 dc 3e 3a 12 be bc db 5b 10 3c 3f be e7 3e
       0.43019757 -0.02320205 0.008810963 0.45262334
000330 1a 02 d8 3e 2e 44 8b bc 5f 50 d8 3e 94 8d da 3b
       0.42189103 -0.017000284 0.42248818 0.0066697095
000340 e9 f5 20 bc 4a 89 dd 3c a5 36 96 ba c9 76 da 3e
       -0.009824255 0.027043004 -0.0011460377 0.4266875
000350 f7 f4 99 3c c5 06 a7 3c a9 3b d1 3e 2c b0 ea 3e
       0.018793566 0.02038897 0.4086583 0.45837533
000360 ea 9c b3 ba 84 9c e5 3e 4e c8 e9 3e 60 6f c7 bc
       -0.001370338 0.44845974 0.45660633 -0.0243451
000370 06 86 d5 3e a5 4e df 3e 55 20 e8 3e ee 12 a4 3c
       0.41703814 0.4361469 0.45337167 0.020028558
000380 78 45 a1 3b 16 e3 e3 3e ff a6 99 3c ee 8b d3 3e
       0.0049216114 0.4450919 0.018756388 0.41317695
000390 7b 0c b7 bc 50 6a e9 3e e6 90 a2 3c 91 90 89 bc
       -0.022344818 0.45588923 0.019844484 -0.016792567
0003a0 f3 0c d1 3e fd b4 da 3e 6d 26 de 3e 5b ed e7 3e
       0.40830192 0.42716208 0.43388692 0.45298275
0003b0 8b d4 dd 3e a6 8d e5 3e 77 a9 b3 3c 90 4a ca 3e
       0.4332622 0.44834632 0.021931393 0.39510012
0003c0 94 4a e8 3e 1e 23 d7 3e 52 8f 5a bc 67 35 8d bc
       0.453694 0.4201898 -0.013339834 -0.017237378
0003d0 e9 05 ce 3e e2 7d cc bc ca 0b ec 3c bd 5e 45 3c
       0.40238884 -0.02496237 0.028814215 0.012046513
0003e0 10 90 e1 3e cc 07 de 3e 70 dd ea 3e c9 82 dc 3e
       0.44055223 0.43365324 0.45872068 0.4306853
0003f0 e5 87 dc 3e c2 5b dc 3e 74 4c e0 3e 62 15 d3 3e
       0.4307243 0.43038756 0.4380833 0.4122725

layer2.bias f4 [128]
000000 2c 65 cf 3e 58 47 cc 3e b9 ee c5 bb 93 06 a0 bc
       0.40506876 0.3989818 -0.006040421 -0.019534385
000010 a5 06 3f 3c 4d e6 9e bc 47 bf c8 3e c0 1a dc 3e
       0.011659299 -0.019396925 0.39208433 0.4298916
000020 f1 78 14 3c 37 7c 91 3c 1b 72 99 bc 8c d3 d5 3c
       0.009062038 0.017759426 -0.018731168 0.02610185
000030 a7 dc b2 3c 3d 8b 22 3b f9 28 b1 3e d4 9a cf 3e
       0.02183373 0.002480223 0.34601572 0.40547812
000040 9e d4 eb 3e 33 b7 b1 bb dd d0 df 3e 37 1e b2 bc
       0.46060652 -0.0054234504 0.43714038 -0.021742923
000050 f3 2d b8 bc 63 b7 84 3c 5b fa 74 bb 6e f6 e4 3c
       -0.022482848 0.016200727 -0.0037380669 0.027949538
000060 07 83 a2 3a 2c ad 3c bb 30 eb 27 3c e7 cd 4a bc
       0.0012398668 -0.0028789742 0.010248944 -0.0123781925
000070 90 fc 88 3c 6b 42 df 3e 13 2b b6 3c 72 92 d8 3e
       0.016721994 0.4360536 0.022237336 0.4229923
000080 18 56 8f bc 63 a6 d1 3e f9 c2 de 3e 5f 08 b0 bc
       -0.017497107 0.40947255 0.43508127 -0.021488367
000090 fa ca ed 3c 7b a7 f6 bc be 94 c4 3e f8 4e cd 3e
       0.02902745 -0.030109158 0.3839473 0.4009931
0000a0 2b 45 fb bc 3c fa 50 3c 90 20 52 bc 5f 7c b1 bc
       -0.03067263 0.012754973 -0.012825146 -0.02166575
0000b0 f8 34 0f bc f0 46 d4 3e c6 b8 4f bc 7d 8e d1 3e
       -0.008740656 0.4146037 -0.012678331 0.40929022
0000c0 56 93 2e 3c c1 3e cb 3e d8 b9 dd 3c 9f c2 b0 bc
       0.010655245 0.39696315 0.027066156 -0.021577178
0000d0 eb 03 dc ba ef df d2 3e a6 15 8f bc aa a5 d0 3e
       -0.0016785836 0.41186473 -0.017466377 0.40751392
0000e0 b6 88 da 3e bc ef ba 3e f9 f8 1d bc 11 3c 9e 3c
       0.42682427 0.36511028 -0.009641879 0.019315751
0000f0 dd c6 96 3c 56 81 cd 3e dc 70 d6 bc 96 34 bc 3c
       0.018405372 0.40137738 -0.026176862 0.022974294
000100 cb dd 11 3c 40 7a dd 3e 63 09 3b bc c5 8a fe ba
       0.008902977 0.43257332 -0.011415812 -0.0019420019
000110 67 3e 8d bc da 5c f8 bb 12 56 6d bc 13 de e8 3e
       -0.01724167 -0.007579428 -0.014485853 0.4548193
000120 76 6e da 3e ff 5d c6 bc 67 c0 40 3c af 05 db 3e
       0.426624 -0.024214743 0.011764622 0.42777774
000130 89 20 cb 3e 25 01 a5 bc 85 1f ad bb b6 70 cc 3e
       0.3967326 -0.020142147 -0.0052832984 0.39929742
000140 51 75 17 bc b9 ef 1b bb 3a 1b c5 3e 73 0e 32 bc
       -0.009244279 -0.002379401 0.38497335 -0.010867703
000150 7b 69 3a bc b2 c2 d7 3e d2 c9 6d bc 13 e9 68 3c
       -0.011377688 0.42140728 -0.01451345 0.0142157255
000160 5f 23 3b bc 5f fd 92 bc 86 b6 18 bc 7a a0 d3 3e
       -0.011422007 -0.017943082 -0.009320861 0.4133337
000170 3f 4b da 3e 5a 49 af bc 34 56 a2 3c 5e 32 2e 3c
       0.42635533 -0.021397281 0.019816495 0.010632126
000180 43 7c b8 bb 7a 4b ea 3c dd ef d0 3e e3 3c f0 bc
       -0.0056300475 0.028600443 0.40808 -0.029325908
000190 84 16 56 3c 6c 72 e8 3c 02 41 6c bc 8f 7a db 3e
       0.013066892 0.028374873 -0.014419796 0.42866942
0001a0 b5 8b e2 3e 8a a4 e8 3a 72 cb d0 bc f9 24 d0 3e
       0.44247213 0.0017749232 -0.025487635 0.40653208
0001b0 dd ac ca bb 56 4e 52 bb c0 a1 ca 3e a2 6c 6a 3c
       -0.0061851577 -0.003209015 0.3957653 0.014308127
0001c0 eb 04 8e bc c8 e3 e0 3e 4e 2c d3 3e 99 ec df bc
       -0.01733633 0.43923783 0.4124474 -0.027334498
0001d0 36 34 ce 3e 54 34 c0 3e ae bc 4b bc b0 89 02 3c
       0.4027421 0.37539923 -0.012435121 0.007967398
0001e0 38 f0 d7 3a 93 3c cc 3e d6 2b d5 bc c6 d3 af 3c
       0.0016474789 0.39889964 -0.02602188 0.021463286
0001f0 0a 44 d1 3e de 58 db 3e 17 92 c0 3b 33 89 32 bb
       0.40872222 0.42841238 0.0058767903 -0.0027242422
