Backup/Video_Streaming_DQN_1h40/models_50000.pth (torch, 172999 bytes, 12 tensors)

layer1.weight f4 [128, 28]
0	0x3e190ec3	0.14947037
1	0xbd8c1bdf	-0.068412535
2	0xbe2a9777	-0.16659342
3	0xbe2dc8fa	-0.16971198
4	0xbe2283b9	-0.1587056
5	0xbe25fbb4	-0.16209298
6	0xbde596ba	-0.112103894
7	0x3f54ff15	0.83201724
8	0x3d39a36f	0.045321878
9	0x3e117875	0.14206107
10	0xbd07fc19	-0.033199403
11	0x3e06d8c4	0.13168627
12	0xbe1dae8f	-0.1539862
13	0x3cafd46c	0.021463595
14	0x3d419c43	0.047268163
15	0x3d9f36dd	0.07774136
16	0x3da55e5f	0.080746405
17	0xbd22b527	-0.03972354
18	0x3dc810c7	0.09768825
19	0x3bd3c301	0.0064624553
20	0xbd054bc9	-0.032542977
21	0xbe1dc5e0	-0.15407515
22	0x3e094145	0.13403805
23	0x3db79941	0.08964778
24	0x3dc9ce77	0.09853833
25	0x3e1d64f4	0.15370542
26	0xbda25e82	-0.07928182
27	0x3f7f31b4	0.99685216
28	0xbde1b7b6	-0.11021368
29	0xbdf50d98	-0.119654834
30	0x3e22075c	0.1582312
31	0xbd3dfa75	-0.046381433
32	0xbe2f8ec9	-0.17144312
33	0xbe21ba43	-0.1579371
34	0xbe339000	-0.175354
35	0xbdc7a376	-0.097479746
36	0xbdbfc4c8	-0.09363705
37	0xbe1b930b	-0.15192811
38	0x3e1a1b48	0.1504947
39	0x3d86e26b	0.065861546
40	0x3d850f7b	0.06497093
41	0x3df807ec	0.12110886
42	0xbe34a1ca	-0.17639843
43	0x3e1ebfe4	0.15502888
44	0xbe042a84	-0.12906843
45	0xbdf34f92	-0.11880411
46	0xbd11bf76	-0.035582982
47	0xb950d4b8	-0.0001991567
48	0xbd814c32	-0.06313361
49	0xbd00eccd	-0.03147583
50	0x3de0b6ec	0.109723896
51	0xbce8fa39	-0.028439628
52	0xbe018226	-0.12647304
53	0xbe171401	-0.14753725
54	0x3e1dcdfb	0.15410607
55	0xbe144389	-0.14478888
56	0x3da55170	0.080721736
57	0xbd04ba81	-0.032404426
58	0xbe1a1693	-0.15047674
59	0x3ddd1ef5	0.1079692
60	0x3d72d5cb	0.05928592
61	0xbdce5b14	-0.100759655
62	0x3c32a22c	0.010902923
63	0xbe0e872b	-0.1391875
64	0xbcbfe381	-0.023423912
65	0xbde2436f	-0.11048018
66	0x3ddfb0c2	0.10922386
67	0x3da936a8	0.08262378
68	0x3e34de35	0.1766289
69	0xbdb1d14a	-0.08682497
70	0x3d9c01df	0.076175444
71	0xbdb5c58c	-0.0887557
72	0xbc19c55d	-0.009385434
73	0x3dbce2b7	0.0922293
74	0x3deda889	0.11604411
75	0x3dd7287c	0.10505769
76	0x3d821aa3	0.06352737
77	0xbd06e255	-0.03293069
78	0xbde29bb0	-0.11064851
79	0x3caa0c43	0.0207578
80	0xbd657052	-0.05601532
81	0xbca191b7	-0.019722803
82	0xbb2512d0	-0.0025188215
83	0x3c358385	0.01107872
84	0x3e205894	0.1565879
85	0x3d91c6e8	0.071180165
86	0xbd183039	-0.037155364
87	0x3e1bfd73	0.15233402
88	0xbe19d5e9	-0.15023006
89	0x3e24948a	0.16072288
90	0x3c6dc0b1	0.014511273
91	0x3f7be385	0.9839404
92	0x3e19fa9b	0.15037005
93	0xbcab1e2c	-0.02088841
94	0x3c17f59d	0.009274867
95	0x3b9efd67	0.0048519853
96	0x3df5a8f3	0.11995115
97	0xbdece7e8	-0.1156767
98	0x3dcef23c	0.10104796
99	0x3e0c37b7	0.13693129
100	0x3d84d767	0.06486397
101	0xbcf34740	-0.02969706
102	0x3dad0fe3	0.08450296
103	0xbe1606dc	-0.14651054
104	0xbdd1b55e	-0.10239671
105	0x3cdbce4b	0.026831767
106	0x3de58b48	0.112082064
107	0x3e1338db	0.14377157
108	0x3d37a53b	0.04483531
109	0x3cc84155	0.024445215
110	0xbd3fc5cd	-0.046819497
111	0x3f7eee74	0.995826
112	0x3dd5f882	0.1044779
113	0x3d516f51	0.05113155
114	0xbe136b02	-0.14396289
115	0x3cacec25	0.021108696
116	0x3d114fa2	0.035476334
117	0x3d11171e	0.035422437
118	0xbd023fa9	-0.031798992
119	0x3f4083a1	0.7520085
120	0xbe19f8c5	-0.15036304
121	0xbd659fde	-0.056060664
122	0xbdbe7bf3	-0.09300985
123	0xbd7db694	-0.0619417
124	0xbde0d470	-0.10978019
125	0x3d58337f	0.052783486
126	0xbe1c55a4	-0.15267044
127	0x3d84a7b7	0.064773016
128	0xbc9c7acd	-0.019101525
129	0x3e26b282	0.16279033
130	0xbdd450ae	-0.10366951
131	0x3e03885c	0.12844986
132	0x3cf7aa7c	0.03023266
133	0xbe1e18aa	-0.15439096
134	0x3de8de53	0.1137053
135	0xbca2b227	-0.01986034
136	0x3d64a3f9	0.05582044
137	0x3d2adecb	0.04171638
138	0xbe268be2	-0.16264299
139	0x3f559eb1	0.8344527
140	0xbdb2924d	-0.08719311
141	0x3d8d8533	0.06910171
142	0xbe0198da	-0.12655964
143	0x3cc9d185	0.02463604
144	0xbcc5f33a	-0.024163831
145	0xbccd6ffe	-0.025077816
146	0xbbb58076	-0.0055389954
147	0xbde4460f	-0.11146175
148	0x3e0812fa	0.13288489
149	0x3cb80748	0.02246441
150	0xbd80677b	-0.06269737
151	0xbd8b517e	-0.06802653
152	0xbd541092	-0.051773615
153	0xbe25a995	-0.16177972
154	0x3d904e38	0.07046169
155	0x3e262b6c	0.16227502
156	0x3d55fa69	0.052240763
157	0x3dedfb37	0.11620181
158	0xbe19f028	-0.15033019
159	0xbe0de877	-0.1385821
160	0xbdca0fcc	-0.09866294
161	0x3e16ba41	0.14719488
162	0x3e235558	0.15950525
163	0x3e356132	0.17712858
164	0xbe2da9f8	-0.16959369
165	0x3e2731cc	0.1632759
166	0xbe2ab7f5	-0.16671737
167	0x3da72ca8	0.081628144
168	0x3da781d2	0.08179058
169	0x3d8d344f	0.06894743
170	0x3d57885d	0.05262028
171	0x3e1791e7	0.14801751
172	0x3e0715da	0.1319193
173	0xbe2887b0	-0.1645801
174	0xbd2d0112	-0.04223735
175	0x3f34f2bc	0.70682883
176	0x3d12b27e	0.035814755
177	0x3aed7bcf	0.0018118563
178	0x3e3744d8	0.17897356
179	0xbb205e87	-0.0024470405
180	0xbe1055b2	-0.1409519
181	0xbdcb2b18	-0.09920329
182	0xbe185df9	-0.14879598
183	0xbd66d7f4	-0.056358293
184	0xbdc37c03	-0.09545138
185	0xbdf1839b	-0.1179268
186	0xbe1832ba	-0.148631
187	0xbbf88267	-0.0075839045
188	0xbc7decd9	-0.015498363
189	0xbd5cac33	-0.05387516
190	0xbd9b2fba	-0.075774625
191	0xbd28b370	-0.04118675
192	0xbe1d6f5a	-0.15374509
193	0xbdd5c5bc	-0.104381055
194	0x3ce9d978	0.02854608
195	0x3f598761	0.84972197
196	0x3c71c8b1	0.014757321
197	0x3d57a430	0.052646816
198	0x3e16e5b8	0.14736068
199	0xbdcddc6f	-0.1005181
200	0x3d945064	0.07241896
201	0x3de2da3f	0.110767834
202	0x3e25228b	0.16126458
203	0x3d084254	0.03326638
204	0xbaf45743	-0.0018641729
205	0x3d9d3935	0.07676927
206	0xbdaf945b	-0.085732184
207	0xbe32628d	-0.17420407
208	0xbe22518c	-0.1585142
209	0x3e01b3be	0.12666222
210	0xbdc93e51	-0.09826339
211	0x3cd2945f	0.025705514
212	0xbd946b8a	-0.07247074
213	0x3e352072	0.17688158
214	0x3bcecd26	0.0063110767
215	0x3e1e1a86	0.15439805
216	0xbd9a7dde	-0.075435385
217	0xbc6a2a70	-0.014292344
218	0x3d0acb36	0.033885203
219	0x3dfe6067	0.12420731
220	0x3dfde8b2	0.12397899
221	0xbe3064ca	-0.17225948
222	0xbdccb037	-0.09994548
223	0xbd150416	-0.03638085
224	0xbe291ab8	-0.16514099
225	0x3d4b6c5e	0.049663894
226	0xbd4162cb	-0.047213357
227	0xbd0bf022	-0.034164555
228	0x3da9df70	0.082945704
229	0xbcf57103	-0.029961115
230	0x3d18e8d3	0.037331413
231	0x3f812d68	1.0091982
232	0xbda0fa20	-0.078602076
233	0xba0d895e	-0.00053991925
234	0x3dc19e2f	0.09453999
235	0x3e2a525e	0.16632983
236	0x3c706348	0.014672108
237	0x3df6f3a5	0.1205819
238	0xbd74fb87	-0.059810188
239	0xbe2cb743	-0.16866784
240	0x3d1bade3	0.03800763
241	0xbda853ae	-0.08219086
242	0x3c99d5ba	0.01877867
243	0x3e09b7da	0.1344904
244	0x3e0a46c5	0.13503559
245	0x3d5e8efa	0.05433557
246	0xbd3c462d	-0.045965362
247	0xbdfaf727	-0.12254172
248	0x3ddfc674	0.10926524
249	0x3de2b96b	0.11070522
250	0xbde8b2b4	-0.1136221
251	0x3f64fbfc	0.89447
252	0x3dbab649	0.091167994
253	0xbda3f089	-0.08004863
254	0x3dea88ee	0.114518985
255	0xbccb4e2e	-0.024817552

layer1.bias f4 [128]
0	0x3f6d56c3	0.9271051
1	0xbc8f8942	-0.017521504
2	0x3ddaf1b9	0.10690636
3	0x3f4a8fb0	0.791255
4	0x3f72d6a7	0.94858783
5	0xbdd99ed3	-0.106259964
6	0x3f7ca9d9	0.98696667
7	0xbd9bf15b	-0.07614394
8	0x3f59a280	0.8501358
9	0xbd3dabc5	-0.04630639
10	0xbcbaf9aa	-0.022824127
11	0xbd81e239	-0.06341977
12	0x3f25f8a7	0.6483254
13	0x3f23dceb	0.6400897
14	0xbdf5b678	-0.11997694
15	0xbdb65325	-0.08902577
16	0xbdcd9604	-0.10038379
17	0x3d56813c	0.05236934
18	0xbbbf26d1	-0.0058334847
19	0xbd41944c	-0.047260568
20	0xbe0adcde	-0.13560817
21	0xbe1c1e97	-0.15246044
22	0x3f575765	0.8411773
23	0x3f54d680	0.831398
24	0x3f35505f	0.7082576
25	0x3d0800f9	0.033204053
26	0x3f50368b	0.81333226
27	0x3f78b84a	0.971562
28	0xbd909b54	-0.070608765
29	0x3f7a6ff8	0.978271
30	0x3f804d75	1.0023638
31	0x3f70e477	0.9409861
32	0xbe00143a	-0.12507716
33	0xbda18f9f	-0.07888722
34	0x3f512d53	0.81709784
35	0x3ce74f5e	0.028236087
36	0x3f6f3d8c	0.9345329
37	0x3f7b3361	0.98125273
38	0xbd9449e4	-0.07240656
39	0x3f6a7787	0.91588634
40	0xbdb34fca	-0.08755453
41	0x3f756997	0.9586424
42	0x3f62bf76	0.88573396
43	0x3de359a1	0.1110108
44	0x3f7ffca4	0.99994874
45	0xbe1b5fea	-0.15173307
46	0x3e194398	0.14967191
47	0x3f74d2b5	0.95634013
48	0x3f6fbb65	0.93645316
49	0xbe2a984e	-0.16659662
50	0xbe12e0e3	-0.143436
51	0x3f650742	0.894642
52	0x3d7b04ef	0.061284002
53	0xbdb5d036	-0.08877604
54	0x3dae2c4a	0.08504541
55	0x3f763303	0.9617159
56	0xbc196b14	-0.009363908
57	0xbd8f645f	-0.07001566
58	0x3d87f8df	0.06639265
59	0x3d8fbd30	0.070185065
60	0x3f499b98	0.7875304
61	0x3f783d63	0.9696867
62	0x3f750bfb	0.95721406
63	0xbe045e9d	-0.12926717
64	0x3c6acbc0	0.014330804
65	0xbd7697ad	-0.060203243
66	0x3f7fbff2	0.9990226
67	0x3f8080d1	1.0039312
68	0xbccd80a6	-0.025085758
69	0x3df5c89c	0.12001154
70	0x3f4f648d	0.81012803
71	0x3f81f1b9	1.0151893
72	0x3f72f99f	0.9491214
73	0x3d8d8585	0.069102325
74	0xbe0af8a1	-0.13571407
75	0x3f79ab99	0.9752746
76	0x3f76f349	0.96464974
77	0x3dde0209	0.10840232
78	0x3f77c520	0.96785164
79	0xbe189a66	-0.14902648
80	0x3dac6110	0.08416951
81	0x3e1824e9	0.1485783
82	0xbe2aa14e	-0.16663095
83	0x3f810257	1.0078839
84	0xbdb3613c	-0.0875878
85	0x3dd46246	0.10370307
86	0x3f67eb69	0.9059358
87	0x3f369354	0.71318555
88	0xbcae05ac	-0.021242939
89	0x3f2e25e6	0.6802658
90	0x3f7fcb29	0.9991937
91	0xbe31ccbd	-0.17363258
92	0x3f7c2dcc	0.9850738
93	0x3f373e82	0.71579754
94	0x3f5fb2f2	0.87382424
95	0x3d9970a0	0.07492185
96	0xbe263887	-0.16232501
97	0x3f7cdabe	0.98771274
98	0x3dc7c5d7	0.09754532
99	0x3f4a7fed	0.7910145
100	0x3db284aa	0.0871671
101	0x3f7d5656	0.98959863
102	0xbdd56244	-0.10419133
103	0xbe14427c	-0.14478487
104	0x3f74bea4	0.95603395
105	0x3f5507d9	0.832151
106	0x3f668824	0.90051484
107	0x3f4d99d7	0.80312866
108	0x3f44e471	0.76911074
109	0x3f4195c2	0.7561914
110	0xbd2e41a4	-0.04254307
111	0x3f7ddebc	0.9916799
112	0x3f3b2cad	0.73115045
113	0x3f35f5d1	0.7107821
114	0xbe133670	-0.14376235
115	0x3bbe6611	0.005810507
116	0x3f6ef515	0.93342716
117	0xbc128122	-0.0089419205
118	0xbe1611bc	-0.14655203
119	0x3dcd8e74	0.100369364
120	0x3f615042	0.8801309
121	0x3f6d237a	0.9263226
122	0x3f3bcdc8	0.7336087
123	0x3f491400	0.7854614
124	0x3f5bf23a	0.85916483
125	0x3f570c76	0.8400339
126	0x3f70ab69	0.9401155
127	0x3f6d53b6	0.9270586

layer2.weight f4 [128, 128]
0	0x3f4b34a3	0.7937719
1	0x3cc9981b	0.024608662
2	0xbc20c44f	-0.009812429
3	0x3f306531	0.68904406
4	0x3f2d66dc	0.67735076
5	0x3d2a7181	0.041612152
6	0x3f414dfe	0.7550963
7	0xbda4bbb0	-0.08043611
8	0x3f3efd6e	0.74605453
9	0xbd569198	-0.052384943
10	0x3cb812f3	0.022469973
11	0xbd89d6ce	-0.06730424
12	0x3f39712d	0.7243832
13	0x3f2ed496	0.6829313
14	0x3d195a15	0.037439425
15	0x3d8c148a	0.06839855
16	0xbc6571eb	-0.014004211
17	0x3d18de6b	0.03732149
18	0xbda141fe	-0.07873915
19	0xbd1e9cb1	-0.03872365
20	0xbce46f3b	-0.02788507
21	0x3da6fd23	0.08153751
22	0x3f4c739e	0.7986392
23	0x3f364ced	0.7121113
24	0x3f455311	0.77079874
25	0x3da66230	0.081241965
26	0x3f40fca7	0.75385517
27	0x3f2bed01	0.67158514
28	0x3d1309e0	0.03589809
29	0x3f48f41d	0.7849749
30	0x3f297d0f	0.6620645
31	0x3f394ab5	0.7237962
32	0xbd75c4ea	-0.060002245
33	0x3d374952	0.044747658
34	0x3f3f6fc7	0.74779934
35	0xbd5145e6	-0.05109205
36	0x3f3f6703	0.7476656
37	0x3f4e579d	0.8060244
38	0x3aa06007	0.001223565
39	0x3f436ace	0.76334846
40	0x3da3a6bc	0.079907864
41	0x3f38dac5	0.72208816
42	0x3f3eabb5	0.74480754
43	0xbd8dde3c	-0.069271535
44	0x3f3ef15b	0.7458703
45	0x3d25d0a7	0.04048219
46	0x3d2a8c30	0.0416376
47	0x3f4eada4	0.80733705
48	0x3f2cb046	0.6745647
49	0x3c388b65	0.011263703
50	0xbc9df249	-0.01928057
51	0x3f4c218f	0.79738706
52	0x3d3ba072	0.04580731
53	0x3d3a52f4	0.045489267
54	0xbd5e5749	-0.05428246
55	0x3f4df18f	0.80446714
56	0xbce04e12	-0.027380977
57	0x3da431fe	0.08017348
58	0xbcf1f457	-0.029535456
59	0xbca51efc	-0.020156376
60	0x3f3f13a0	0.7463932
61	0x3f48b80b	0.7840583
62	0x3f431c72	0.7621528
63	0x3c8c7f02	0.017150406
64	0xbd9b81c2	-0.07593109
65	0xbd65ef58	-0.05613646
66	0x3f4746d5	0.77842456
67	0x3f4ecb8e	0.8077935
68	0x3d7ea5d9	0.062169883
69	0xbd34998c	-0.044091746
70	0x3f36d429	0.7141748
71	0x3f35727e	0.70877826
72	0x3f2e44e2	0.68073857
73	0x3bc6f2f6	0.0060714437
74	0xbd0e49c1	-0.034738306
75	0x3f363c7c	0.7118604
76	0x3f49a131	0.78761584
77	0x3c035b4d	0.008017373
78	0x3f3f54d1	0.74738795
79	0xbc025a75	-0.007956137
80	0x3d6d1491	0.05788094
81	0x39537a52	0.00020168096
82	0xbcd00f5f	-0.025397955
83	0x3f2e6a88	0.68131304
84	0xbbeaff10	-0.007171519
85	0xbd23adb6	-0.039960586
86	0x3f413b62	0.75481236
87	0x3f32affd	0.69799787
88	0x3d991300	0.07474327
89	0x3f500226	0.8125328
90	0x3f4cfd43	0.80073947
91	0xbd4464e9	-0.047947798
92	0x3f31fac3	0.69523257
93	0x3f362bbc	0.71160483
94	0x3f3246d0	0.696393
95	0xbd9d5756	-0.07682674
96	0x3b04d13d	0.0020266317
97	0x3f3ca9a2	0.7369634
98	0x3d0d20bc	0.034455046
99	0x3f53906e	0.8264226
100	0xbd6493fe	-0.0558052
101	0x3f2b90af	0.67017645
102	0xbd0fd2bb	-0.035113078
103	0xbcb16b44	-0.021657594
104	0x3f2caa9e	0.6744784
105	0x3f36812e	0.7129086
106	0x3f30de0d	0.6908882
107	0x3f46e8f1	0.7769919
108	0x3f28f830	0.66003704
109	0x3f328a7a	0.6974255
110	0x3d3ebfb7	0.046569552
111	0x3f449090	0.76783085
112	0x3f3ea635	0.7447236
113	0x3f3ee799	0.7457214
114	0xbd900e5a	-0.07033987
115	0x3c8530b1	0.01625857
116	0x3f35162c	0.70736957
117	0xbc42fb8a	-0.011900792
118	0x3da5e220	0.080997705
119	0x3c33ac59	0.010966384
120	0x3f306382	0.68901837
121	0x3f539216	0.82644784
122	0x3f38b0b1	0.7214461
123	0x3f4b3ca0	0.7938938
124	0x3f47a6e4	0.7798903
125	0x3f35b8de	0.7098521
126	0x3f37263d	0.7154272
127	0x3f347948	0.7049756
128	0x3f52d30c	0.8235328
129	0xbd909d3b	-0.07061239
130	0x3d47ee4b	0.04881124
131	0x3f5cb9c0	0.8622093
132	0x3f4c1d52	0.7973224
133	0xbcba1eaa	-0.0227197
134	0x3f49f74a	0.7889296
135	0x3d94baff	0.07262229
136	0x3f4a38fa	0.7899319
137	0xba6329f1	-0.00086656125
138	0xbd94f591	-0.072734006
139	0x3d863ec4	0.0655494
140	0x3f4e487c	0.8057935
141	0x3f48befe	0.7841643
142	0xbccfa87a	-0.02534889
143	0x3c5b0923	0.013368878
144	0x3d280f29	0.041030083
145	0xbd86c6df	-0.065809004
146	0xbd967c5d	-0.07347939
147	0xbd70f42b	-0.058826607
148	0xbd15770d	-0.03649049
149	0xbd5a04a6	-0.05322709
150	0x3f4a586b	0.79041165
151	0x3f3921b1	0.72317034
152	0x3f405f88	0.7514577
153	0x3ce3f017	0.027824445
154	0x3f4a745f	0.7908382
155	0x3f596d4e	0.8493241
156	0x3be4b4a1	0.0069795405
157	0x3f580568	0.8438325
158	0x3f513981	0.8172837
159	0x3f377239	0.71658665
160	0xbcf86897	-0.03032331
161	0xbd371ef6	-0.04470726
162	0x3f462d10	0.7741251
163	0xbc538d47	-0.012912101
164	0x3f536ac5	0.8258479
165	0x3f4387ac	0.76378894
166	0x3da6917d	0.081332184
167	0x3f4a024d	0.7890976
168	0x3d646378	0.055758923
169	0x3f5a6efc	0.853256
170	0x3f3f28aa	0.74671423
171	0xbd50e9e5	-0.05100431
172	0x3f52186f	0.8206853
173	0xbd99b68a	-0.0750552
174	0x3a173e43	0.00057694706
175	0x3f380160	0.718771
176	0x3f4f8451	0.81061274
177	0xbc283267	-0.010265923
178	0x3bb0d36c	0.005396297
179	0x3f4ed102	0.8078767
180	0xbd194480	-0.037418842
181	0x3d81f912	0.063463345
182	0xbc36d008	-0.011157997
183	0x3f420569	0.75789505
184	0xbd96cb8c	-0.07363042
185	0xbd22a61b	-0.03970919
186	0x3d9f65b4	0.0778307
187	0x3d201ef1	0.039092008
188	0x3f375307	0.71611065
189	0x3f4216b0	0.7581587
190	0x3f59177a	0.8480145
191	0xbd306a12	-0.043069907
192	0x3cf85eb1	0.03031859
193	0xbd666b3f	-0.05625462
194	0x3f4512a5	0.76981574
195	0x3f440a2e	0.7657803
196	0xbd57b52c	-0.052663013
197	0xbd7111fd	-0.058855046
198	0x3f5caf68	0.8620515
199	0x3f3e4157	0.7431845
200	0x3f4e2187	0.8051991
201	0xbd83265e	-0.06403802
202	0x3cc709c1	0.024296643
203	0x3f5d022c	0.8633144
204	0x3f47df96	0.7807554
205	0xbd3fdec7	-0.046843316
206	0x3f484777	0.78234047
207	0x3c96e348	0.018418923
208	0xbcddd2a7	-0.027077986
209	0x3d98e06b	0.07464679
210	0xbb4ee846	-0.0031571551
211	0x3f4b8fce	0.79516304
212	0x3d5425ea	0.05179397
213	0x3d661833	0.056175422
214	0x3f3d9a69	0.74063736
215	0x3f60bb73	0.87786025
216	0xbb776698	-0.003775036
217	0x3f5a293c	0.8521917
218	0x3f5fac35	0.8737214
219	0xbd89a1ee	-0.06720339
220	0x3f436058	0.76318884
221	0x3f52438b	0.8213431
222	0x3f5d8534	0.86531377
223	0x3d621181	0.055192474
224	0x3c5e3f25	0.0135648595
225	0x3f580c4e	0.84393775
226	0x3d53b8c6	0.051689886
227	0x3f40a9ad	0.75258905
228	0xbd7c338c	-0.061572596
229	0x3f5f4c68	0.8722596
230	0x3d600319	0.054690454
231	0xbd3d6990	-0.04624325
232	0x3f3d63af	0.7398023
233	0x3f4bebfb	0.7965695
234	0x3f50d7be	0.81579196
235	0x3f5d3faa	0.8642527
236	0x3f505da8	0.8139291
237	0x3f5a0ce5	0.85175925
238	0x3d777757	0.060416546
239	0x3f344be5	0.70428306
240	0x3f5dbee4	0.866194
241	0x3f466ffb	0.7751462
242	0xbd16e470	-0.03683895
243	0xbd42acfd	-0.047528256
244	0x3f3920b3	0.7231552
245	0xbd8d12f6	-0.06888382
246	0x3da2df4e	0.07952748
247	0x3d0833f3	0.033252668
248	0x3f553766	0.83287656
249	0x3f50a745	0.81505233
250	0x3f60ee18	0.878633
251	0x3f4e70db	0.80640954
252	0x3f4e79ef	0.80654806
253	0x3f4e313d	0.8054388
254	0x3f539819	0.8265396
255	0x3f401ae9	0.7504106

layer2.bias f4 [128]
0	0x3f3ca912	0.7369548
1	0x3f361b74	0.7113564
2	0xbc8897a1	-0.016673865
3	0xbd5c8c4a	-0.053844728
4	0x3d03cf95	0.032180388
5	0xbd5b0335	-0.053469855
6	0x3f32a5ad	0.6978405
7	0x3f4cd54c	0.80012965
8	0x3ccc784a	0.024959702
9	0x3d4880a1	0.048950795
10	0xbd536eb9	-0.051619265
11	0x3d93856a	0.07203181
12	0x3d76663f	0.060156103
13	0x3bdffb60	0.006835386
14	0x3f10a1d1	0.5649691
15	0x3f3c6154	0.7358601
16	0x3f5d2aa0	0.86393166
17	0xbc74defc	-0.014945742
18	0x3f51bd76	0.8192972
19	0xbd756855	-0.059913952
20	0xbd7dcd9f	-0.061963674
21	0x3d36db79	0.0446429
22	0xbbd410c2	-0.0064717242
23	0x3d9dd3d6	0.0770642
24	0x3b5ff02e	0.0034170258
25	0xbc022f2d	-0.007945818
26	0x3ce74fac	0.028236233
27	0xbd0bf710	-0.034171164
28	0x3d3c93c7	0.04603937
29	0x3f50a2d0	0.8149843
30	0x3d7af435	0.06126805
31	0x3f47991c	0.77968
32	0xbd45b577	-0.04826876
33	0x3f3a831f	0.72856325
34	0x3f51f403	0.8201296
35	0xbd72a08d	-0.059235144
36	0x3da412bc	0.08011386
37	0xbdaa2a57	-0.08308857
38	0x3f2af3a2	0.66778004
39	0x3f388d71	0.7209082
40	0xbdad3aed	-0.08458505
41	0x3d100ec4	0.03517033
42	0xbd10e100	-0.035370827
43	0xbd74908a	-0.059708156
44	0xbcc58a71	-0.024113866
45	0x3f3f9b51	0.7484637
46	0xbd0f2925	-0.034951348
47	0x3f3da07a	0.7407299
48	0x3cf0af2d	0.029380405
49	0x3f34ea88	0.70670366
50	0x3d9900c9	0.07470853
51	0xbd7398df	-0.05947196
52	0xbb97dcd7	-0.0046344805
53	0x3f40c682	0.753029
54	0xbd4561b5	-0.048188884
55	0x3f3e3795	0.7430356
56	0x3f4caca5	0.79950935
57	0x3f1f00b7	0.62110466
58	0xbcd9c51d	-0.026583249
59	0x3d5a1f48	0.05325249
60	0x3d4fb22b	0.050707024
61	0x3f391554	0.7229817
62	0xbd93f5c8	-0.072246134
63	0x3d81db27	0.06340628
64	0x3cc8ff79	0.024535881
65	0x3f4f78a3	0.8104345
66	0xbd00fad9	-0.031489227
67	0xbbaf8a2c	-0.0053570475
68	0xbd42b9fe	-0.047540657
69	0xbcab5707	-0.020915521
70	0xbd232cd5	-0.039837677
71	0x3f5b7531	0.85725695
72	0x3f4b1dd9	0.7934242
73	0xbd88e4aa	-0.06684239
74	0x3d050169	0.032472048
75	0x3f4a0985	0.78920776
76	0x3f34b910	0.7059488
77	0xbd635657	-0.055502262
78	0xbc6ebda9	-0.014571586
79	0x3f35f796	0.7108091
80	0xbcd0a667	-0.025469972
81	0xbbd6eb63	-0.006558822
82	0x3f2ba292	0.6704494
83	0xbcf55351	-0.029946955
84	0xbd0082eb	-0.031374853
85	0x3f451c40	0.7699623
86	0xbd2411f5	-0.040056188
87	0x3d20b18d	0.039231826
88	0xbd010e56	-0.031507812
89	0xbd4a755b	-0.049428325
90	0xbcd26815	-0.025684396
91	0x3f41a87c	0.7564771
92	0x3f4905b1	0.7852431
93	0xbd71a1d9	-0.05899224
94	0x3d5fb30e	0.05461412
95	0x3cf02de1	0.029318752
96	0xbc7e3c91	-0.01551737
97	0x3da1ab14	0.07893959
98	0x3f3c42fb	0.73539704
99	0xbda5c110	-0.080934644
100	0x3d13b540	0.036061525
101	0x3da05a8a	0.07829769
102	0xbd2303e5	-0.039798636
103	0x3f4ba4d6	0.79548395
104	0x3f566993	0.83754843
105	0x3ba07f4c	0.0048979875
106	0xbd8fed57	-0.07027691
107	0x3f3bf9ce	0.73428047
108	0xbc8be030	-0.017074674
109	0xbc1101b2	-0.008850502
110	0x3f359114	0.70924497
111	0x3d21c1e1	0.039491538
112	0xbd43d8bc	-0.047814116
113	0x3f54c3d6	0.8311132
114	0x3f3f0864	0.7462218
115	0xbd9a77f6	-0.07542412
116	0x3f362bce	0.7116059
117	0x3f27ea60	0.65592
118	0xbd0c96c3	-0.034323465
119	0x3cb3f3df	0.021966873
120	0x3b95079c	0.0045480262
121	0x3f362985	0.71157104
122	0xbd930d9e	-0.07180332
123	0x3d725a6b	0.05916826
124	0x3f3b699a	0.7320801
125	0x3f4b75a7	0.794764
126	0x3c84e159	0.016220735
127	0xbbf5f6fc	-0.0075062495

layer3.weight f4 [7, 128]
0	0x3f1e3c82	0.6181108
1	0x3f0970dc	0.53687835
2	0xbcb9fe58	-0.022704288
3	0xbd59acb7	-0.05314323
4	0x3c81ce3e	0.015845414
5	0xbd92874e	-0.071547136
6	0x3f0d947c	0.55304694
7	0x3f080930	0.5313902
8	0x3d9832bc	0.07431552
9	0x3d3b4ef8	0.045729607
10	0xbd9d047a	-0.076668695
11	0xbcdafc00	-0.026731491
12	0xbd2ed900	-0.042687416
13	0x3d3dac79	0.04630706
14	0x3ef61128	0.48059964
15	0x3f12da1a	0.57364047
16	0x3ee5b90b	0.4486774
17	0x3d6cc570	0.05780548
18	0x3f0b7f3e	0.5449103
19	0x3d07c0b1	0.03314275
20	0x3d27e083	0.040985595
21	0xbcd4557e	-0.025919672
22	0xbd12ca9b	-0.03583775
23	0x3db0ce73	0.08633127
24	0x3d52c3dc	0.051456317
25	0xbd822cd0	-0.063562036
26	0x3cb74d18	0.022375628
27	0xbca8625b	-0.020554712
28	0x3d28160a	0.041036643
29	0x3f06ce7d	0.52658826
30	0x3b0ed48f	0.0021794175
31	0x3f0b76e3	0.5447828
32	0x3d66309e	0.05619871
33	0x3f026278	0.509315
34	0x3f1838c2	0.59461606
35	0x3c6a0370	0.014283046
36	0x3d98a2b3	0.074529074
37	0x3d61066c	0.054937765
38	0x3f06750c	0.5252235
39	0x3f167944	0.58778787
40	0xbd0f0ba3	-0.034923207
41	0x3d9dbc02	0.07701875
42	0x3c4c0a16	0.012453577
43	0xbce7d0ba	-0.02829777
44	0x3cfddeba	0.030989993
45	0x3f0dc8f5	0.5538476
46	0x3d960397	0.073249035
47	0x3f0c9395	0.5491269
48	0x3ce4be63	0.027922815
49	0x3f089e26	0.53366315
50	0x3cda5e6a	0.026656348
51	0x3bf55651	0.0074870964
52	0x3d6fedaf	0.058576282
53	0x3f1ce7b2	0.6129104
54	0xbd3f1305	-0.046648998
55	0x3f1d315f	0.6140346
56	0x3f1d2350	0.6138201
57	0x3f0efa9c	0.5585115
58	0x3c923e2e	0.017851915
59	0x3d32462f	0.043523964
60	0xbd34805f	-0.044067737
61	0x3f1048bd	0.5636099
62	0xbd0099e0	-0.031396747
63	0xbcd32fcf	-0.025779633
64	0xbc9f113f	-0.019417403
65	0x3f0e16ab	0.5550334
66	0x3d23ff39	0.04003832
67	0xbd1125ff	-0.035436627
68	0xbd96320f	-0.07333767
69	0xbd18716e	-0.03721755
70	0xbd0fc9d3	-0.035104584
71	0x3ef63a6e	0.48091453
72	0x3f0b145c	0.5432794
73	0xbd90d7f7	-0.07072442
74	0xbd94458a	-0.07239826
75	0x3f032f7f	0.5124435
76	0x3f117a38	0.56827116
77	0x3c55dbb3	0.013052869
78	0xbbc9a9c4	-0.006154271
79	0x3f0cc748	0.5499158
80	0x3d99ed2d	0.07515941
81	0xbcdefd00	-0.02722025
82	0x3f0835bc	0.5320699
83	0x3d9ce8c3	0.07661583
84	0x3cacdd29	0.021101551
85	0x3f088620	0.5332966
86	0xbd82c90a	-0.063860014
87	0x3d6f3eff	0.058409687
88	0x3ca5d941	0.020245196
89	0x3cd05cec	0.025434934
90	0xbd596283	-0.053072464
91	0x3f1dbd91	0.6161738
92	0x3efff20c	0.49989355
93	0x3c946932	0.018116567
94	0xbcc40f5c	-0.023933105
95	0xbd90843b	-0.07056471
96	0xbda237f5	-0.07920829
97	0x3d7f35cd	0.062307168
98	0x3f0e4964	0.55580735
99	0x3d54f512	0.05199153
100	0xbd99d319	-0.07510967
101	0x3c380ac5	0.011233036
102	0xbd5c5af0	-0.053797662
103	0x3f06be90	0.52634525
104	0x3f114b51	0.5675555
105	0xbce85c4b	-0.028364321
106	0xbd0b333e	-0.033984415
107	0x3f1e14d3	0.61750525
108	0x3cd4e130	0.025986284
109	0x3d4258a4	0.047447816
110	0x3f13d716	0.5775007
111	0x3d9c7834	0.076401144
112	0x3d781b0c	0.06057267
113	0x3f16f955	0.589742
114	0x3f1a0cab	0.6017558
115	0xbd251c4d	-0.040310193
116	0x3ef4c415	0.4780585
117	0x3f17dd27	0.59321827
118	0xbc2f0eea	-0.010684708
119	0xbd76fcb8	-0.060299605
120	0x3da5f6bc	0.081037015
121	0x3f0d522f	0.5520353
122	0xbd095ebc	-0.03353761
123	0x3c32cced	0.010913116
124	0x3f01f9c5	0.50771743
125	0x3f03ee6d	0.51535684
126	0x3b41971d	0.0029539533
127	0xbcd729ca	-0.026265044
128	0x3ec10816	0.37701482
129	0x3eb3f891	0.3515058
130	0x3c7951bd	0.015217242
131	0xbd23e49d	-0.040012944
132	0x3c957bc6	0.018247496
133	0x3d5e98ea	0.05434505
134	0x3ea55b74	0.32296336
135	0x3eb64104	0.35596478
136	0xbd4fbc73	-0.05071683
137	0xbbce7b16	-0.006301294
138	0x3ca6f384	0.02037979
139	0x3c27b3aa	0.010235706
140	0xbc5730eb	-0.013134222
141	0x3d939502	0.07206155
142	0x3eb87513	0.3602682
143	0x3eb991ab	0.36243948
144	0x3ecc2dcc	0.3987869
145	0x3bd7e89e	0.0065890094
146	0x3edca689	0.43095806
147	0xbd4b90f2	-0.049698777
148	0x3cd0798c	0.025448583
149	0xb97509ed	-0.00023368718
150	0x3d8d7d07	0.06908613
151	0x3d96036f	0.07324874
152	0x3d819948	0.06328064
153	0x3d8207fe	0.06349181
154	0xbce84ab1	-0.028355928
155	0x3bf1c1b1	0.007377826
156	0xbd96b106	-0.07357983
157	0x3edc0c80	0.42978287
158	0x3ca82aa7	0.02052815
159	0x3eb11879	0.34588984
160	0x3c8006fd	0.015628332
161	0x3ed0815e	0.407237
162	0x3ebe7fcd	0.3720688
163	0x3ca8c8ec	0.02060362
164	0xbc723973	-0.014784205
165	0xbb749dc8	-0.003732549
166	0x3eca1c20	0.39474583
167	0x3ecda59e	0.40165418
168	0x3c9120bb	0.017715802
169	0xbd2268af	-0.039650615
170	0xbc93a6c2	-0.018023852
171	0x3d3299da	0.043603756
172	0x3d90456d	0.07044492
173	0x3ee14fa6	0.4400608
174	0xbcb91f3f	-0.022597907
175	0x3e9a8a2d	0.30183545
176	0x3d3732e4	0.044726267
177	0x3e8ebe01	0.27879336
178	0x3ce9e332	0.028550718
179	0xbc508590	-0.012727156
180	0xbd28541f	-0.04109585
181	0x3e97b250	0.2962823
182	0x3cd171cc	0.025566958
183	0x3eb6a92c	0.35675943
184	0x3ec321ac	0.38111627
185	0x3ecebfb0	0.4038062
186	0x3ce8f84e	0.028438713
187	0xbcc14771	-0.023593636
188	0x3d984caf	0.07436501
189	0x3eaa2a31	0.33235314
190	0xbd7384aa	-0.05945269
191	0xbda254bc	-0.07926318
192	0x3d4a915d	0.049455035
193	0x3ed26004	0.4108888
194	0x3d28badd	0.04119383
195	0x3d15a2f0	0.036532342
196	0x3d49e913	0.049294543
197	0x3d0c0e10	0.0341931
198	0xbb53c35a	-0.0032312484
199	0x3edaf826	0.42767447
200	0x3ea2db1c	0.31807792
201	0x3d3e717b	0.046494942
202	0x3cbe6d2f	0.023245422
203	0x3eb39c73	0.350803
204	0x3ed4b5ad	0.41544858
205	0xbc7e7726	-0.015531337
206	0xbd93a158	-0.07208508
207	0x3ea4ec41	0.32211497
208	0xbd207d2b	-0.03918187
209	0x3d36a980	0.04459524
210	0x3eb2538f	0.34829375
211	0x3d95b7e7	0.07310467
212	0x3d7edef5	0.062224347
213	0x3e98a94a	0.29816657
214	0x3d4af2a9	0.049547825
215	0xbd60e9d6	-0.054910503
216	0xbda40914	-0.08009544
217	0xbd80ad6c	-0.062830776
218	0xbcc1ec9f	-0.0236724
219	0x3ec3030f	0.3808827
220	0x3ec91fc1	0.3928204
221	0x3d1f6bb1	0.038921062
222	0x3ccebd19	0.025236653
223	0x3c32552e	0.010884566
224	0x3cac1a0b	0.021008512
225	0x3cf27026	0.029594492
226	0x3edb2f49	0.42809513
227	0x3c153cfa	0.009108776
228	0xbc834171	-0.016022416
229	0x3cfb06d7	0.03064291
230	0xbcf3a3c8	-0.029741183
231	0x3ea9f5db	0.33195385
232	0x3eb592c0	0.35463524
233	0x3c60b65b	0.013715352
234	0x3cc9dc6a	0.024641234
235	0x3ed6c7f9	0.41949442
236	0x3c004c9f	0.007830768
237	0xbda4557c	-0.08024117
238	0x3eb727b4	0.3577248
239	0xbd9994d0	-0.07499087
240	0x3d8ff571	0.07029236
241	0x3ed4056b	0.41410384
242	0x3ec8fd2e	0.3925566
243	0x3c8c9fa0	0.017165959
244	0x3ecf67f9	0.40509012
245	0x3eb59aed	0.35469761
246	0xbd88461a	-0.06653996
247	0xbc85a445	-0.016313681
248	0x3c97f733	0.018550491
249	0x3eb77b1c	0.35836112
250	0x3bba8323	0.0056919022
251	0xbc937575	-0.018000344
252	0x3ed5fb5d	0.41793337
253	0x3eb87009	0.36022976
254	0xbd09edf9	-0.033674214
255	0x3d3e297f	0.046426293

layer3.bias f4 [7]
0	0x3f0cb671	0.54965883
1	0x3e0ac991	0.13553454
2	0x3e5e16b4	0.21688348
3	0x3e767ba7	0.24070607
4	0x3e368845	0.1782542
5	0x3e14b7d1	0.14523245
6	0x3e1e8377	0.15479837

layer1.weight f4 [128, 28]
0	0x3e191695	0.1495002
1	0xbd8c22e7	-0.068425946
2	0xbe2aa00f	-0.1666262
3	0xbe2dd258	-0.16974771
4	0xbe228c51	-0.15873839
5	0xbe26044c	-0.16212577
6	0xbde5a276	-0.112126276
7	0x3f548cfe	0.83027637
8	0x3d39accf	0.04533082
9	0x3e11803e	0.14209077
10	0xbd080321	-0.03320611
11	0x3e06dfcc	0.13171309
12	0xbe1db65f	-0.154016
13	0x3cafddc8	0.021468058
14	0x3d41a66b	0.04727785
15	0x3d9f3f73	0.07775774
16	0x3da566f7	0.080762796
17	0xbd22bdbf	-0.039731737
18	0x3dc81aee	0.097707614
19	0x3bd3cdf0	0.0064637586
20	0xbd0552d1	-0.032549683
21	0xbe1dcdb1	-0.15410496
22	0x3e09484d	0.13406487
23	0x3db7a2a3	0.08966567
24	0x3dc9d89e	0.098557696
25	0x3e1d6cc7	0.15373527
26	0xbda2671a	-0.07929821
27	0x3f7ec1fc	0.99514747
28	0xbde1c372	-0.11023606
29	0xbdf51a1b	-0.1196787
30	0x3e220ff4	0.15826398
31	0xbd3e049b	-0.04639111
32	0xbe2f9828	-0.17147887
33	0xbe21c2db	-0.15796988
34	0xbe339962	-0.1753898
35	0xbdc7ad9e	-0.09749912
36	0xbdbfceee	-0.093656406
37	0xbe1b9ae1	-0.151958
38	0x3e1a2319	0.15052451
39	0x3d86e973	0.06587496
40	0x3d851683	0.064984344
41	0x3df81472	0.12113275
42	0xbe34ab2b	-0.1764342
43	0x3e1ec87a	0.15506163
44	0xbe04318c	-0.12909526
45	0xbdf35c13	-0.11882796
46	0xbd11c742	-0.035590418
47	0xb950dfa8	-0.00019919744
48	0xbd81533a	-0.06314702
49	0xbd00f3d5	-0.031482536
50	0x3de0c2a6	0.10974626
51	0xbce905f1	-0.028445216
52	0xbe01892e	-0.12649986
53	0xbe171bd3	-0.14756708
54	0x3e1dd5d1	0.15413596
55	0xbe144b52	-0.14481857
56	0x3da55a08	0.08073813
57	0xbd04c189	-0.032411132
58	0xbe1a1e69	-0.15050663
59	0x3ddd2aa8	0.10799152
60	0x3d72e24b	0.05929784
61	0xbdce6602	-0.1007805
62	0x3c32ab88	0.010905154
63	0xbe0e8e33	-0.13921432
64	0xbcbfeda7	-0.023428751
65	0xbde24f27	-0.11050253
66	0x3ddfbc7a	0.10924621
67	0x3da93f40	0.08264017
68	0x3e34e797	0.1766647
69	0xbdb1daa8	-0.086842835
70	0x3d9c09b3	0.076190375
71	0xbdb5ceee	-0.08877359
72	0xbc19cd33	-0.009387302
73	0x3dbcecdd	0.092248656
74	0x3dedb50a	0.11606796
75	0x3dd7336c	0.10507855
76	0x3d8221ab	0.06354078
77	0xbd06e95d	-0.032937396
78	0xbde2a76a	-0.11067088
79	0x3caa14db	0.020761898
80	0xbd657c0b	-0.0560265
81	0xbca19a4f	-0.0197269
82	0xbb251b68	-0.0025193337
83	0x3c358ce7	0.011080957
84	0x3e20612c	0.15662068
85	0x3d91ceae	0.07119499
86	0xbd18380b	-0.03716282
87	0x3e1c0549	0.15236391
88	0xbe19ddb9	-0.15025987
89	0x3e249d22	0.16075566
90	0x3c6dcd32	0.014514254
91	0x3f7b73cc	0.98223567
92	0x3e1a0271	0.15039994
93	0xbcab26c4	-0.020892508
94	0x3c17fd73	0.009276736
95	0x3b9f05fd	0.004853009
96	0x3df5b573	0.11997499
97	0xbdecf46a	-0.11570056
98	0x3dcefd2a	0.10106881
99	0x3e0c3ebf	0.1369581
100	0x3d84de6f	0.06487738
101	0xbcf353c3	-0.029703027
102	0x3dad1880	0.08451939
103	0xbe160ea6	-0.14654025
104	0xbdd1c04e	-0.10241757
105	0x3cdbd9ff	0.026837347
106	0x3de59704	0.112104446
107	0x3e1340a4	0.14380127
108	0x3d37ae9b	0.04484425
109	0x3cc84b7d	0.024450058
110	0xbd3fcff3	-0.046829175
111	0x3f7e7ebe	0.99412143
112	0x3dd60372	0.10449876
113	0x3d517a40	0.051141977
114	0xbe1372cc	-0.1439926
115	0x3cacf4bd	0.021112794
116	0x3d11576c	0.035483763
117	0x3d111ee6	0.035429858
118	0xbd0246b1	-0.031805698
119	0x3f4010bc	0.75025535
120	0xbe1a009b	-0.15039293
121	0xbd65ab9a	-0.056071855
122	0xbdbe8619	-0.09302921
123	0xbd7dc3d9	-0.061954353
124	0xbde0e029	-0.10980255
125	0x3d583e6e	0.052793913
126	0xbe1c5d7c	-0.15270036
127	0x3d84aebf	0.06478643
128	0xbc9c82a3	-0.019105261
129	0x3e26bb1a	0.16282311
130	0xbdd45b9e	-0.10369037
131	0x3e038f64	0.12847668
132	0x3cf7b702	0.030238632
133	0xbe1e20db	-0.15442221
134	0x3de8ea0d	0.11372767
135	0xbca2babf	-0.019864438
136	0x3d64afb5	0.05583163
137	0x3d2ae763	0.041724574
138	0xbe26947a	-0.16267577
139	0x3f552c8d	0.83271104
140	0xbdb29bac	-0.08721098
141	0x3d8d8c3b	0.069115125
142	0xbe019fe2	-0.12658647
143	0x3cc9dbac	0.02464088
144	0xbcc5fd62	-0.024168674
145	0xbccd7aec	-0.025083028
146	0xbbb589d7	-0.0055401134
147	0xbde451c8	-0.11148411
148	0x3e081a02	0.13291171
149	0x3cb810aa	0.022468884
150	0xbd806e83	-0.062710784
151	0xbd8b5886	-0.06803994
152	0xbd541b82	-0.051784046
153	0xbe25b22d	-0.1618125
154	0x3d905600	0.07047653
155	0x3e263404	0.1623078
156	0x3d560558	0.05225119
157	0x3dee07ba	0.116225675
158	0xbe19f7f9	-0.15036
159	0xbe0def7f	-0.13860892
160	0xbdca19f3	-0.09868231
161	0x3e16c219	0.1472248
162	0x3e235df0	0.15953803
163	0x3e356a93	0.17716436
164	0xbe2db354	-0.1696294
165	0x3e273a64	0.16330868
166	0xbe2ac08d	-0.16675015
167	0x3da73540	0.081644535
168	0x3da78a6a	0.08180697
169	0x3d8d3b57	0.06896084
170	0x3d57934c	0.052630708
171	0x3e1799b9	0.14804734
172	0x3e071ce2	0.13194612
173	0xbe289048	-0.16461289
174	0xbd2d09aa	-0.042245544
175	0x3f347f19	0.70506436
176	0x3d12ba44	0.035822168
177	0x3aed8852	0.0018122292
178	0x3e374e3a	0.17900935
179	0xbb20671f	-0.0024475527
180	0xbe105d80	-0.14098167
181	0xbdcb3547	-0.09922271
182	0xbe1865c9	-0.14882578
183	0xbd66e3ac	-0.05636947
184	0xbdc3862b	-0.09547075
185	0xbdf1901b	-0.11795064
186	0xbe183a8b	-0.14866082
187	0xbbf88fac	-0.0075854864
188	0xbc7dfa1f	-0.015501528
189	0xbd5cb7e8	-0.053886324
190	0xbd9b378b	-0.07578953
191	0xbd28bc08	-0.041194946
192	0xbe1d772b	-0.1537749
193	0xbdd5d0ac	-0.104401916
194	0x3ce9e5f4	0.028552033
195	0x3f591548	0.847981
196	0x3c71d533	0.014760303
197	0x3d57af20	0.052657247
198	0x3e16ed89	0.1473905
199	0xbdcde75c	-0.10053894
200	0x3d94582c	0.0724338
201	0x3de2e5f9	0.1107902
202	0x3e252b23	0.16129737
203	0x3d08495c	0.033273086
204	0xbaf463c3	-0.0018645454
205	0x3d9d4107	0.076784186
206	0xbdaf9db8	-0.08575004
207	0xbe326bec	-0.17423981
208	0xbe225a24	-0.15854698
209	0x3e01bac6	0.12668905
210	0xbdc94879	-0.09828276
211	0x3cd29f4e	0.025710728
212	0xbd947352	-0.07248558
213	0x3e3529d3	0.17691736
214	0x3bced814	0.0063123796
215	0x3e1e22d3	0.15442972
216	0xbd9a85b1	-0.07545031
217	0xbc6a36ec	-0.014295321
218	0x3d0ad23e	0.03389191
219	0x3dfe6dac	0.12423262
220	0x3dfdf5f7	0.1240043
221	0xbe306e28	-0.17229521
222	0xbdccbb24	-0.09996632
223	0xbd150bdc	-0.036388263
224	0xbe292350	-0.16517377
225	0x3d4b774c	0.049674317
226	0xbd416cf3	-0.047223043
227	0xbd0bf72a	-0.03417126
228	0x3da9e808	0.082962096
229	0xbcf57d83	-0.029967075
230	0x3d18f0a7	0.03733888
231	0x3f80f5ee	1.0075052
232	0xbda102b8	-0.07861847
233	0xba0d9066	-0.000540024
234	0x3dc1a857	0.094559364
235	0x3e2a5af6	0.16636261
236	0x3c706fcb	0.014675091
237	0x3df7002a	0.12060578
238	0xbd75080b	-0.059822123
239	0xbe2cbfdb	-0.16870062
240	0x3d1bb5b7	0.038015094
241	0xbda85c46	-0.08220725
242	0x3c99dd91	0.018782409
243	0x3e09bee2	0.13451722
244	0x3e0a4dcd	0.13506241
245	0x3d5e9ab1	0.054346744
246	0xbd3c5053	-0.04597504
247	0xbdfb046d	-0.122567035
248	0x3ddfd22d	0.1092876
249	0x3de2c524	0.11072758
250	0xbde8be70	-0.11364448
251	0x3f648aaa	0.89274085
252	0x3dbabfab	0.09118589
253	0xbda3f921	-0.08006502
254	0x3dea956c	0.11454281
255	0xbccb591c	-0.024822764

layer1.bias f4 [128]
0	0x3f6ce63d	0.92538816
1	0xbc8f910c	-0.017525218
2	0x3ddafd6d	0.106928684
3	0x3f4a1cd7	0.78950256
4	0x3f726616	0.9468702
5	0xbdd9a9c2	-0.10628082
6	0x3f7c3a18	0.98526144
7	0xbd9bf92d	-0.07615886
8	0x3f59306b	0.84839505
9	0xbd3db5eb	-0.04631607
10	0xbcbb030b	-0.0228286
11	0xbd81e941	-0.06343318
12	0x3f25843a	0.64654887
13	0x3f236887	0.6383137
14	0xbdf5c2fb	-0.1200008
15	0xbdb65c87	-0.08904367
16	0xbdcda0f2	-0.100404635
17	0x3d568c2c	0.052379772
18	0xbbbf30f7	-0.0058346945
19	0xbd419e74	-0.047270253
20	0xbe0ae3e6	-0.13563499
21	0xbe1c2669	-0.15249027
22	0x3f56e54f	0.8394365
23	0x3f546465	0.8296569
24	0x3f34dcb7	0.70649284
25	0x3d080801	0.033210758
26	0x3f4fc473	0.8115913
27	0x3f78480c	0.96984935
28	0xbd90a31c	-0.07062361
29	0x3f7a0036	0.9765657
30	0x3f8015f0	1.0006695
31	0x3f7073eb	0.93926877
32	0xbe001b42	-0.12510398
33	0xbda19837	-0.07890361
34	0x3f50bb3d	0.815357
35	0x3ce75b16	0.028241675
36	0x3f6eccfd	0.9328154
37	0x3f7ac39f	0.97954744
38	0xbd9451b0	-0.07242143
39	0x3f6a06f4	0.9141686
40	0xbdb3592b	-0.08757242
41	0x3f74f910	0.9569254
42	0x3f624e2c	0.8840053
43	0x3de3655b	0.111033164
44	0x3f7f8cdf	0.9982433
45	0xbe1b67bf	-0.15176295
46	0x3e194b6f	0.14970182
47	0x3f746234	0.95462346
48	0x3f6f4ae6	0.9347366
49	0xbe2aa0e6	-0.1666294
50	0xbe12e8ac	-0.1434657
51	0x3f6495fc	0.8929136
52	0x3d7b1234	0.061296657
53	0xbdb5d997	-0.088793926
54	0x3dae35a8	0.08506328
55	0x3f75c286	0.95999944
56	0xbc1972ec	-0.009365778
57	0xbd8f6c2c	-0.07003054
58	0x3d87ffe7	0.066406064
59	0x3d8fc4f6	0.07019989
60	0x3f4928b8	0.78577757
61	0x3f77ccd2	0.96796906
62	0x3f749b7a	0.9554974
63	0xbe0465a5	-0.129294
64	0x3c6ad83c	0.014333781
65	0xbd76a432	-0.060215183
66	0x3f7f503b	0.99731797
67	0x3f804951	1.0022374
68	0xbccd8b94	-0.02509097
69	0x3df5d522	0.120035425
70	0x3f4ef282	0.8083879
71	0x3f81ba3c	1.0134959
72	0x3f728914	0.94740415
73	0x3d8d8c8d	0.069115736
74	0xbe0affa9	-0.13574089
75	0x3f793bd8	0.9735694
76	0x3f7682c8	0.96293306
77	0x3dde0dbe	0.10842465
78	0x3f7754a4	0.96613526
79	0xbe18a237	-0.1490563
80	0x3dac69a8	0.0841859
81	0x3e182cc1	0.14860822
82	0xbe2aa9e6	-0.16666374
83	0x3f80cad6	1.0061901
84	0xbdb36a9e	-0.0876057
85	0x3dd46d36	0.10372393
86	0x3f677a19	0.9042068
87	0x3f361fab	0.7114207
88	0xbcae0f08	-0.021247402
89	0x3f2db22f	0.6785001
90	0x3f7f5b6b	0.9974887
91	0xbe31d61c	-0.17366832
92	0x3f7bbe17	0.9833693
93	0x3f36cade	0.714033
94	0x3f5f41a3	0.8720953
95	0x3d997878	0.07493681
96	0xbe26411f	-0.16235779
97	0x3f7c6aff	0.98600763
98	0x3dc7cfff	0.09756469
99	0x3f4a0d0c	0.7892616
100	0x3db28e08	0.087184966
101	0x3f7ce689	0.9878927
102	0xbdd56d34	-0.104212195
103	0xbe144a44	-0.14481455
104	0x3f744e1f	0.95431703
105	0x3f5495b9	0.8304096
106	0x3f6616dc	0.8987863
107	0x3f4d27ca	0.8013884
108	0x3f447191	0.7673579
109	0x3f4122e9	0.75443894
110	0xbd2e4b00	-0.042551994
111	0x3f7d6f02	0.9899751
112	0x3f3ab903	0.72938555
113	0x3f35822a	0.7090174
114	0xbe133e38	-0.14379203
115	0x3bbe7037	0.005811717
116	0x3f6e8483	0.93170947
117	0xbc1288ee	-0.008943779
118	0xbe161982	-0.14658168
119	0x3dcd9962	0.10039021
120	0x3f60def4	0.878402
121	0x3f6cb2fb	0.924606
122	0x3f3b5a2e	0.7318448
123	0x3f48a119	0.78370816
124	0x3f5b80e4	0.85743546
125	0x3f569a5a	0.8382927
126	0x3f703aef	0.93839926
127	0x3f6ce32b	0.9253413

layer2.weight f4 [128, 128]
0	0x3f4ac3c9	0.79204994
1	0x3cc9a242	0.024613503
2	0xbc20cce7	-0.0098144775
3	0x3f2ff391	0.6873103
4	0x3f2cf49c	0.67560744
5	0x3d2a7a19	0.041620348
6	0x3f40dd13	0.7533733
7	0xbda4c448	-0.0804525
8	0x3f3e8c95	0.7443326
9	0xbd569c88	-0.052395374
10	0x3cb81c53	0.022474444
11	0xbd89ddd6	-0.06731765
12	0x3f38ff70	0.72264767
13	0x3f2e62e5	0.6811965
14	0x3d1961e5	0.037446875
15	0x3d8c1b92	0.06841196
16	0xbc657da5	-0.014007007
17	0x3d18e643	0.03732897
18	0xbda14a96	-0.07875554
19	0xbd1ea547	-0.03873184
20	0xbce47af4	-0.02789066
21	0x3da705bb	0.0815539
22	0x3f4c0388	0.7969289
23	0x3f35db35	0.7103761
24	0x3f44e234	0.7690766
25	0x3da66ac8	0.08125836
26	0x3f408bd2	0.7521335
27	0x3f2b7a97	0.6698393
28	0x3d1311a6	0.035905503
29	0x3f488345	0.783253
30	0x3f290aa4	0.6603186
31	0x3f38d913	0.7220623
32	0xbd75d16b	-0.06001417
33	0x3d3752b3	0.044756602
34	0x3f3efed8	0.7460761
35	0xbd5150d6	-0.05110248
36	0x3f3ef62f	0.74594396
37	0x3f4de787	0.8043141
38	0x3aa0689f	0.0012238211
39	0x3f42f9e3	0.76162547
40	0x3da3af54	0.079924256
41	0x3f38692d	0.72035486
42	0x3f3e3acd	0.7430847
43	0xbd8de544	-0.069284946
44	0x3f3e8083	0.74414843
45	0x3d25d93f	0.040490385
46	0x3d2a94c8	0.041645795
47	0x3f4e3d91	0.8056269
48	0x3f2c3dcd	0.672818
49	0x3c3894c7	0.01126594
50	0xbc9dfa1b	-0.019284299
51	0x3f4bb15d	0.7956751
52	0x3d3ba9d3	0.045816254
53	0x3d3a5c56	0.045498215
54	0xbd5e6302	-0.05429364
55	0x3f4d8175	0.8027566
56	0xbce059ce	-0.027386572
57	0x3da43a96	0.08018987
58	0xbcf200db	-0.029541424
59	0xbca52794	-0.020160474
60	0x3f3ea2d3	0.744672
61	0x3f48471e	0.78233516
62	0x3f42ab90	0.76043034
63	0x3c8c860a	0.017153759
64	0xbd9b8993	-0.075945996
65	0xbd65fb13	-0.056147646
66	0x3f46d5f7	0.77670234
67	0x3f4e5b74	0.80608296
68	0x3d7eb31e	0.06218254
69	0xbd34a2ee	-0.044100694
70	0x3f366271	0.7124396
71	0x3f3500df	0.70704454
72	0x3f2dd345	0.67900497
73	0x3bc6fd1e	0.0060726544
74	0xbd0e50c9	-0.03474501
75	0x3f35cae0	0.7101269
76	0x3f493067	0.7858948
77	0x3c036255	0.00801905
78	0x3f3ee3f4	0.7456658
79	0xbc02617d	-0.007957813
80	0x3d6d2112	0.057892866
81	0x39538542	0.0002017217
82	0xbcd01a4e	-0.025403168
83	0x3f2df8dc	0.67957854
84	0xbbeb0b8c	-0.0071730074
85	0xbd23b64e	-0.03996878
86	0x3f40ca70	0.75308895
87	0x3f323e47	0.6962628
88	0x3d991ad7	0.074758224
89	0x3f4f920c	0.81082225
90	0x3f4c8d31	0.7990294
91	0xbd446f11	-0.047957484
92	0x3f318908	0.6934972
93	0x3f35b9f4	0.70986867
94	0x3f31d531	0.6946593
95	0xbd9d5f2e	-0.0768417
96	0x3b04d845	0.0020270508
97	0x3f3c3878	0.73523664
98	0x3d0d27c4	0.03446175
99	0x3f53203d	0.82471067
100	0xbd649fb6	-0.055816375
101	0x3f2b1e48	0.6684308
102	0xbd0fda86	-0.03512051
103	0xbcb174a0	-0.021662056
104	0x3f2c3833	0.67273253
105	0x3f360f85	0.7111743
106	0x3f306c6f	0.68915457
107	0x3f46780a	0.77526915
108	0x3f2885b6	0.65829027
109	0x3f3218c7	0.6956906
110	0x3d3ec9dd	0.04657923
111	0x3f441fcd	0.76611024
112	0x3f3e355b	0.74300164
113	0x3f3e76ac	0.7439983
114	0xbd901622	-0.070354715
115	0x3c8537b9	0.016261922
116	0x3f34a48f	0.70563596
117	0xbc4305b2	-0.011903213
118	0x3da5eab8	0.0810141
119	0x3c33b5bb	0.010968621
120	0x3f2ff1ea	0.68728507
121	0x3f5321ee	0.8247365
122	0x3f383ef5	0.71971065
123	0x3f4acbc8	0.79217196
124	0x3f47360d	0.7781685
125	0x3f35471d	0.70811635
126	0x3f36b49f	0.71369356
127	0x3f3407ab	0.703242
128	0x3f525f29	0.8217645
129	0xbd90a506	-0.07062726
130	0x3d47f873	0.048820924
131	0x3f5c469f	0.8604526
132	0x3f4ba930	0.79555035
133	0xbcba280b	-0.022724172
134	0x3f49827c	0.7871473
135	0x3d94c2c6	0.072637126
136	0x3f49c448	0.78815126
137	0xba6335a9	-0.0008667359
138	0xbd94fd5e	-0.072748885
139	0x3d8645cc	0.065562814
140	0x3f4dd470	0.8040228
141	0x3f484a33	0.7823822
142	0xbccfb368	-0.025354102
143	0x3c5b14d8	0.013371669
144	0x3d2817c1	0.04103828
145	0xbd86cde7	-0.065822415
146	0xbd968426	-0.07349424
147	0xbd7100ab	-0.058838528
148	0xbd157edc	-0.036497936
149	0xbd5a0f96	-0.05323752
150	0x3f49e3b6	0.78863084
151	0x3f38ac1d	0.72137624
152	0x3f3fead0	0.7496767
153	0x3ce3fbd3	0.02783004
154	0x3f49ffa5	0.7890571
155	0x3f58f956	0.84755456
156	0x3be4c059	0.0069809374
157	0x3f57917e	0.8420638
158	0x3f50c587	0.815514
159	0x3f36fcad	0.714793
160	0xbcf8754f	-0.030329375
161	0xbd372857	-0.044716205
162	0x3f45b841	0.77234274
163	0xbc539836	-0.012914708
164	0x3f52f6e5	0.8240798
165	0x3f4312f7	0.76200813
166	0x3da69a15	0.081348576
167	0x3f498d82	0.7873155
168	0x3d646f32	0.055770107
169	0x3f59fb49	0.85149056
170	0x3f3eb3e0	0.7449322
171	0xbd50f4d4	-0.051014736
172	0x3f51a479	0.8189159
173	0xbd99be5b	-0.075070105
174	0x3a174617	0.0005770637
175	0x3f378bdd	0.7169779
176	0x3f4f104d	0.8088425
177	0xbc283aff	-0.010267972
178	0x3bb0dcc8	0.005397413
179	0x3f4e5cff	0.8061065
180	0xbd194c55	-0.03742631
181	0x3d82001a	0.063476756
182	0xbc36d96a	-0.011160234
183	0x3f4190a2	0.7561132
184	0xbd96d35d	-0.07364533
185	0xbd22aeb3	-0.039717387
186	0x3d9f6e4a	0.07784708
187	0x3d202789	0.039100204
188	0x3f36dd89	0.71431786
189	0x3f41a1eb	0.7563769
190	0x3f58a379	0.8462444
191	0xbd307370	-0.04307884
192	0x3cf86b49	0.030324595
193	0xbd6676fb	-0.056265812
194	0x3f449ddd	0.7680338
195	0x3f439565	0.7639983
196	0xbd57c01c	-0.052673444
197	0xbd711e82	-0.058866985
198	0x3f5c3c22	0.86029255
199	0x3f3dcca3	0.74140376
200	0x3f4dada7	0.803431
201	0xbd832d66	-0.064051434
202	0x3cc713e9	0.024301486
203	0x3f5c8f0c	0.8615577
204	0x3f476ae5	0.77897483
205	0xbd3fe8ed	-0.046852995
206	0x3f47d2bd	0.78055936
207	0x3c96eb1d	0.018422658
208	0xbcddde5c	-0.027083568
209	0x3d98e841	0.07466174
210	0xbb4ef334	-0.0031578066
211	0x3f4b1b52	0.7933856
212	0x3d5430da	0.0518044
213	0x3d6623ef	0.056186613
214	0x3f3d2593	0.7388546
215	0x3f604830	0.8761015
216	0xbb77731b	-0.0037757817
217	0x3f59b54e	0.85042274
218	0x3f5f390a	0.8719641
219	0xbd89a8f6	-0.0672168
220	0x3f42eb80	0.76140594
221	0x3f51cf76	0.81957185
222	0x3f5d120a	0.8635565
223	0x3d621d3b	0.055203658
224	0x3c5e4ade	0.013567654
225	0x3f579871	0.8421698
226	0x3d53c3b6	0.051700316
227	0x3f4034de	0.7508067
228	0xbd7c40d1	-0.06158525
229	0x3f5ed942	0.8705026
230	0x3d600ed3	0.054701637
231	0xbd3d73b6	-0.04625293
232	0x3f3ceee3	0.7380201
233	0x3f4b77d5	0.79479724
234	0x3f5063d2	0.81402314
235	0x3f5ccc6c	0.86249423
236	0x3f4fe9a1	0.81215864
237	0x3f5998df	0.8499889
238	0x3d7783db	0.06042848
239	0x3f33d685	0.70249206
240	0x3f5d4bb4	0.8644364
241	0x3f45fb30	0.77336407
242	0xbd16ec48	-0.03684643
243	0xbd42b725	-0.04753794
244	0x3f38ab3f	0.721363
245	0xbd8d19fe	-0.06889723
246	0x3da2e7e6	0.07954387
247	0x3d083afb	0.033259373
248	0x3f54c37a	0.83110774
249	0x3f50333f	0.81328195
250	0x3f607ad3	0.87687415
251	0x3f4dfce8	0.8046403
252	0x3f4e05ff	0.804779
253	0x3f4dbd36	0.8036684
254	0x3f53242b	0.8247706
255	0x3f3fa63b	0.7486302

layer2.bias f4 [128]
0	0x3f3c38fb	0.73524445
1	0x3f35a728	0.70958185
2	0xbc889ea9	-0.016677218
3	0xbd5c97fe	-0.05385589
4	0x3d03d69d	0.032187093
5	0xbd5b0ee9	-0.053481016
6	0x3f32344c	0.6961105
7	0x3f4c64ba	0.79841197
8	0x3ccc833a	0.024964917
9	0x3d488ac8	0.048960477
10	0xbd5379a8	-0.051629692
11	0x3d938d3d	0.072046734
12	0x3d7672c3	0.06016804
13	0x3be0071c	0.006836785
14	0x3f102a32	0.56314385
15	0x3f3bf108	0.7341466
16	0x3f5cb7a0	0.8621769
17	0xbc74eb82	-0.014948728
18	0x3f5149bd	0.8175314
19	0xbd7574da	-0.05992589
20	0xbd7ddae4	-0.06197633
21	0x3d36e4db	0.044651847
22	0xbbd41bb2	-0.006473028
23	0x3d9ddbad	0.077079155
24	0x3b5ffbe5	0.003417724
25	0xbc023635	-0.007947494
26	0x3ce75b66	0.028241824
27	0xbd0bfe18	-0.03417787
28	0x3d3c9ded	0.046049047
29	0x3f5031ef	0.8132619
30	0x3d7b017a	0.061280705
31	0x3f4729e4	0.77798295
32	0xbd45bf9f	-0.048278447
33	0x3f3a10ab	0.72681683
34	0x3f5182de	0.8184031
35	0xbd72ad12	-0.059247084
36	0x3da41b54	0.08013025
37	0xbdaa32ef	-0.08310496
38	0x3f2a7f82	0.6660081
39	0x3f381d56	0.71919763
40	0xbdad444c	-0.08460292
41	0x3d101699	0.0351778
42	0xbd10e8cc	-0.035378262
43	0xbd749d0b	-0.05972008
44	0xbcc59499	-0.024118708
45	0x3f3f2944	0.7467234
46	0xbd0f30f4	-0.034958795
47	0x3f3d2dec	0.73898196
48	0x3cf0bbb2	0.029386375
49	0x3f3478bd	0.7049673
50	0x3d990899	0.07472343
51	0xbd73a563	-0.059483897
52	0xbb97e4af	-0.0046354155
53	0x3f405947	0.75136226
54	0xbd456bdd	-0.04819857
55	0x3f3dc9fc	0.7413633
56	0x3f4c3f2b	0.79783887
57	0x3f1e8f60	0.6193752
58	0xbcd9d00c	-0.026588462
59	0x3d5a2a38	0.05326292
60	0x3d4fbd18	0.050717443
61	0x3f38a23b	0.72122544
62	0xbd93fd96	-0.07226102
63	0x3d81e22f	0.06341969
64	0x3cc909a1	0.024540724
65	0x3f4f0773	0.8087074
66	0xbd0101e1	-0.031495932
67	0xbbaf9388	-0.0053581633
68	0xbd42c426	-0.047550343
69	0xbcab5f9f	-0.02091962
70	0xbd23356d	-0.039845873
71	0x3f5b02bb	0.8555104
72	0x3f4aaabd	0.79166776
73	0xbd88ebb2	-0.0668558
74	0x3d050871	0.032478753
75	0x3f49975a	0.7874657
76	0x3f344548	0.70418215
77	0xbd636213	-0.055513453
78	0xbc6eca2a	-0.014574567
79	0x3f35841f	0.70904726
80	0xbcd0b156	-0.025475185
81	0xbbd6f652	-0.0065601254
82	0x3f2b2c4d	0.6686447
83	0xbcf55fd3	-0.02995292
84	0xbd0089f3	-0.03138156
85	0x3f44a983	0.76821154
86	0xbd241a8d	-0.040064383
87	0x3d20ba25	0.03924002
88	0xbd01155e	-0.031514518
89	0xbd4a7f83	-0.04943801
90	0xbcd27304	-0.02568961
91	0x3f4137ef	0.7547597
92	0x3f489214	0.783479
93	0xbd71ae5b	-0.05900417
94	0x3d5fbec7	0.0546253
95	0x3cf03a63	0.029324716
96	0xbc7e49d7	-0.0155205345
97	0x3da1b3ac	0.07895598
98	0x3f3bcfeb	0.7336413
99	0xbda5c9a8	-0.080951035
100	0x3d13bd0e	0.03606897
101	0x3da06322	0.07831408
102	0xbd230c7d	-0.03980683
103	0x3f4b35a1	0.79378706
104	0x3f55f909	0.8358312
105	0x3ba087e4	0.004899012
106	0xbd8ff520	-0.07029176
107	0x3f3b883a	0.7325474
108	0xbc8be738	-0.017078027
109	0xbc11097e	-0.008852361
110	0x3f351fed	0.7075184
111	0x3d21ca79	0.039499734
112	0xbd43e2e4	-0.0478238
113	0x3f545352	0.82939637
114	0x3f3e97d6	0.74450433
115	0xbd9a7fcb	-0.07543906
116	0x3f35b3b2	0.7097732
117	0x3f277ba8	0.6542306
118	0xbd0c9dcb	-0.03433017
119	0x3cb3fd3f	0.021971343
120	0x3b950f73	0.004548961
121	0x3f35b6fd	0.7098234
122	0xbd931566	-0.07181816
123	0x3d7266eb	0.05918018
124	0x3f3af858	0.7303519
125	0x3f4b074e	0.7930802
126	0x3c84e861	0.016224088
127	0xbbf60382	-0.0075077424
