Backup/Video_Streaming_DQN_1h40/models_450000.pth (torch, 173013 bytes, 12 tensors)

layer1.weight f4 [128, 28]
0.099491686 -0.045557205 -0.110994406 -0.113086924 -0.1056831 -0.107925914 -0.074781194 0.8103953
0.03018626 0.09465942 -0.02210736 0.08768854 -0.10265277 0.0142949 0.03149812 0.051816083
0.053758357 -0.026450774 0.06517834 0.0043079793 -0.021669744 -0.10271503 0.0892564 0.059708532
0.06576686 0.10245621 -0.05279638 0.92234063 -0.07352105 -0.07981556 0.10538119 -0.03090455
-0.11418211 -0.10519405 -0.11678936 -0.06503399 -0.062380686 -0.1012121 0.100208715 0.043856543
0.043262806 0.080815196 -0.117485635 0.10334337 -0.08594332 -0.07923069 -0.023708867 -0.00013282757
-0.042058047 -0.020973427 0.07319453 -0.018971069 -0.08424187 -0.09821893 0.10273667 -0.09643249
0.053741537 -0.021577375 -0.10019614 0.07202474 0.039535496 -0.06723077 0.0072615333 -0.09275417
-0.01560475 -0.07369872 0.07286117 0.055038385 0.117639296 -0.057826657 0.050754018 -0.05911381
-0.006248705 0.06146023 0.07733319 0.07000944 0.04230043 -0.02192822 -0.07381094 0.013829043
-0.037366178 -0.013136951 -0.0016768778 0.007378732 0.10433547 0.047426973 -0.024730917 0.101496235
-0.10002348 0.10699177 0.009670608 0.9125605 0.10012145 -0.013918096 0.0061736465 0.0032341464
0.08001927 -0.07709198 0.06741611 0.09118522 0.043191496 -0.019804943 0.056319643 -0.09755158
-0.06828316 0.01789916 0.074766636 0.095771246 0.02986188 0.016310614 -0.031190977 0.92158836
0.06962107 0.034098636 -0.0958956 0.014068291 0.023639549 0.023604516 -0.021173753 0.7598997
-0.10011655 -0.03739641 -0.06197059 -0.041309584 -0.07323206 0.03518661 -0.10173174 0.04313086
-0.01272887 0.108401395 -0.06910139 0.08553093 0.020173168 -0.1029361 0.0758488 -0.013224476
0.03723626 0.027794981 -0.108300924 0.8122053 -0.058072086 0.046021722 -0.084294796 0.016442724
-0.01611581 -0.016735628 -0.0036891226 -0.07435311 0.08848762 0.01496211 -0.041791454 -0.04529987
-0.03451139 -0.107712336 0.046959963 0.10805004 0.0348117 0.0774416 -0.10009356 -0.09231693
-0.06585313 0.0979964 0.10619196 0.11797241 -0.11301299 0.108732454 -0.11107891 0.05435954
0.054470293 0.045913797 0.035070032 0.098531105 0.08784389 -0.10962169 -0.028150188 0.7290995
0.023859523 0.0012074147 0.1192024 -0.0016304671 -0.09393846 -0.06622721 -0.09903712 -0.03759483
-0.06362974 -0.07862753 -0.09892988 -0.00506094 -0.010335768 -0.035939407 -0.05047345 -0.02743387
-0.10248399 -0.06955881 0.01903981 0.8234346 0.009839766 0.035088986 0.09810417 -0.067075476
0.048232187 0.07389049 0.1073611 0.02215201 -0.0012433822 0.0511697 -0.05709814 -0.11602274
-0.1055613 0.08435748 -0.065576516 0.017139148 -0.048265845 0.11780774 0.004210665 0.102941066
-0.05023598 -0.00953197 0.022564558 0.08282876 0.082681015 -0.11472634 -0.06670737 -0.024227485
-0.11000411 0.033155143 -0.031460177 -0.022750793 0.05525788 -0.01998648 0.024847593 0.9318969
-0.052363813 -0.00035958958 0.06299878 0.11081468 0.009781182 0.08045291 -0.039895933 -0.11240878
0.025320943 -0.054743208 0.012502872 0.08955797 0.08992142 0.03624635 -0.030632505 -0.08175102
0.07288876 0.07384875 -0.075793326 0.85567546 0.06072578 -0.053284347 0.07636841 -0.016568318
00000000: 4cc2 cb3d 319a 3abd 0951 e3bd 1e9a e7bd
00000010: 6270 d8bd 4308 ddbd e226 99bd 1176 4f3f
00000020: 2d49 f73c ccdc c13d 7f1a b5bc 0d96 b33d
00000030: 9e3b d2bd 2835 6a3c 2c04 013d 1a3d 543d
00000040: b931 5c3d 4baf d8bc 397c 853d f329 8d3b
00000050: bf84 b1bc 425c d2bd 0fcc b63d ef90 743d
00000060: c7b0 863d 90d4 d13d 0441 58bd 841e 6c3f
00000070: 3492 96bd 5776 a3bd 18d2 d73d 8a2b fdbc
00000080: 4fd8 e9bd fa6f d7bd 432f efbd 8a30 85bd
00000090: e482 7fbd 4a48 cfbd 3a3a cd3d eba2 333d
000000a0: 5734 313d 7082 a53d 4f9c f0bd b0a5 d33d
000000b0: 0d03 b0bd b343 a2bd 1939 c2bc a147 0bb9
000000c0: 0f45 2cbd 77d0 abbc 04e7 953d 3769 9bbc
000000d0: 0087 acbd 0227 c9bd 9a67 d23d 667e c5bd
000000e0: 1620 5c3d 09c3 b0bc a233 cdbd b581 933d
000000f0: f9ef 213d 49b0 89bd 28f2 ed3b e6f5 bdbd
00000100: 11ab 7fbc 5bef 96bd 3d38 953d ee6f 613d
00000110: dfec f03d a5db 6cbd 72e3 4f3d 5321 72bd
00000120: f0c1 ccbb b9bd 7b3d dd60 9e3d 1c61 8f3d
00000130: 3743 2d3d cfa2 b3bc 312a 97bd 3693 623c
00000140: 470d 19bd 5e3c 57bc afca dbba 4ac9 f13b
00000150: d6ad d53d c942 423d 7e98 cabc 42dd cf3d
00000160: 1cd9 ccbd 801e db3d 7871 1e3c 919d 693f
00000170: 7a0c cd3d ba08 64bc 4d4c ca3b f9f3 533b
00000180: 25e1 a33d 66e2 9dbd 7511 8a3d 51bf ba3d
00000190: 91e9 303d fa3d a2bc 6daf 663d 1fc9 c7bd
000001a0: 0bd8 8bbd 42a1 923c 401f 993d b723 c43d
000001b0: e7a0 f43c d69d 853c 3884 ffbc 37ed 6b3f
000001c0: 7e95 8e3d 03ab 0b3d ea64 c4bd b07e 663c
000001d0: baa7 c13c 425e c13c 9474 adbc c988 423f
000001e0: e809 cdbd fa2c 19bd e0d4 7dbd 3d34 29bd
000001f0: b1fa 95bd d61f 103d bb58 d0bd fca9 303d
00000200: c08c 50bc 8d01 de3d 0885 8dbd d72a af3d
00000210: 3342 a53c 29d0 d2bd 9e56 9b3d 79ab 58bc
00000220: 0c85 183d 4db2 e33c e0cc ddbd b0ec 4f3f
00000230: ffdc 6dbd 4681 3c3d c0a2 acbd e4b2 863c
00000240: 4e05 84bc 2819 89bc 35c5 71bb 7146 98bd
00000250: ff38 b53d a323 753c 842d 2bbd 5b8c 39bd
00000260: d15b 0dbd 4998 dcbd 1759 403d 5749 dd3d
00000270: b796 0e3d b499 9e3d dafd ccbd a910 bdbd
00000280: 01de 86bd 56b2 c83d 2c7b d93d 859b f13d
00000290: 5b73 e7bd 1faf de3d 577d e3bd 1ca8 5e3d
000002a0: 3e1c 5f3d 1b10 3c3d 98a5 0f3d adca c93d
000002b0: 7fe7 b33d 5681 e0bd 399b e6bc 44a6 3a3f
000002c0: 0c75 c33c 1d42 9e3a 6320 f43d 66b5 d5ba
000002d0: cf62 c0bd 22a2 87bd f9d3 cabd 09fd 19bd
000002e0: 4f50 82bd 7807 a1bd c09b cabd 3ed6 a5bb
000002f0: 5a57 29bc 3335 13bd 40bd 4ebd ffbc e0bc
00000300: 20e3 d1bd d974 8ebd 60f9 9b3c 9ccc 523f
00000310: f836 213c 78b9 0f3d d7ea c83d de5e 89bd
00000320: 1d8f 453d e653 973d 23e0 db3d 2278 b53c
00000330: fcf8 a2ba 5297 513d bddf 69bd 559d edbd
00000340: 8630 d8bd 9dc3 ac3d fb4c 86bd 6667 8c3c
00000350: 68b2 45bd 2f45 f13d 9ef9 893b c4d2 d23d
00000360: 3ec4 4dbd fb2b 1cbc 4fd9 b83c 20a2 a93d
00000370: aa54 a93d a5f5 eabd e09d 88bd b878 c6bc
00000380: d649 e1bd b0cd 073d 63dc 00bd df5f babc
00000390: 1656 623d b0ba a3bc 2e8d cb3c cc90 6e3f
000003a0: 707b 56bd 4c87 bcb9 8105 813d cff2 e23d
000003b0: 4041 203c 7fc4 a43d eb69 23bd 9336 e6bd
000003c0: de6d cf3c 6a3a 60bd d9d8 4c3c 2b6a b73d
000003d0: b928 b83d 0d77 143d 05f1 fabc 146d a7bd
000003e0: b446 953d 033e 973d 8839 9bbd 8c0d 5b3f
000003f0: 98bb 783d b040 5abd 0a67 9c3d 48ba 87bc

layer1.bias f4 [128]
0.8746112 -0.011678943 0.071316175 0.7829946 0.88829356 -0.07086821 0.9148477 -0.05073197
0.82377636 -0.030855486 -0.015204203 -0.04223292 0.68991065 0.68389004 -0.080037005 -0.059293862
-0.066989146 0.03489436 -0.0038864801 -0.03149286 -0.090303145 -0.10158473 0.8171134 0.8099857
0.729989 0.022110458 0.796885 0.90358835 -0.04705556 0.9084257 0.92647576 0.88350475
-0.08338883 -0.05254527 0.7996569 0.018835375 0.879633 0.91051316 -0.04822412 0.8672942
-0.05831303 0.8948407 0.8494743 0.07405247 0.9247935 -0.10107556 0.09963276 0.89336926
0.8808463 -0.11099659 -0.09555312 0.85573834 0.040884014 -0.059127375 0.056661848 0.8967462
-0.0062336377 -0.046670042 0.044210616 0.046780158 0.78063804 0.9022874 0.89397216 -0.08607581
0.009556008 -0.04016616 0.9240182 0.9276159 -0.016740736 0.08006079 0.7946054 0.9366602
0.88864523 0.04602216 -0.09037374 0.9062761 0.8985632 0.07231348 0.9008465 -0.09918694
0.056092292 0.098895624 -0.11102 0.9309196 -0.058335215 0.06912296 0.8610472 0.73300403
-0.014153954 0.71179116 0.9241407 -0.11564175 0.9134765 0.7344193 0.8407112 0.049876507
-0.10808413 0.915414 0.06507938 0.7828151 0.05805474 0.9170203 -0.06943685 -0.09642989
0.8931504 0.8105254 0.8578761 0.7900073 0.7705643 0.76265126 -0.02834365 0.9184496
0.7463259 0.73154646 -0.095765255 0.003871456 0.87898785 -0.0059572305 -0.09757855 0.06697986
0.8453442 0.8740074 0.7477783 0.7794916 0.8299359 0.81628597 0.8829243 0.87457865
00000000: 85e6 5f3f 0a59 3fbc 370e 923d 5672 483f
00000010: 3567 633f 5a23 91bd 7533 6a3f 54cc 4fbd
00000020: 02e3 523f a5c4 fcbc 0d1b 79bc 6dfc 2cbd
00000030: fc9d 303f 6b13 2f3f 71ea a3bd 1fde 72bd
00000040: 9b31 89bd 63ed 0e3d 51b4 7ebb a8fe 00bd
00000050: dbf0 b8bd a80b d0bd 582e 513f 395b 4f3f
00000060: 8fe0 3a3f fe20 b53c a800 4c3f 9151 673f
00000070: 55bd 40bd 968e 683f 842d 6d3f 5e2d 623f
00000080: c3c7 aabd b639 57bd 51b6 4c3f a54c 9a3c
00000090: a12f 613f 6417 693f a886 45bd fe06 5e3f
000000a0: a5d9 6ebd 4814 653f 2677 593f d2a8 973d
000000b0: 44bf 6c3f b400 cfbd 430c cc3d d9b3 643f
000000c0: 257f 613f 2e52 e3bd 5bb1 c3bd ab11 5b3f
000000d0: ff75 273d 8c2f 72bd 4116 683d 2991 653f
000000e0: 8b43 ccbb 1629 3fbd 3116 353d 8d9c 3f3d
000000f0: e5d7 473f 4ffc 663f 5cdb 643f 8448 b0bd
00000100: cd90 1c3c 4585 24bd 758c 6c3f 3c78 6d3f
00000110: de23 89bc e9f6 a33d 426b 4b3f f6c8 6f3f
00000120: 417e 633f bc81 3c3d de15 b9bd b601 683f
00000130: 3d08 663f 1719 943d e09d 663f 8622 cbbd
00000140: 08c1 653d ca89 ca3d 745e e3bd bf50 6e3f
00000150: e8f0 6ebd 5790 8d3d 976d 5c3f 27a6 3b3f
00000160: fce5 67bc f237 363f 7c94 6c3f 95d5 ecbd
00000170: 99d9 693f e702 3c3f d938 573f 4f4b 4c3d
00000180: 365b ddbd 9258 6a3f 5748 853d 9266 483f
00000190: cfca 6d3d d8c1 6a3f e834 8ebd 097d c5bd
000001a0: 81a5 643f 987e 4f3f c59d 5b3f eb3d 4a3f
000001b0: b443 453f 1d3d 433f f130 e8bc 831f 6b3f
000001c0: 370f 3f3f a146 3b3f 9320 c4bd 41b8 7d3b
000001d0: 5905 613f df34 c3bb 43d7 c7bd bd2c 893d
000001e0: 7a68 583f f3be 5f3f 666e 3f3f c38c 473f
000001f0: ae76 543f 1ef8 503f 5407 623f 63e4 5f3f

layer2.weight f4 [128, 128]
0.7786656 0.01642377 -0.0065373117 0.7114063 0.70466805 0.027723918 0.755552 -0.053546797
0.7498875 -0.034904387 0.014965818 -0.044818338 0.7342025 0.70792156 0.024923205 0.045547884
-0.009341799 0.02484065 -0.052451044 -0.025814477 -0.018601364 0.054297745 0.78154546 0.7265441
0.76609784 0.054096237 0.75459135 0.7008207 0.02391369 0.7734216 0.69343466 0.73384744
-0.040027972 0.029803447 0.7506086 -0.03407324 0.7504812 0.78601485 0.0008152621 0.7611712
0.05319477 0.7326674 0.7491507 -0.046144374 0.7497965 0.026953487 0.027741268 0.7868752
0.7029068 0.007502054 -0.012854202 0.7809034 0.03052107 0.030297851 -0.03621094 0.78515995
-0.0182653 0.053367727 -0.01969384 -0.013418982 0.74998796 0.7729807 0.7603186 0.011420815
-0.050582975 -0.037446942 0.77041733 0.78718394 0.041457232 -0.029366171 0.727802 0.72440255
0.7066646 0.0040500583 -0.023146242 0.7262618 0.7751289 0.0053385217 0.75041795 -0.0052976976
0.03857261 0.0001344503 -0.016941434 0.7072028 -0.004781827 -0.02660162 0.7553778 0.71748227
0.0497515 0.79003155 0.78293085 -0.031968635 0.7156679 0.7262673 0.71637005 -0.05120993
0.0013494893 0.7435225 0.022944456 0.7996751 -0.0372261 0.69970685 -0.02340343 -0.014424232
0.7028006 0.72694224 0.7126271 0.76952404 0.691891 0.7171299 0.031027554 0.76392585
0.7490971 0.74977094 -0.04688078 0.010826258 0.7234352 -0.007932512 0.053929698 0.007303841
0.7114379 0.79970795 0.73247975 0.7787817 0.7709863 0.7251748 0.7285321 0.72206044
0.80482197 -0.047057915 0.032566402 0.8327678 0.7871155 -0.015132304 0.7821357 0.048364356
0.78272897 -0.00057806115 -0.048436966 0.043648448 0.79254735 0.7793018 -0.016909892 0.008918243
0.027327051 -0.043821517 -0.048921466 -0.03921972 -0.02429875 -0.035503466 0.7829983 0.7409367
0.7600826 0.018560946 0.7832617 0.8238353 0.004655856 0.81971407 0.8004323 0.7355844
-0.02023549 -0.029776512 0.77332735 -0.008607725 0.80646634 0.76816434 0.054157753 0.78221244
0.03719525 0.8262832 0.7569822 -0.034016836 0.80280024 -0.049969852 0.000384077 0.7373395
0.79561555 -0.006837492 0.0035939906 0.79381907 -0.024908792 0.042259548 -0.007431583 0.7644412
-0.04901964 -0.026441641 0.05187294 0.026048888 0.7351707 0.7645763 0.8229133 -0.028684942
0.020232245 -0.037525713 0.7715944 0.7692179 -0.03510056 -0.039239272 0.832801 0.75428414
0.79188293 -0.042640865 0.016207756 0.83359313 0.7771412 -0.031206554 0.77816135 0.012262264
-0.018063309 0.049683966 -0.0021063718 0.78574675 0.034524478 0.03747291 0.75267726 0.84434485
-0.002518864 0.8257114 0.84130555 -0.044751104 0.7679876 0.80344015 0.8351218 0.036817618
0.009048898 0.81973237 0.034457564 0.7609155 -0.04107075 0.8401422 0.036482938 -0.030814199
0.752047 0.7866174 0.7993262 0.8343581 0.7980525 0.8255117 0.040312804 0.72782415
0.83582383 0.77387875 -0.02452525 -0.031678185 0.7407312 -0.045871396 0.05295271 0.022142868
0.81164074 0.7989247 0.8449327 0.7928334 0.79288244 0.79227436 0.80698967 0.7592842
00000000: a156 473f 248b 863c f236 d6bb b91e 363f
00000010: 2065 343f 451d e33c db6b 413f e353 5bbd
00000020: a1f8 3f3f e7f7 0ebd 3133 753c 6f93 37bd
00000030: b2f4 3b3f 593a 353f c02b cc3c 6b90 3a3d
00000040: 580e 19bc 9e7e cb3c e8d6 56bd e278 d3bc
00000050: e361 98bc 5067 5e3d 5d13 483f cbfe 393f
00000060: fd1e 443f 0494 5d3d e62c 413f fc68 333f
00000070: a5e6 c33c f5fe 453f ef84 313f 6ddd 3b3f
00000080: 5ff4 23bd 5c26 f43c e327 403f 6290 0bbd
00000090: 891f 403f 4538 493f 50b7 553a 1edc 423f
000000a0: c2e2 593d 1790 3b3f 57c8 3f3f e201 3dbd
000000b0: aaf2 3f3f 8fcd dc3c a841 e33c a770 493f
000000c0: b3f1 333f cad3 f53b 6e9a 52bc 49e9 473f
000000d0: 5307 fa3c 3333 f83c ec51 14bd 3e00 493f
000000e0: 1ca1 95bc 1e98 5a3d fa54 a1bc 4adb 5bbc
000000f0: 36ff 3f3f 10e2 453f 3da4 423f 5f1e 3b3c
00000100: 1830 4fbd f761 19bd 123a 453f e384 493f
00000110: 0fcf 293d 5391 f0bc 3b51 3a3f 7272 393f
00000120: f9e7 343f 5ab6 843b 309d bdbc 4bec 393f
00000130: d96e 463f c4ee ae3b 641b 403f 4f98 adbb
00000140: 50fe 1d3d 3afb 0c39 c3c8 8abc 3e0b 353f
00000150: dfb0 9cbb a4eb d9bc 7160 413f ebac 373f
00000160: 3bc8 4b3d 823f 4a3f 286e 483f 8bf1 02bd
00000170: 0336 373f a7ec 393f 0764 373f 81c1 51bd
00000180: 59e1 b03a 7e57 3e3f 03f6 bb3c 82b7 4c3f
00000190: 657a 18bd fd1f 333f 8db8 bfbc 9d53 6cbc
000001a0: bdea 333f e318 3a3f bb6e 363f 87ff 443f
000001b0: c51f 313f d395 373f 7f2d fe3c a590 433f
000001c0: d4c4 3f3f fdf0 3f3f 1006 40bd 9e60 313c
000001d0: 0d33 393f 5ef7 01bc 63e5 5c3d 0f55 ef3b
000001e0: cb20 363f a9b9 4c3f cb83 3b3f 3d5e 473f
000001f0: 5c5f 453f 0ea5 393f 1481 3a3f f4d8 383f
00000200: d008 4e3f cdbf 40bd 5964 053d 4530 553f
00000210: 6780 493f 7ced 77bc 0c3a 483f b419 463d
00000220: ed60 483f 0789 17ba d765 46bd b7c8 323d
00000230: 62e4 4a3f 5380 473f 9d86 8abc d31d 123c
00000240: fbdc df3c 317e 33bd e061 48bd dba4 20bd
00000250: 2c0e c7bc 156c 11bd 9472 483f 07ae 3d3f
00000260: c694 423f 200d 983c d783 483f dfe6 523f
00000270: 2790 983b c8d8 513f 22e9 4c3f 424f 3c3f
00000280: e6c4 a5bc dfed f3bc c8f8 453f 6a07 0dbc
00000290: 9474 4e3f 6ba6 443f 85d4 5d3d 133f 483f
000002a0: 0c5a 183d 4c87 533f 96c9 413f 3d55 0bbd
000002b0: 5184 4d3f 30ad 4cbd f15d c939 48c2 3c3f
000002c0: 76ad 4b3f 0a0d e0bb 2889 6b3b ba37 4b3f
000002d0: 860d ccbc 5918 2d3d a384 f3bb 6bb2 433f
000002e0: d1c8 48bd 249c d8bc b878 543d 7a64 d53c
000002f0: 2634 3c3f 46bb 433f 72aa 523f affc eabc
00000300: 18be a53c 90b4 19bd 3687 453f 77eb 443f
00000310: 9bc5 0fbd 5cb9 20bd 7232 553f c418 413f
00000320: d7b8 4a3f 30a8 2ebd 21c6 843c 5c66 553f
00000330: baf2 463f e3a4 ffbc 9535 473f aae7 483c
00000340: 81f9 93bc 6a81 4b3d 0e0b 0abb b326 493f
00000350: 8a69 0d3d 327d 193d 75af 403f fc26 583f
00000360: 8713 25bb d361 533f cd5f 573f ef4c 37bd
00000370: d69a 443f 41ae 4d3f 8bca 553f 12ce 163d
00000380: d441 143c fbd9 513f 6023 0d3d 5ccb 423f
00000390: ce39 28bd 8f13 573f 226f 153d 0f6e fcbc
000003a0: 2786 403f c25f 493f a4a0 4c3f 7e98 553f
000003b0: 2b4d 4c3f bc54 533f 0a1f 253d af52 3a3f
000003c0: 8df8 553f eb1c 463f 2de9 c8bc fcc0 01bd
000003d0: 8fa0 3d3f a5e3 3bbd f1e4 583d f664 b53c
000003e0: b0c7 4f3f 5486 4c3f 824d 583f 21f7 4a3f
000003f0: 58fa 4a3f 7ed2 4a3f e096 4e3f 7360 423f

layer2.bias f4 [128]
0.744746 0.7336632 -0.0111031225 -0.03591912 0.021428015 -0.0356692 0.7212591 0.79032844
0.0166597 0.03266302 -0.034412168 0.04798054 0.040133752 0.0045597535 0.636185 0.74556446
0.84660494 -0.009969304 0.80406314 -0.03996727 -0.041323803 0.029733608 -0.0068714526 0.051376153
0.0022794318 -0.005290818 0.018835472 -0.0227552 0.030680893 0.8020699 0.040873695 0.77773935
-0.03219084 0.75286996 0.80012035 -0.03950059 0.05332708 -0.055355288 0.7065367 0.7370354
-0.056374125 0.023440644 -0.023570966 -0.039825786 -0.016081218 0.7617692 -0.023298308 0.75268084
0.019587243 0.7302722 0.049727187 -0.039663404 -0.0030849038 0.75674176 -0.032135542 0.7493439
0.78446525 0.67043966 -0.017730094 0.035521608 0.033825725 0.73763585 -0.04811985 0.042224675
0.016373383 0.7952984 -0.020981614 -0.0035678241 -0.031686768 -0.01393658 -0.02661415 0.8364528
0.7841428 -0.044510443 0.021622455 0.7863464 0.7297793 -0.03702414 -0.009712073 0.73408437
-0.01698773 -0.004370388 0.70849556 -0.019976746 -0.020911718 0.7745367 -0.026663033 0.026137862
-0.020992972 -0.032993615 -0.017125573 0.75972956 0.78378963 -0.039333597 0.036432046 0.019544857
-0.010348066 0.0525786 0.75048447 -0.053886704 0.024019923 0.052170113 -0.02649856 0.7880569
0.81408393 0.0032634207 -0.046839852 0.74729437 -0.011370328 -0.0058978084 0.7281164 0.026303131
-0.031876087 0.8078656 0.75800484 -0.05022809 0.74013764 0.6910973 -0.022856735 0.014630419
0.0030287085 0.73350215 -0.04783202 0.039454605 0.75175685 0.78755647 0.010801035 -0.0050076
00000000: ada7 3e3f 5ad1 3b3f dfe9 35bc ed1f 13bd
00000010: ce89 af3c de19 12bd 70a4 383f f752 4a3f
00000020: ec79 883c a9c9 053d c6f3 0cbd 3e87 443d
00000030: 4a63 243d fc69 953b 05dd 223f 50dd 3e3f
00000040: 1abb 583f 4b56 23bc 15d7 4d3f b8b4 23bd
00000050: 2643 29bd e593 f33c ec29 e1bb cd6f 523d
00000060: 8562 153b 995e adbb d94c 9a3c 1d69 babc
00000070: 7f56 fb3c 7454 4d3f 2d6b 273d ed19 473f
00000080: 8bda 03bd 16bc 403f b0d4 4c3f 5fcb 21bd
00000090: 7f6d 5a3d 3abc 62bd 97df 343f 5aae 3c3f
000000a0: 8ee8 66bd 9806 c03c e617 c1bc 5d20 23bd
000000b0: c2bc 83bc 4e03 433f 18dc bebc b1af 403f
000000c0: 6d75 a03c 1ef3 3a3f bcae 4b3d 1876 22bd
000000d0: 192c 4abb d4b9 413f 8fa0 03bd 00d5 3f3f
000000e0: b7d2 483f efa1 2b3f b43e 91bc 1b7f 113d
000000f0: d88c 0a3d b4d5 3c3f 5219 45bd c8f3 2c3d
00000100: 7921 863c ad98 4b3f a2e1 abbc 28d2 69bb
00000110: fcc9 01bd 4156 64bc eb05 dabc c521 563f
00000120: 95bd 483f 9550 36bd 9321 b13c ff4d 493f
00000130: d1d2 3a3f a0a6 17bd 631f 1fbc f4ec 3b3f
00000140: da29 8bbc 7935 8fbb f75f 353f 46a6 a3bc
00000150: 0d4f abbc 0a48 463f 6f6c dabc 121f d63c
00000160: 74f9 abbc 5024 07bd ee4a 8cbc a37d 423f
00000170: 70a6 483f 441c 21bd c539 153d 891c a03c
00000180: ef8a 29bc a85c 573d c01f 403f 4eb8 5cbd
00000190: 6ec5 c43c 54b0 553d 8213 d9bc 19be 493f
000001a0: ce67 503f 1ddf 553b 25db 3fbd af4e 3f3f
000001b0: 9d4a 3abc 6742 c1bb d665 3a3f aa79 d73c
000001c0: 8090 02bd 48d0 4e3f 9b0c 423f f8bb 4dbd
000001d0: a979 3d3f c1eb 303f 0c3e bbbc 6db4 6f3c
000001e0: 4c7d 463b ccc6 3b3f 82eb 43bd 279b 213d
000001f0: 2373 403f 4d9d 493f d3f6 303c cb16 a4bb

layer3.weight f4 [7, 128]
0.6261924 0.57503897 -0.015122029 -0.035443567 0.010552407 -0.047665495 0.582448 0.5714186
0.049464952 0.03046603 -0.0510993 -0.017832309 -0.028433867 0.030855924 0.5335275 0.59519327
0.5158451 0.038525444 0.580248 0.02206959 0.02729672 -0.017276824 -0.0197046 0.057497527
0.034307417 -0.04232354 0.014902922 -0.013690574 0.027331525 0.5673168 0.0014526153 0.5795526
0.037488442 0.5556656 0.61240405 0.009526159 0.04960376 0.036647808 0.56495196 0.6070817
-0.023279782 0.05134434 0.008312959 -0.018876497 0.020667179 0.5856178 0.04877174 0.58146095
0.018626526 0.5717177 0.017782217 0.0049944324 0.039047625 0.6236723 -0.031079495 0.6237865
0.62440526 0.5860418 0.011893709 0.028987648 -0.029350163 0.59018195 -0.020925097 -0.017186798
-0.0129426075 0.5850735 0.026651088 -0.023613738 -0.048829343 -0.02477134 -0.018823205 0.5378879
0.5781273 -0.047130737 -0.048218735 0.5575461 0.5947973 0.0086982185 -0.0041074 0.5836106
0.050042793 -0.018158149 0.5706409 0.051062293 0.014063419 0.57213473 -0.04252219 0.03893309
0.013479541 0.016965205 -0.035393022 0.6258866 0.5478788 0.012065735 -0.015956076 -0.04702692
-0.05274958 0.041546065 0.58556825 0.03465148 -0.050007984 0.0074816095 -0.03588774 0.56640995
0.59425336 -0.018920863 -0.0226307 0.6273724 0.017319644 0.031622496 0.5984845 0.050912015
0.040420137 0.60906845 0.6185901 -0.026836218 0.5357235 0.60965484 -0.0071165003 -0.04023241
0.053956505 0.5836099 -0.022332832 0.007268329 0.5526563 0.55807215 0.00196842 -0.017502805
0.39520028 0.37996757 0.010153865 -0.026634935 0.012150839 0.036252666 0.36151966 0.38324156
-0.03383203 -0.0042043757 0.013571309 0.006816889 -0.008752616 0.047999874 0.38650504 0.38751087
0.40971 0.00439195 0.43288025 -0.03317757 0.01697398 -0.00015588036 0.048202034 0.048771545
0.042147897 0.04227694 -0.018915268 0.004919309 -0.048986755 0.4319455 0.0136724645 0.3758722
0.010419746 0.41531694 0.39239573 0.01372392 -0.009858248 -0.0024896543 0.40704188 0.41198808
0.011805238 -0.026404362 -0.01200547 0.029040841 0.04694906 0.43871102 -0.015051109 0.3462616
0.029789185 0.33130205 0.01904271 -0.008488831 -0.027371895 0.34241918 0.017050078 0.38388494
0.39751846 0.41359925 0.018970458 -0.015721058 0.04949712 0.3664821 -0.039650153 -0.052784517
0.03301211 0.41797486 0.027438698 0.024325954 0.032901 0.022769824 0.0033422948 0.43029115
0.35807294 0.030978769 0.015488044 0.37934348 0.4211488 -0.010357104 -0.048015166 0.36055127
-0.02610607 0.029701835 0.37765354 0.0486779 0.041492473 0.3436794 0.03307635 -0.036629636
-0.05331452 -0.04187298 -0.01577559 0.39734295 0.40567523 0.025940105 0.016837738 0.0072492952
0.013999982 0.019734427 0.43077692 0.0060656867 -0.010668823 0.020442596 -0.019835278 0.3661341
0.38231537 0.009149226 0.016446318 0.42433384 0.0052200183 -0.053413883 0.38455185 -0.049924813
0.0468499 0.42020077 0.40531975 0.011431185 0.41418505 0.3827349 -0.044308823 -0.010863
0.012347786 0.38474843 0.0037910605 -0.01199019 0.42344776 0.385891 -0.022423899 0.030933883
00000000: 254e 203f c135 133f 63c2 77bc 462d 11bd
00000010: 01e4 2c3c e53c 43bd 501b 153f 7d48 123f
00000020: c39b 4a3d e593 f93c 804d 51bd 1015 92bc
00000030: 24ee e8bc 90c5 fc3c 4295 083f 965e 183f
00000040: 6d0e 043f dbcc 1d3d 228b 143f 49cb b43c
00000050: 5f9d df3c 2088 8dbc 8b6b a1bc 8782 6b3d
00000060: ef85 0c3d 735b 2dbd 632b 743c 6e4e 60bc
00000070: 5de6 df3c ac3b 113f ae65 be3a 8f5d 143f
00000080: 7b8d 193d 1a40 0e3f 83c6 1c3f 9b13 1c3c
00000090: 502d 4b3d 031c 163d b1a0 103f b569 1b3f
000000a0: 3eb5 bebc 714e 523d 1433 083c e2a2 9abc
000000b0: 374e a93c 0ceb 153f e0c4 473d a0da 143f
000000c0: a896 983c 175c 123f 03ac 913c 56a8 a33b
000000d0: 67f0 1f3d fda8 1f3f 6d9a febc 79b0 1f3f
000000e0: 06d9 1f3f d606 163f d5dd 423c 8177 ed3c
000000f0: c16f f0bc 2a16 173f 1c6b abbc 54cb 8cbc
00000100: 3b0d 54bc 60c7 153f 6253 da3c 9971 c1bc
00000110: 4701 48bd 44ed cabc 1f33 9abc 05b3 093f
00000120: 2700 143f 290c 41bd 0281 45bd 57bb 0e3f
00000130: a344 183f f982 0e3c 5e97 86bb 8167 153f
00000140: acf9 4c3d 66c0 94bc 8615 123f b226 513d
00000150: 416a 663c 6c77 123f bf2b 2ebd 4e78 1f3d
00000160: 4bd9 5c3c 9dfa 8a3c 46f8 10bd 1b3a 203f
00000170: c941 0c3f 5caf 453c 51b6 82bc 4d9f 40bd
00000180: f20f 58bd 352c 2a3d cde7 153f b6ee 0d3d
00000190: 2cd5 4cbd 4a28 f53b 06ff 12bd 3e00 113f
000001a0: fd20 183f edff 9abc 0564 b9bc 7a9b 203f
000001b0: ede1 8d3c 9786 013d 4836 193f 1e89 503d
000001c0: 968f 253d e9eb 1b3f ec5b 1e3f a1d7 dbbc
000001d0: 2d25 093f 5712 1c3f 8831 e9bb bdca 24bd
000001e0: 7f01 5d3d 7567 153f 58f3 b6bc 2a2b ee3b
000001f0: e27a 0d3f d1dd 0e3f 9c00 013b 0b62 8fbc
00000200: b157 ca3e 1c8b c23e 665c 263c 8231 dabc
00000210: 5014 473c ad7d 143d 1b19 b93e 3d38 c43e
00000220: 7493 0abd dcc4 89bb 325a 5e3c 3660 df3b
00000230: 2267 0fbc 849b 443d fde3 c53e d367 c63e
00000240: 82c5 d13e 59ea 8f3b 7ba2 dd3e 34e5 07bd
00000250: 040d 8b3c d173 23b9 7f6f 453d acc4 473d
00000260: 46a3 2c3d 962a 2d3d 31f4 9abc 2832 a13b
00000270: 56a6 48bd f627 dd3e 7902 603c 5272 c03e
00000280: 95b7 2a3c 6ca4 d43e 18e8 c83e 4bda 603c
00000290: 7d84 21bc 7829 23bb cb67 d03e 1af0 d23e
000002a0: c26a 413c f64d d8bc 97b2 44bc 0fe7 ed3c
000002b0: a84d 403d bb9e e03e ed98 76bc 3349 b13e
000002c0: 7308 f43c 6ca0 a93e 75ff 9b3c bd14 0bbc
000002d0: 063b e0bc 9151 af3e 9bac 8b3c 918c c43e
000002e0: 8a87 cb3e 48c3 d33e ef67 9b3c 73c9 80bc
000002f0: 7ebd 4a3d 8ba3 bb3e 3368 22bd 9434 58bd
00000300: b537 073d cd00 d63e 1fc7 e03c 3947 c73c
00000310: 33c3 063d c887 ba3c 670a 5b3b 1f4f dc3e
00000320: 5655 b73e 30c7 fd3c 91c1 7d3c 4f39 c23e
00000330: d1a0 d73e d8b0 29bc 8dab 44bd 2d9a b83e
00000340: 66dc d5bc 4351 f33c ce5b c13e 7a62 473d
00000350: 03f4 293d bff6 af3e 117b 073d f508 16bd
00000360: 5360 5abd 0083 2bbd cf3b 81bc 8970 cb3e
00000370: aab4 cf3e 5880 d43c 4cef 893c 7f8b ed3b
00000380: 2e60 653c 18aa a13c cb8e dc3e abc2 c63b
00000390: 49cc 2ebc 3b77 a73c 987d a2bc ee75 bb3e
000003a0: d7be c33e a3e6 153c 6eba 863c 4942 d93e
000003b0: b00c ab3b 84c8 5abd fbe3 c43e f67d 4cbd
000003c0: aee5 3f3d 8e24 d73e 1286 cf3e dd49 3b3c
000003d0: 1010 d43e d4f5 c33e 2b7d 35bd b9fa 31bc
000003e0: 5e4e 4a3c bffd c43e 7173 783b 8072 44bc
000003f0: 25ce d83e 8193 c53e 53b2 b7bc 0e69 fd3c

layer3.bias f4 [7]
0.57078284 0.13554968 0.1914449 0.20559451 0.16613778 0.13965003 0.13360292
00000000: d31e 123f 89cd 0a3e 220a 443e 5e87 523e
00000010: 0620 2a3e 6b00 0f3e 34cf 083e

layer1.weight f4 [128, 28]
0.09951255 -0.045566153 -0.11101677 -0.113109306 -0.105703965 -0.10794827 -0.07479615 0.8108187
0.03019223 0.09467879 -0.022111831 0.08770644 -0.102673635 0.014297882 0.031504825 0.051826514
0.05376953 -0.026455987 0.06519175 0.0043088174 -0.021674214 -0.10273589 0.08927428 0.059720468
0.065780275 0.10247707 -0.05280681 0.9227883 -0.07353596 -0.07983195 0.10540205 -0.030910878
-0.11420597 -0.10521491 -0.1168132 -0.0650474 -0.06239334 -0.10123296 0.100229576 0.043865483
0.043271746 0.08083159 -0.11750951 0.10336423 -0.085961215 -0.07924708 -0.02371371 -0.00013285376
-0.042066243 -0.020977525 0.07320947 -0.018974802 -0.08425826 -0.098238304 0.10275753 -0.09645186
0.05375271 -0.02158185 -0.100217 0.07203966 0.039543692 -0.06724418 0.0072630243 -0.09277353
-0.015607914 -0.07371365 0.07287613 0.05504956 0.11766317 -0.057838596 0.05076445 -0.059125733
-0.006250009 0.06147289 0.077349566 0.07002434 0.042309366 -0.02193269 -0.07382586 0.013831839
-0.037373636 -0.013139559 -0.0016772272 0.0073802224 0.10435633 0.04743666 -0.02473576 0.101517096
-0.10004434 0.10701413 0.009672655 0.9130075 0.100142315 -0.013920892 0.0061748573 0.003234798
0.080035664 -0.07710694 0.06742952 0.091203116 0.043200444 -0.019809041 0.05633082 -0.09757095
-0.068296574 0.017902886 0.074781545 0.09579062 0.029867848 0.016313966 -0.031197304 0.92203546
0.06963448 0.034105342 -0.095914975 0.014071086 0.023644391 0.023609359 -0.021178227 0.7603114
-0.10013741 -0.037403885 -0.061983246 -0.04131778 -0.07324702 0.03519408 -0.101752594 0.043139808
-0.012731478 0.10842374 -0.069114804 0.0855488 0.020177266 -0.10295695 0.07586374 -0.013227083
0.037243735 0.027800573 -0.10832327 0.8126296 -0.05808402 0.0460314 -0.08431119 0.016446076
-0.016119163 -0.016738981 -0.0036898688 -0.07436804 0.0885055 0.01496509 -0.04179965 -0.04530881
-0.034518097 -0.1077347 0.04696965 0.1080724 0.034818407 0.07745798 -0.10011442 -0.09233629
-0.06586654 0.09801576 0.106212825 0.11799629 -0.11303536 0.108754806 -0.11110126 0.054370716
0.05448147 0.045922738 0.035077512 0.098550476 0.08786177 -0.10964404 -0.02815578 0.72949934
0.023864366 0.0012076705 0.11922624 -0.0016307931 -0.093957834 -0.06624062 -0.09905648 -0.037602294
-0.06364315 -0.07864392 -0.09894925 -0.0050619645 -0.010337817 -0.035946887 -0.050483882 -0.027439462
-0.10250485 -0.06957222 0.01904355 0.8238587 0.009841815 0.035096437 0.098123536 -0.06708889
0.048241872 0.07390543 0.10738345 0.022156483 -0.0012436383 0.05118013 -0.05711008 -0.11604662
-0.10558216 0.08437387 -0.06558993 0.0171425 -0.04827553 0.11783161 0.004211503 0.10296193
-0.05024641 -0.0095338365 0.022569029 0.08284515 0.08269741 -0.11475022 -0.06672078 -0.024232328
-0.11002648 0.03316185 -0.031466883 -0.022755263 0.055269055 -0.019990578 0.024852809 0.9323438
-0.052374244 -0.0003596652 0.06301219 0.110837065 0.009783231 0.0804693 -0.03990413 -0.11243115
0.025326159 -0.054754388 0.012505479 0.08957585 0.08993932 0.036253814 -0.030638833 -0.08176741
0.0729037 0.07386371 -0.075808235 0.8561111 0.060738437 -0.05329485 0.076383345 -0.01657167
00000000: 3ccd cb3d 93a3 3abd c35c e3bd daa5 e7bd
00000010: 527b d8bd fc13 ddbd b92e 99bd d091 4f3f
00000020: b255 f73c f4e6 c13d df23 b5bc 6f9f b33d
00000030: 8e46 d2bd aa41 6a3c 340b 013d 0a48 543d
00000040: 703d 5c3d 3aba d8bc 4183 853d fb30 8d3b
00000050: 1f8e b1bc 3267 d2bd 6fd5 b63d 739d 743d
00000060: cfb7 863d 80df d13d f44b 58bd db3b 6c3f
00000070: 059a 96bd ef7e a3bd 08dd d73d cf38 fdbc
00000080: d2e4 e9bd ea7a d7bd c23b efbd 9237 85bd
00000090: 2990 7fbd 3a53 cfbd 2a45 cd3d 4bac 333d
000000a0: b73d 313d 088b a53d d3a8 f0bd a0b0 d33d
000000b0: 6f0c b0bd 4b4c a2bd 4143 c2bc a94e 0bb9
000000c0: a74d 2cbd 0fd9 abbc d9ee 953d 0b71 9bbc
000000d0: 988f acbd 2a31 c9bd 8a72 d23d 8e88 c5bd
000000e0: cd2b 5c3d 6bcc b0bc 923e cdbd 8789 933d
000000f0: 91f8 213d 51b7 89bd aafe ed3b 0c00 bebd
00000100: 56b8 7fbc 2ff7 96bd 1540 953d a67b 613d
00000110: 63f9 f03d 2ae8 6cbd 62ee 4f3d d32d 72bd
00000120: e0cc ccbb ffca 7b3d 7369 9e3d ec68 8f3d
00000130: 964c 2d3d 2fac b3bc 0332 97bd f09e 623c
00000140: 1915 19bd 4e47 57bc 68d6 dbba cbd5 f13b
00000150: c6b8 d53d f14c 423d a6a2 cabc 32e8 cf3d
00000160: 0ce4 ccbd 392a db3d 0e7a 1e3c dcba 693f
00000170: 6a17 cd3d 7414 64bc 7556 ca3b e8fe 533b
00000180: bde9 a33d 3eea 9dbd 7d18 8a3d b3c8 ba3d
00000190: f3f2 303d 9246 a2bc 25bb 663d 47d3 c7bd
000001a0: 13df 8bbd 13a9 923c 1127 993d df2d c43d
000001b0: 6bad f43c dea4 853c 7d91 ffbc 840a 6c3f
000001c0: 869c 8e3d 0bb2 0b3d 126f c4bd 6a8a 663c
000001d0: e2b1 c13c 6a68 c13c f67d adbc c5a3 423f
000001e0: d814 cdbd d134 19bd 25e2 7dbd d53c 29bd
000001f0: 8902 96bd ab27 103d aa63 d0bd 5eb3 303d
00000200: b097 50bc 440d de3d 108c 8dbd 3634 af3d
00000210: cb4a a53c 18db d2bd 735e 9b3d 68b6 58bc
00000220: e38c 183d 07be e33c 97d8 ddbd 7e08 503f
00000230: 82e9 6dbd 6c8b 3c3d 58ab acbd ecb9 863c
00000240: 560c 84bc 3020 89bc bad1 71bb 454e 98bd
00000250: 5f42 b53d 2330 753c 1c36 2bbd bb95 39bd
00000260: d962 0dbd 03a4 dcbd 3f63 403d 1055 dd3d
00000270: bf9d 0e3d 4aa2 9e3d ca08 cdbd cf1a bdbd
00000280: 09e5 86bd 7dbc c83d 1c86 d93d 0aa8 f13d
00000290: 157f e7bd d7ba de3d 0f89 e3bd d4b3 5e3d
000002a0: f627 5f3d 7b19 3c3d 70ad 0f3d d5d4 c93d
000002b0: dff0 b33d 0e8d e0bd f3a6 e6bc 78c0 3a3f
000002c0: 347f c33c b34a 9e3a e32c f43d 56c0 d5ba
000002d0: f76c c0bd 2aa9 87bd 20de cabd dd04 1abd
000002e0: 5757 82bd 1010 a1bd e8a5 cabd d6de a5bb
000002f0: f25f 29bc 0b3d 13bd 30c8 4ebd b9c8 e0bc
00000300: 10ee d1bd e17b 8ebd 3801 9c3c 67e8 523f
00000310: 903f 213c 48c1 0f3d fef4 c83d e665 89bd
00000320: 4599 453d bb5b 973d dbeb db3d 8381 b53c
00000330: 9401 a3ba 42a2 513d 42ec 69bd daa9 edbd
00000340: 763b d8bd 35cc ac3d 0354 86bd 6e6e 8c3c
00000350: 90bc 45bd b351 f13d a600 8a3b b4dd d23d
00000360: 2ecf 4dbd cf33 1cbc afe2 b83c b8aa a93d
00000370: 425d a93d 2a02 ebbd e8a4 88bd e082 c6bc
00000380: 9055 e1bd b8d4 073d 6be3 00bd 3f69 babc
00000390: ce61 623d 48c3 a3bc 1e98 cb3c 15ae 6e3f
000003a0: 6086 56bd 7291 bcb9 890c 813d 8bfe e23d
000003b0: d849 203c 17cd a43d 8372 23bd 4e42 e6bd
000003c0: ce78 cf3c 2346 60bd c8e3 4c3c 8b73 b73d
000003d0: 1b32 b83d e17e 143d 4afe fabc ac75 a7bd
000003e0: 894e 953d db45 973d 5941 9bbd 192a 5b3f
000003f0: dec8 783d b34b 5abd df6e 9c3d 50c1 87bc

layer1.bias f4 [128]
0.8750461 -0.011681363 0.071331106 0.7834064 0.8887291 -0.07088317 0.9152952 -0.050742403
0.8241995 -0.030861814 -0.015207367 -0.042241115 0.69031006 0.68428934 -0.0800534 -0.0593058
-0.06700256 0.034901068 -0.0038872713 -0.031499565 -0.09032103 -0.101605594 0.8175369 0.8104095
0.7303887 0.02211493 0.79730904 0.9040238 -0.047065247 0.90886134 0.92692274 0.88393945
-0.08340522 -0.052555703 0.80007964 0.018839108 0.8800691 0.910949 -0.048233807 0.8677298
-0.05832497 0.89527553 0.849897 0.07406741 0.92524046 -0.10109642 0.09965362 0.89380497
0.88128114 -0.11101897 -0.095572494 0.8561737 0.04089221 -0.05913932 0.056673024 0.8971816
-0.006234941 -0.04667972 0.044219565 0.046789836 0.78104925 0.9027234 0.89440733 -0.08609371
0.009557874 -0.040174354 0.92446536 0.9280633 -0.016744088 0.08007718 0.7950286 0.9371077
0.8890811 0.04603184 -0.09039163 0.906712 0.8989992 0.07232844 0.90128195 -0.09920633
0.056103483 0.098914996 -0.111042365 0.9313663 -0.058347143 0.06913637 0.8614825 0.7334034
-0.0141567495 0.71219105 0.9245884 -0.11566563 0.9139244 0.73482007 0.8411346 0.049886934
-0.10810649 0.9158616 0.065092795 0.7832266 0.058066674 0.9174675 -0.06945026 -0.09644926
0.89358604 0.8109492 0.85831165 0.7904186 0.7709759 0.7630623 -0.028349243 0.9188965
0.74673766 0.73194647 -0.09578463 0.0038722472 0.87942326 -0.005958441 -0.09759792 0.066993274
0.84576845 0.87444305 0.7481903 0.77990294 0.8303587 0.8167091 0.88335997 0.87501466
00000000: 0503 603f 3063 3fbc 0b16 923d 528d 483f
00000010: c083 633f 322b 91bd c950 6a3f 44d7 4fbd
00000020: bdfe 523f ead1 fcbc 5228 79bc 0505 2dbd
00000030: 29b8 303f 962d 2f3f 09f3 a3bd a3ea 72bd
00000040: a338 89bd 6cf4 0e3d 97c1 7ebb b005 01bd
00000050: 3bfa b8bd 9816 d0bd 194a 513f ff76 4f3f
00000060: c1fa 3a3f 5f2a b53c 721c 4c3f 1b6e 673f
00000070: 7dc7 40bd 23ab 683f cf4a 6d3f db49 623f
00000080: 5bd0 aabd a644 57bd 05d2 4c3f 7954 9a3c
00000090: 354c 613f f433 693f d090 45bd 8a23 5e3f
000000a0: 2ae6 6ebd c730 653f da92 593f a7b0 973d
000000b0: 8fdc 6c3f a40b cfbd 3217 cc3d 67d0 643f
000000c0: a49b 613f ea5d e3bd 83bb c3bd 332e 5b3f
000000d0: 977e 273d 123c 72bd f921 683d b1ad 653f
000000e0: 7a4e ccbb 3c33 3fbd 931f 353d b3a6 3f3d
000000f0: d8f2 473f e118 673f e1f7 643f e651 b0bd
00000100: a198 1c3c dd8d 24bd c3a9 6c3f 8e95 6d3f
00000110: e62a 89bc 81ff a33d ff86 4b3f 4ae6 6f3f
00000120: d29a 633f e28b 3c3d 3f1f b9bd 471e 683f
00000130: d024 663f ef20 943d 6aba 663f b02c cbbd
00000140: c4cc 653d f293 ca3d 2e6a e3bd 066e 6e3f
00000150: 6afd 6ebd 5f97 8d3d 1e8a 5c3f 53c0 3b3f
00000160: b6f1 67bc 2752 363f d3b1 6c3f 1ae2 ecbd
00000170: f3f6 693f 2b1d 3c3f 9954 573f 3e56 4c3d
00000180: ef66 ddbd e875 6a3f 5f4f 853d 8a81 483f
00000190: 52d7 6d3d 26df 6a3f f03b 8ebd 3187 c5bd
000001a0: 0ec2 643f 5e9a 4f3f 50ba 5b3f e058 4a3f
000001b0: ad5e 453f 0d58 433f ac3c e8bc cd3c 6b3f
000001c0: 332a 3f3f d860 3b3f bb2a c4bd 87c5 7d3b
000001d0: e221 613f 073f c3bb 6be1 c7bd c533 893d
000001e0: 4884 583f 80db 5f3f 6689 3f3f b8a7 473f
000001f0: 6392 543f d913 513f e123 623f f600 603f

layer2.weight f4 [128, 128]
0.7790716 0.016427122 -0.0065386156 0.7118004 0.7050631 0.027729513 0.75595886 -0.05355797
0.7502937 -0.034911122 0.0149688 -0.04482728 0.7345976 0.7083163 0.02492842 0.045556825
-0.009343669 0.024845865 -0.052461475 -0.025819693 -0.018605104 0.05430893 0.78195196 0.72693926
0.766504 0.054107413 0.75499845 0.7012155 0.023918534 0.773828 0.69382906 0.73424214
-0.040036168 0.029809419 0.75101584 -0.034079947 0.750887 0.78642154 0.00081542507 0.76157874
0.0532052 0.7330613 0.7495575 -0.046154052 0.7502034 0.026959075 0.027746864 0.7872817
0.70330185 0.0075035444 -0.012856809 0.78130966 0.0305274 0.030303812 -0.03621842 0.78556615
-0.018269027 0.05337891 -0.019697938 -0.013421777 0.7503945 0.7733875 0.7607249 0.01142305
-0.050593406 -0.0374544 0.7708238 0.7875907 0.041465428 -0.029372131 0.72819656 0.7247971
0.7070587 0.0040508965 -0.023151081 0.7266562 0.7755356 0.00533964 0.7508252 -0.0052988147
0.03858007 0.00013447649 -0.016944787 0.70759743 -0.00478276 -0.026606835 0.75578547 0.71787727
0.04976193 0.79043883 0.7833369 -0.03197534 0.71606356 0.7266624 0.7167644 -0.051220357
0.001349769 0.74392784 0.022948926 0.80009323 -0.037233565 0.70010144 -0.02340827 -0.014427217
0.70319515 0.7273369 0.7130215 0.7699306 0.6922859 0.7175252 0.031033881 0.7643323
0.7495036 0.75017786 -0.046890467 0.010828494 0.7238294 -0.0079341885 0.053940874 0.0073053325
0.71183294 0.80012655 0.73287505 0.7791879 0.77139217 0.7255698 0.7289265 0.722455
0.8052456 -0.0470676 0.032573108 0.83319205 0.7875284 -0.01513529 0.7825485 0.048374042
0.78314126 -0.0005781778 -0.04844665 0.04365739 0.79295945 0.7797136 -0.016913245 0.008920114
0.027332637 -0.043830466 -0.048931148 -0.039227914 -0.024303593 -0.035510916 0.7834098 0.74134946
0.7604948 0.018564684 0.78367335 0.8242589 0.0046567894 0.8201384 0.8008552 0.73599654
-0.020239588 -0.02978248 0.77373964 -0.008609401 0.80688953 0.7685764 0.054168932 0.78262454
0.03720272 0.8267073 0.75739473 -0.034023542 0.8032245 -0.049980283 0.00038415266 0.7377515
0.7960391 -0.00683889 0.003594736 0.79423845 -0.024914008 0.042267807 -0.007433073 0.76485354
-0.049029324 -0.026446857 0.05188337 0.026054103 0.7355803 0.7649886 0.82333726 -0.028690908
0.020236343 -0.03753319 0.77200717 0.7696302 -0.035108022 -0.039247468 0.83322555 0.75469613
0.7922934 -0.042649813 0.01621111 0.83401686 0.7775534 -0.031212881 0.77857316 0.012264685
-0.018067041 0.049694397 -0.002106791 0.78615904 0.034531184 0.037480365 0.7530901 0.84476936
-0.0025193763 0.82613593 0.8417296 -0.044760045 0.7684001 0.80386496 0.83554494 0.036825087
0.009050768 0.82015467 0.03446427 0.76132804 -0.041078947 0.84056586 0.036490407 -0.030820526
0.7524595 0.78703 0.7997501 0.83478147 0.7984775 0.82593584 0.040321 0.72822344
0.8362477 0.77429104 -0.02453009 -0.03168489 0.741143 -0.045880344 0.052963138 0.02214734
0.81206477 0.7993498 0.8453564 0.79324526 0.7932941 0.7926868 0.807413 0.7596965
00000000: 3d71 473f 2c92 863c e241 d6bb 8d38 363f
00000010: 047f 343f 0129 e33c 8586 413f 9a5f 5bbd
00000020: 3f13 403f f7fe 0ebd b33f 753c cf9c 37bd
00000030: 970e 3c3f 3854 353f b036 cc3c cb99 3a3d
00000040: 3016 19bc 8e89 cb3c d8e1 56bd d283 d3bc
00000050: bb69 98bc 0a73 5e3d 012e 483f b118 3a3f
00000060: 9b39 443f bc9f 5d3d 9447 413f dc82 333f
00000070: cdf0 c33c 9819 463f c89e 313f 4bf7 3b3f
00000080: f7fc 23bd e232 f43c 9342 403f 6a97 0bbd
00000090: 213a 403f ec52 493f 40c2 553a d3f6 423f
000000a0: b2ed 593d e8a9 3b3f 00e3 3f3f 080c 3dbd
000000b0: 540d 403f 47d9 dc3c 644d e33c 4b8b 493f
000000c0: 970b 343f 4be0 f53b 5ea5 52bc e903 483f
000000d0: 9914 fa3c b33f f83c c459 14bd dd1a 493f
000000e0: eda8 95bc d8a3 5a3d 925d a1bc 03e7 5bbc
000000f0: db19 403f b9fc 453f debe 423f bf27 3b3c
00000100: 083b 4fbd c969 19bd b554 453f 8b9f 493f
00000110: a7d7 293d d39d f0bc 176b 3a3f 4e8c 393f
00000120: cd01 353f 62bd 843b 56a7 bdbc 2406 3a3f
00000130: 8089 463f 26f8 ae3b 1536 403f aea1 adbb
00000140: 2306 1e3d 4202 0d39 cbcf 8abc 1b25 353f
00000150: b3b8 9cbb 94f6 d9bc 287b 413f cec6 373f
00000160: 2ad3 4b3d 335a 4a3f c488 483f 93f8 02bd
00000170: f14f 373f 8c06 3a3f df7d 373f 70cc 51bd
00000180: bbea b03a 0e72 3e3f 63ff bb3c e9d2 4c3f
00000190: 3982 18bd d939 333f b3c2 bfbc 2260 6cbc
000001a0: 9904 343f c032 3a3f 9488 363f 2c1a 453f
000001b0: a639 313f bbaf 373f c43a fe3c 48ab 433f
000001c0: 78df 3f3f a80b 403f 3810 40bd ff69 313c
000001d0: e24c 393f 66fe 01bc 1bf1 5c3d 9261 ef3b
000001e0: af3a 363f 18d5 4c3f b39d 3b3f dc78 473f
000001f0: f579 453f f1be 393f ed9a 3a3f d0f2 383f
00000200: 9324 4e3f f5c9 40bd 616b 053d 134c 553f
00000210: 769b 493f 02fa 77bc 1955 483f dc23 463d
00000220: f27b 483f db90 17ba ff6f 46bd 17d2 323d
00000230: 64ff 4a3f 4f9b 473f a58d 8abc ab25 123c
00000240: b2e8 df3c 9387 33bd 076c 48bd 73ad 20bd
00000250: 5418 c7bc e573 11bd 8b8d 483f 14c9 3d3f
00000260: caaf 423f f714 983c d19e 483f a202 533f
00000270: fb97 983b 97f4 513f d904 4d3f 456a 3c3f
00000280: 7ecd a5bc 63fa f3bc cd13 463f 720e 0dbc
00000290: 5090 4e3f 6cc1 443f 3ee0 5d3d 155a 483f
000002a0: e161 183d 17a3 533f 9fe4 413f 455c 0bbd
000002b0: 1fa0 4d3f 20b8 4cbd 1968 c939 48dd 3c3f
000002c0: 38c9 4b3f c418 e0bb aa95 6b3b 3653 4b3f
000002d0: 7618 ccbc 0221 2d3d 2391 f3bb 71cd 433f
000002e0: f9d2 48bd 14a7 d8bc a883 543d 6a6f d53c
000002f0: fe4e 3c3f 4bd6 433f 3bc6 523f 3209 ebbc
00000300: b0c6 a53c 67bc 19bd 43a2 453f 7c06 453f
00000310: 6ecd 0fbd f4c1 20bd 454e 553f c433 413f
00000320: bed3 4a3f 92b1 2ebd 29cd 843c 2182 553f
00000330: bd0d 473f 28b2 ffbc 9250 473f d1f1 483c
00000340: 5501 94bc 5a8c 4b3d 1612 0abb b841 493f
00000350: 9270 0d3d 0385 193d 83ca 403f ce42 583f
00000360: 1f1c 25bb a57d 533f 977b 573f 4f56 37bd
00000370: deb5 443f 18ca 4d3f 46e6 553f e7d5 163d
00000380: ac49 143c a8f5 513f 682a 0d3d 65e6 423f
00000390: 6642 28bd 532f 573f f776 153d 547b fcbc
000003a0: 30a1 403f cc7a 493f 6cbc 4c3f 3db4 553f
000003b0: 0569 4c3f 8870 533f a227 253d da6c 3a3f
000003c0: 5414 563f f037 463f 54f3 c8bc 04c8 01bd
000003d0: 8cbb 3d3f 07ed 3bbd e0ef 583d 576e b53c
000003e0: 7ae3 4f3f 30a2 4c3f 4769 583f 1f12 4b3f
000003f0: 5215 4b3f 86ed 4a3f 9eb2 4e3f 787b 423f

layer2.bias f4 [128]
0.74522847 0.73414105 -0.011105358 -0.035926584 0.021432485 -0.035676654 0.72172934 0.79081774
0.016663052 0.032669727 -0.034418873 0.047990225 0.040141948 0.004560686 0.6366524 0.7460446
0.8471304 -0.009971353 0.8045562 -0.039975464 -0.041332 0.029739577 -0.0068728505 0.05138658
0.0022798984 -0.005291936 0.018839201 -0.022759674 0.030687222 0.8025795 0.04088189 0.7782265
-0.032197546 0.75337285 0.8006113 -0.039508786 0.053338252 -0.05536647 0.7070171 0.7375163
-0.0563853 0.023445487 -0.023575809 -0.03983398 -0.01608457 0.7622658 -0.023303147 0.75316846
0.01959134 0.7307467 0.049737617 -0.0396716 -0.0030855092 0.75721866 -0.032142248 0.74982375
0.7849477 0.6708963 -0.017733833 0.03552906 0.03383243 0.73811966 -0.048129536 0.04223287
0.016376736 0.7957981 -0.020985711 -0.0035685697 -0.031693473 -0.013939374 -0.026619364 0.8369601
0.7846293 -0.04451939 0.021626925 0.78684145 0.73025495 -0.037031617 -0.00971412 0.73456573
-0.016991083 -0.00437132 0.7089706 -0.019980844 -0.020915816 0.7750409 -0.026668623 0.026143078
-0.02099707 -0.03300032 -0.017128926 0.76020557 0.7842768 -0.039341792 0.03643952 0.019548954
-0.010350115 0.05258903 0.75096446 -0.053897884 0.024024766 0.052180544 -0.026503775 0.78855044
0.8145805 0.0032640724 -0.04684953 0.7477812 -0.011372565 -0.005899019 0.72857744 0.026308347
-0.031882793 0.8083626 0.7584947 -0.05023852 0.74063236 0.6915626 -0.022861209 0.014633404
0.0030293139 0.7339852 -0.047841705 0.0394628 0.75224566 0.78805196 0.01080327 -0.0050086244
00000000: 4bc7 3e3f abf0 3b3f 3ff3 35bc c127 13bd
00000010: 2e93 af3c af21 12bd 41c3 383f 0873 4a3f
00000020: f480 883c b1d0 053d cefa 0cbd 6691 443d
00000030: e26b 243d cf71 953b a7fb 223f c7fc 3e3f
00000040: 8add 583f e35e 23bc 65f7 4d3f 50bd 23bd
00000050: be4b 29bd 6aa0 f33c a635 e1bb bc7a 523d
00000060: 596a 153b fa67 adbb ab54 9a3c 7f72 babc
00000070: c563 fb3c da75 4d3f c573 273d da39 473f
00000080: 93e1 03bd 0bdd 403f ddf4 4c3f f7d3 21bd
00000090: 3679 5a3d f4c7 62bd 13ff 343f decd 3c3f
000000a0: 46f4 66bd c010 c03c 0e22 c1bc f528 23bd
000000b0: cac3 83bc da23 433f 3ee6 bebc a6cf 403f
000000c0: 057e a03c 3712 3b3f acb9 4b3d b07e 22bd
000000d0: 4136 4abb 15d9 413f 97a7 03bd 73f4 3f3f
000000e0: 55f2 483f dcbf 2b3f 8b46 91bc eb86 113d
000000f0: e093 0a3d 69f5 3c3f 7a23 45bd 60fc 2c3d
00000100: 8128 863c 6db9 4b3f 3aea abbc aade 69bb
00000110: 04d1 01bd f961 64bc da10 dabc 0443 563f
00000120: 77dd 483f f759 36bd f32a b13c 716e 493f
00000130: fdf1 3a3f 77ae 17bd f927 1fbc 800c 3c3f
00000140: e230 8bbc 4a3d 8fbb 197f 353f deae a3bc
00000150: a557 abbc 1569 463f 2878 dabc 022a d63c
00000160: 0c02 acbc 582b 07bd f651 8cbc d59c 423f
00000170: 5dc6 483f dc24 21bd 9b41 153d 2125 a03c
00000180: 8793 29bc 9867 573d 353f 403f 07c4 5cbd
00000190: 96cf c43c 44bb 553d 721e d9bc 71de 493f
000001a0: 5988 503f 0cea 553b 4be5 3fbd 976e 3f3f
000001b0: ff53 3abc 8f4c c1bb 0d84 3a3f 9a84 d73c
000001c0: 8897 02bd daf0 4e3f b52c 423f e8c6 4dbd
000001d0: 159a 3d3f 3f0a 313f 6e47 bbbc f2c0 6f3c
000001e0: 7487 463b 74e6 3b3f aaf5 43bd bfa3 213d
000001f0: 2c93 403f c6bd 493f 3300 313c 631f a4bb

layer3.weight f4 [7, 128]
0.62646055 0.5752807 -0.015125009 -0.035451047 0.010554456 -0.04767518 0.5827104 0.5716581
0.049474634 0.030472357 -0.05110973 -0.017836036 -0.02843946 0.030862251 0.5337898 0.59545785
0.51607007 0.03853291 0.5804893 0.022074064 0.027302312 -0.017280176 -0.019708699 0.05750946
0.034314122 -0.042332478 0.014905903 -0.01369337 0.027337115 0.5675591 0.0014529177 0.5797972
0.0374959 0.5558909 0.6126487 0.009528025 0.049613483 0.03665529 0.56520426 0.60732955
-0.023284622 0.051354766 0.008314636 -0.018880235 0.020671276 0.585857 0.048781425 0.58171093
0.018630266 0.5719658 0.01778595 0.004995457 0.039055817 0.6239368 -0.031085823 0.6240532
0.6246661 0.5863004 0.011896131 0.02899361 -0.029356128 0.5904363 -0.020929195 -0.01719015
-0.012945214 0.5853206 0.026656501 -0.02361858 -0.04883903 -0.024776181 -0.018826945 0.5381141
0.5783776 -0.047140423 -0.04822842 0.5577736 0.5950368 0.008699895 -0.004108238 0.5838495
0.050053224 -0.018161887 0.5708895 0.051072724 0.014066216 0.57237923 -0.042531125 0.03894128
0.013482336 0.016968558 -0.0354005 0.62614536 0.5481115 0.012068156 -0.015959429 -0.047036607
-0.052760012 0.04155426 0.58581585 0.034658186 -0.050018415 0.0074831 -0.035895217 0.56665844
0.59449476 -0.018924603 -0.022635175 0.6276287 0.017322997 0.0316292 0.5987429 0.050922446
0.040428333 0.6093126 0.6188416 -0.02684181 0.5359527 0.6099136 -0.0071178977 -0.040240604
0.053967677 0.58385557 -0.022337306 0.0072698193 0.55289435 0.55830806 0.0019688392 -0.017506532
0.39523748 0.38000524 0.010155914 -0.026640158 0.01215326 0.036260147 0.36155102 0.38327888
-0.033838734 -0.004205214 0.013574104 0.006818286 -0.008754486 0.04800956 0.386542 0.387548
0.40975332 0.0043928847 0.43292955 -0.033184275 0.016977333 -0.00015591238 0.04821172 0.04878123
0.042156093 0.042285692 -0.018918997 0.0049203336 -0.04899644 0.43199462 0.01367526 0.37590954
0.010421795 0.41536015 0.39243332 0.013726716 -0.009860297 -0.0024901666 0.4070854 0.41203138
0.01180766 -0.026409578 -0.012007891 0.029046807 0.046958745 0.43876025 -0.015054094 0.34629306
0.029795146 0.33132756 0.019046439 -0.0084905075 -0.027377483 0.34245023 0.01705343 0.38392246
0.39756146 0.4136425 0.018974187 -0.015724411 0.049506806 0.3665134 -0.03965835 -0.05279495
0.033018816 0.4180182 0.027444286 0.024330797 0.032907706 0.022774298 0.0033429936 0.43034044
0.35810423 0.030985096 0.015491208 0.3793808 0.42119226 -0.010359153 -0.04802485 0.36058268
-0.026111286 0.029707795 0.37769064 0.048687585 0.04150067 0.34371045 0.033083055 -0.03663711
-0.053325698 -0.041881174 -0.015778942 0.3973856 0.40571848 0.02594532 0.016841091 0.0072507868
0.014002779 0.019738525 0.43082616 0.0060668974 -0.010671059 0.020446694 -0.019839376 0.36616564
0.38235277 0.009151091 0.016449671 0.42437714 0.005221043 -0.053425066 0.38458905 -0.049935244
0.046859577 0.42024428 0.405363 0.011433422 0.4142282 0.3827723 -0.044317763 -0.010865237
0.012350206 0.38478604 0.0037918366 -0.011992611 0.42349097 0.38592812 -0.02242837 0.03094021
00000000: b85f 203f 9945 133f e3ce 77bc 1e35 11bd
00000010: 99ec 2c3c 0d47 43bd 822c 153f 2f58 123f
00000020: eaa5 4a3d 2aa1 f93c 7058 51bd e11c 92bc
00000030: dff9 e8bc d5d2 fc3c 73a6 083f ed6f 183f
00000040: 2b1d 043f afd4 1d3d f29a 143f abd4 b43c
00000050: 19a9 df3c 288f 8dbc 2374 a1bc 0a8f 6b3d
00000060: f78c 0c3d d264 2dbd e337 743c 285a 60bc
00000070: 16f2 df3c 8e4b 113f d46f be3a 976d 143f
00000080: 4d95 193d de4e 0e3f 8cd6 1c3f 6f1b 1c3c
00000090: 8237 4b3d db23 163d 3ab1 103f f379 1b3f
000000a0: 64bf bebc 6059 523d 1c3a 083c b9aa 9abc
000000b0: cf56 a93c b9fa 153f 08cf 473d 02eb 143f
000000c0: 809e 983c 5a6c 123f d7b3 913c eeb0 a33b
000000d0: fef8 1f3d 52ba 1f3f b2a7 febc f3c1 1f3f
000000e0: 1eea 1f3f c817 163f fde7 423c 0284 ed3c
000000f0: 437c f0bc d526 173f b473 abbc 5cd2 8cbc
00000100: 2a18 54bc 92d7 153f bc5e da3c c17b c1bc
00000110: 6f0b 48bd 6bf7 cabc f73a 9abc d8c1 093f
00000120: 8e10 143f 5116 41bd 2a8b 45bd 40ca 0e3f
00000130: 5554 183f 018a 0e3c 669e 86bb 2977 153f
00000140: 9c04 4d3d 3dc8 94bc d025 123f a231 513d
00000150: fc75 663c 7287 123f 1e35 2ebd e480 1f3d
00000160: 04e5 5c3c a501 8b3c 1d00 11bd 104b 203f
00000170: 0951 0c3f 84b9 453c 59bd 82bc 75a9 40bd
00000180: e21a 58bd cd34 2a3d 07f8 153f bef5 0d3d
00000190: 1ce0 4cbd cb34 f53b dd06 13bd 8710 113f
000001a0: cf30 183f c507 9bbc 676d b9bc 46ac 203f
000001b0: f5e8 8d3c 9f8d 013d 3747 193f 0e94 503d
000001c0: 2e98 253d e9fb 1b3f 676c 1e3f 5be3 dbbc
000001d0: 3234 093f 4c23 1c3f 413d e9bb 55d3 24bd
000001e0: 360d 5d3d 8f77 153f bafc b6bc aa37 ee3b
000001f0: 7c8a 0d3f 47ed 0e3f a407 013b dc69 8fbc
00000200: 915c ca3e 0c90 c23e fe64 263c 763c dabc
00000210: 781e 473c 8585 143d 371d b93e 213d c43e
00000220: 7c9a 0abd e4cb 89bb eb65 5e3c ee6b df3b
00000230: fa6e 0fbc aca5 443d d5e8 c53e b16c c63e
00000240: 30cb d13e 30f2 8f3b f1a8 dd3e 3cec 07bd
00000250: 0c14 8b3c 697c 23b9 a779 453d d4ce 473d
00000260: deab 2c3d c333 2d3d 03fc 9abc c03a a13b
00000270: 7eb0 48bd 662e dd3e 330e 603c 3777 c03e
00000280: 2dc0 2a3c 16aa d43e 05ed c83e 05e6 603c
00000290: 158d 21bc 1032 23bb 7f6d d03e c7f5 d23e
000002a0: ea74 413c e658 d8bc bfbc 44bc 92f3 ed3c
000002b0: d057 403d 2fa5 e03e 72a5 76bc 534d b13e
000002c0: f314 f43c c4a3 a93e 4707 9c3c c51b 0bbc
000002d0: be46 e0bc a355 af3e a3b3 8b3c 7c91 c43e
000002e0: 2d8d cb3e f3c8 d33e c16f 9b3c 7bd0 80bc
000002f0: a6c7 4a3d a5a7 bb3e cb70 22bd 843f 58bd
00000300: bd3e 073d 7b06 d63e d7d2 e03c 6151 c73c
00000310: 3bca 063d 2a91 ba3c 2016 5b3b 9555 dc3e
00000320: 7059 b73e 75d4 fd3c d6ce 7d3c 333e c23e
00000330: 83a6 d73e 70b9 29bc b5b5 44bd 4b9e b83e
00000340: 56e7 d5bc c35d f33c ab60 c13e a26c 473d
00000350: 9bfc 293d d1fa af3e 1982 073d cb10 16bd
00000360: 0c6c 5abd 988b 2bbd d742 81bc 2076 cb3e
00000370: 55ba cf3e 488b d43c 54f6 893c 0298 ed3b
00000380: e96b 653c b0b2 a13c 3f95 dc3e d3cc c63b
00000390: aad5 2ebc d37f a73c 3086 a2bc 107a bb3e
000003a0: bec3 c33e 75ee 153c 76c1 863c f647 d93e
000003b0: 4815 ab3b 3ed4 5abd dbe8 c43e e688 4cbd
000003c0: d4ef 3f3d 422a d73e bd8b cf3e 3f53 3b3c
000003d0: b815 d43e bbfa c33e 8b86 35bd 1b04 32bc
000003e0: 8558 4a3c ad02 c53e 7680 783b a87c 44bc
000003f0: cfd3 d83e 5f98 c53e b3bb b7bc 5376 fd3c

layer3.bias f4 [7]
0.5711754 0.135555 0.19157524 0.20577402 0.16604932 0.1399747 0.13384402
00000000: 8d38 123f eece 0a3e 4d2c 443e 6db6 523e
00000010: d508 2a3e 8755 0f3e 680e 093e
