Backup/Video_Streaming_DQN_1h40/models_150000.pth (torch, 173013 bytes, 12 tensors)

layer1.weight f4 [128, 28]
0	0x3e0a532a	0.13508287
1	0xbd7ceeb0	-0.061751068
2	0xbe1a32e9	-0.15058483
3	0xbe1d0e4c	-0.15337485
4	0xbe12db25	-0.1434141
5	0xbe160266	-0.14649352
6	0xbdcf7a37	-0.101307325
7	0x3f877ca0	1.0584908
8	0x3d27d0b4	0.04097052
9	0x3e037f17	0.1284145
10	0xbcf55691	-0.029948505
11	0x3df350a5	0.11880616
12	0xbe0e7c95	-0.13914712
13	0x3c9ed2f1	0.019387694
14	0x3d2ee2e9	0.042696867
15	0x3d8fdb17	0.0702421
16	0x3d95735e	0.07297395
17	0xbd130814	-0.035896376
18	0x3db4d850	0.08830321
19	0x3bbf520a	0.0058386372
20	0xbcf08ee7	-0.029365016
21	0xbe0e9191	-0.13922717
22	0x3df798a7	0.12089663
23	0x3da5f20a	0.08102806
24	0x3db673b7	0.089087896
25	0x3e0e3a56	0.13889441
26	0xbd92b950	-0.07164252
27	0x3f9acce8	1.2093782
28	0xbdcbdd45	-0.09954313
29	0xbddd6ff5	-0.1081237
30	0x3e126a16	0.14298281
31	0xbd2babac	-0.041911766
32	0xbe1e931c	-0.15485805
33	0xbe1223ff	-0.14271544
34	0xbe223ee3	-0.15844302
35	0xbdb47367	-0.08811074
36	0xbdad2fb3	-0.084563635
37	0xbe0c9705	-0.13729484
38	0x3e0b44d5	0.13600476
39	0x3d7361cd	0.059419442
40	0x3d7023b1	0.058627788
41	0x3de03aa3	0.10948684
42	0xbe2339dc	-0.1594004
43	0x3e0f6eef	0.14007162
44	0xbdee8ca5	-0.116479196
45	0xbddbcdcf	-0.10732614
46	0xbd03befe	-0.032164566
47	0xb93c9959	-0.00017986204
48	0xbd69732f	-0.056994613
49	0xbce8d395	-0.028421203
50	0x3dcaf44a	0.09909876
51	0xbcd2a3e1	-0.02571291
52	0xbde9d31a	-0.114172176
53	0xbe088b15	-0.13334306
54	0x3e0e98dd	0.139255
55	0xbe0602a9	-0.13086952
56	0x3d95679c	0.072951525
57	0xbcef8c9f	-0.029241858
58	0xbe0b4099	-0.13598861
59	0x3dc7d6fd	0.09757803
60	0x3d5b5ba4	0.053554192
61	0xbdba7310	-0.09103978
62	0x3c2164e1	0.009850712
63	0xbe00cb8b	-0.12577645
64	0xbcad4c0f	-0.021154432
65	0xbdcc5fad	-0.09979186
66	0x3dca1115	0.098665394
67	0x3d98f22c	0.074680656
68	0x3e23713f	0.15961169
69	0xbda0a567	-0.07844048
70	0x3d8cfac3	0.068837665
71	0xbda4454e	-0.08021031
72	0xbc0af782	-0.008481862
73	0x3daabef8	0.08337206
74	0x3dd6c2e4	0.10486391
75	0x3dc2796a	0.09495814
76	0x3d6ae231	0.05734462
77	0xbcf361a7	-0.02970965
78	0xbdccb20c	-0.09994897
79	0x3c99b45c	0.01876276
80	0xbd4f565f	-0.05061948
81	0xbc91ff23	-0.017821854
82	0xbb152eae	-0.002276342
83	0x3c2408c8	0.010011859
84	0x3e10e277	0.1414889
85	0x3d83c5b2	0.06434192
86	0xbd098ae1	-0.03357971
87	0x3e0cf6c9	0.13766016
88	0xbe0b0666	-0.1357666
89	0x3e14bbe3	0.14524798
90	0x3c56d806	0.013113027
91	0x3f9937b4	1.1970124
92	0x3e0b276d	0.13589258
93	0xbc9aad5f	-0.018881498
94	0x3c095622	0.008382352
95	0x3b8fa6da	0.004383904
96	0x3dde019a	0.10840149
97	0xbdd61a57	-0.10454243
98	0x3dbaf4a0	0.0912869
99	0x3dfd2348	0.12360245
100	0x3d6fbfff	0.05853271
101	0xbcdbc602	-0.026827816
102	0x3d9c71d6	0.076389
103	0xbe0798da	-0.13241902
104	0xbdbd69f3	-0.09248724
105	0x3cc6b336	0.024255376
106	0x3dcf6f89	0.101286955
107	0x3e0512a6	0.12995395
108	0x3d25fd04	0.040524498
109	0x3cb50521	0.022097172
110	0xbd2d30a4	-0.042282715
111	0x3f9aac2c	1.2083793
112	0x3dc15f27	0.09441977
113	0x3d3d28e7	0.046181586
114	0xbe053fc9	-0.13012613
115	0x3c9c5158	0.019081756
116	0x3d035a59	0.032068584
117	0x3d03277c	0.032020077
118	0xbceb2403	-0.028703695
119	0x3f7cb3b6	0.9871172
120	0xbe0b25c6	-0.13588628
121	0xbd4f82bf	-0.0506618
122	0xbdac193e	-0.08403252
123	0xbd65445d	-0.0559734
124	0xbdcb0ddf	-0.09914755
125	0x3d43715b	0.047715526
126	0xbe0d4628	-0.13796294
127	0x3d6f6b38	0.05845186
128	0xbc8d679a	-0.017261315
129	0x3e16a896	0.14712748
130	0xbdbfd599	-0.093669124
131	0x3ded6c5d	0.11592934
132	0x3cdfe30a	0.02732994
133	0xbe0edc14	-0.1395114
134	0x3dd289d7	0.10280197
135	0xbc93055a	-0.017946888
136	0x3d4e97a5	0.05043759
137	0x3d1a73c1	0.037708048
138	0xbe168578	-0.14699352
139	0x3f87ca0e	1.0608537
140	0xbda15655	-0.07877795
141	0x3d7f9933	0.06240196
142	0xbde9fb77	-0.11424916
143	0x3cb67689	0.022273319
144	0xbcb2e46b	-0.021837434
145	0xbcb9a98f	-0.02266386
146	0xbba405fa	-0.0050055953
147	0xbdce3ffe	-0.10070799
148	0x3df57f3d	0.119871594
149	0x3ca656e5	0.020305106
150	0xbd67f562	-0.0566305
151	0xbd7b706b	-0.061386507
152	0xbd3f9a11	-0.04677779
153	0xbe15b7be	-0.14620873
154	0x3d8272ad	0.06369529
155	0x3e162dc7	0.146659
156	0x3d4160eb	0.04721157
157	0x3dd70b3c	0.1050019
158	0xbe0b1e05	-0.1358567
159	0xbe002cd7	-0.12517105
160	0xbdb6b005	-0.08920292
161	0x3e083a4f	0.13303493
162	0x3e1399b5	0.14414103
163	0x3e23e951	0.16006972
164	0xbe1cf475	-0.15327628
165	0x3e171c4d	0.1475689
166	0xbe1a5072	-0.1506975
167	0x3d9717a1	0.07377554
168	0x3d97650d	0.07392321
169	0x3d7f0067	0.062256243
170	0x3d42d272	0.047563978
171	0x3e08fc64	0.1337753
172	0x3df3bd3d	0.11901329
173	0xbe18531c	-0.14875454
174	0xbd1c645e	-0.038181655
175	0x3f72461f	0.94638246
176	0x3d0499b9	0.032373164
177	0x3ad69bc0	0.0016373321
178	0x3e25a4a9	0.16176094
179	0xbb10e7e0	-0.0022110865
180	0xbe027968	-0.12741625
181	0xbdb7b587	-0.089701705
182	0xbe09b40e	-0.13447592
183	0xbd50a607	-0.050939586
184	0xbdb09dc2	-0.0862384
185	0xbdda2292	-0.10651125
186	0xbe098d22	-0.13432744
187	0xbbe0acea	-0.0068565505
188	0xbc657440	-0.014004767
189	0xbd477388	-0.048694164
190	0xbd8c3da2	-0.06847693
191	0xbd187ae2	-0.037226565
192	0xbe0e43b2	-0.13893011
193	0xbdc13001	-0.09432984
194	0x3cd36db5	0.025809148
195	0x3f89a056	1.0752056
196	0x3c5a5f5c	0.0133283995
197	0x3d42ec48	0.047588617
198	0x3e08616d	0.13318415
199	0xbdba0682	-0.090832725
200	0x3d860e3b	0.06545683
201	0x3dccec6f	0.10006034
202	0x3e153cfb	0.14574043
203	0x3cf5d36c	0.03000804
204	0xbadcc505	-0.0016843384
205	0x3d8e12f7	0.06937211
206	0xbd9e9837	-0.077438764
207	0xbe212a8f	-0.15738891
208	0xbe12ad87	-0.14324008
209	0x3dea2b45	0.11434034
210	0xbdb5eea8	-0.08883411
211	0x3cbe3906	0.02322055
212	0xbd8626aa	-0.06550343
213	0x3e23adf6	0.1598433
214	0x3bbad4d7	0.005701642
215	0x3e0eddc0	0.13951778
216	0xbd8b9d8f	-0.06817161
217	0xbc53b48d	-0.012921465
218	0x3cfa72c6	0.030572306
219	0x3de5da36	0.11223261
220	0x3de57095	0.11203114
221	0xbe1f5747	-0.15560637
222	0xbdb9052e	-0.09034191
223	0xbd06aff5	-0.03288265
224	0xbe18d8c7	-0.14926444
225	0x3d37ef99	0.044906233
226	0xbd2eaddd	-0.042646278
227	0xbcfc9c12	-0.030836139
228	0x3d998b9c	0.074973315
229	0xbcddcd29	-0.027075367
230	0x3d0a3105	0.033738155
231	0x3f9c54c2	1.2213366
232	0xbd917554	-0.07102457
233	0xb9ffa112	-0.00048757397
234	0x3daee4b0	0.085397124
235	0x3e19f418	0.1503452
236	0x3c59264b	0.013253759
237	0x3ddf37a1	0.10899282
238	0xbd5d5f05	-0.054045696
239	0xbe1c2145	-0.15247066
240	0x3d0caf2d	0.03434675
241	0xbd9823d5	-0.074287094
242	0x3c8b063c	0.016970746
243	0x3df86b77	0.12129872
244	0x3df9789c	0.121812075
245	0x3d4915f0	0.049093187
246	0xbd2a3a84	-0.04155971
247	0xbde2d7b2	-0.11076297
248	0x3dca23e2	0.09870125
249	0x3dcccdcc	0.1000019
250	0xbdd26121	-0.10272432
251	0x3f8f1d06	1.1180732
252	0x3da8cca6	0.082421586
253	0xbd9426ca	-0.07233961
254	0x3dd4073b	0.103529416
255	0xbcb7d5b9	-0.022440778

layer1.bias f4 [128]
0	0x3f9270e8	1.1440706
1	0xbc81c169	-0.015839295
2	0x3dc5f40d	0.096656896
3	0x3f82af04	1.020966
4	0x3f94f7e2	1.1638148
5	0xbdc4c2bb	-0.096074544
6	0x3f999562	1.1998713
7	0xbd8cebe6	-0.068809316
8	0x3f89ae54	1.0756326
9	0xbd2b6918	-0.041848272
10	0xbca90a6a	-0.020634849
11	0xbd6a7de7	-0.057248976
12	0x3f64c5dc	0.8936441
13	0x3f62d166	0.88600767
14	0xbdde0e47	-0.10842567
15	0xbda4c71b	-0.08045789
16	0xbdb9ca27	-0.090717606
17	0x3d41de1d	0.047330964
18	0xbbaca9d3	-0.005269268
19	0xbd2edb8f	-0.042689856
20	0xbdfa9420	-0.12235284
21	0xbe0d149c	-0.13777393
22	0x3f889756	1.0671184
23	0x3f876a6a	1.057935
24	0x3f729d27	0.94771045
25	0x3cf55f3c	0.029952638
26	0x3f8542f1	1.0411054
27	0x3f97b5e1	1.185238
28	0xbd82b813	-0.063827656
29	0x3f988714	1.1916223
30	0x3f9b7b9d	1.2147099
31	0x3f94124e	1.1568086
32	0xbde76aa0	-0.11299634
33	0xbd91fd3c	-0.07128379
34	0x3f85b652	1.0446265
35	0x3cd1157b	0.025522938
36	0x3f9353ed	1.1509987
37	0x3f98e288	1.1944132
38	0xbd860861	-0.06544567
39	0x3f912eb3	1.1342376
40	0xbda20407	-0.079109244
41	0x3f962b60	1.1731987
42	0x3f8e0b6e	1.1097238
43	0x3dcd6353	0.1002871
44	0x3f9b308d	1.2124192
45	0xbe0c6900	-0.1371193
46	0x3e0a82b7	0.13526426
47	0x3f95e420	1.1710243
48	0x3f938a4b	1.1526579
49	0xbe1a33ac	-0.15058774
50	0xbe04c37a	-0.12965193
51	0x3f8f203c	1.1181712
52	0x3d62e3da	0.055393077
53	0xbda44f15	-0.08022896
54	0x3d9d610e	0.07684527
55	0x3f96862b	1.1759695
56	0xbc0aa640	-0.008462489
57	0xbd81a037	-0.06329387
58	0x3d7550d5	0.05989154
59	0x3d81f026	0.06344633
60	0x3f824137	1.0176152
61	0x3f977f45	1.1835715
62	0x3f95ff58	1.171855
63	0xbdeee943	-0.11665585
64	0x3c5441b3	0.012955117
65	0xbd5ee168	-0.054414183
66	0x3f9b10a9	1.2114459
67	0x3f9baa3c	1.2161326
68	0xbcb9b7d7	-0.02267067
69	0x3dde1f48	0.1084581
70	0x3f84e13a	1.0381234
71	0x3f9d14d9	1.2271987
72	0x3f95087a	1.1643212
73	0x3d7f99cd	0.062402535
74	0xbdfac891	-0.12245286
75	0x3f9828a3	1.1887401
76	0x3f96e09c	1.1787295
77	0x3dc89bca	0.097953394
78	0x3f974295	1.1817194
79	0xbe09ea70	-0.13468337
80	0x3d9bd2e8	0.076085865
81	0x3e0980b3	0.13428001
82	0xbe1a3bdb	-0.15061896
83	0x3f9c2b66	1.2200744
84	0xbda21405	-0.07913975
85	0x3dbfe5ef	0.09370028
86	0x3f90165e	1.1256826
87	0x3f73c78f	0.9522638
88	0xbc9d40e0	-0.019195974
89	0x3f6c0be6	0.92205656
90	0x3f9b162b	1.211614
91	0xbe20a13b	-0.15686505
92	0x3f995c00	1.1981201
93	0x3f7467ca	0.9547087
94	0x3f8c93fd	1.0982662
95	0x3d8aab3e	0.06770943
96	0xbe1639b1	-0.14670445
97	0x3f99ac92	1.2005789
98	0x3db49323	0.088171266
99	0x3f82a7be	1.0207441
100	0x3da149d4	0.0787541
101	0x3f99ebe7	1.2025117
102	0xbdc0d3a4	-0.09415367
103	0xbe0601b7	-0.13086592
104	0x3f95da5c	1.1707263
105	0x3f878205	1.0586554
106	0x3f8f848e	1.1212327
107	0x3f840d34	1.0316529
108	0x3f804d87	1.002366
109	0x3f7da684	0.9908221
110	0xbd1d72da	-0.03843961
111	0x3f9a2979	1.2043906
112	0x3f781bdb	0.96917504
113	0x3f7334e8	0.95002604
114	0xbe051079	-0.12994565
115	0x3bac06ba	0.0052498253
116	0x3f933331	1.1499997
117	0xbc046d4c	-0.008082699
118	0xbe07a2a4	-0.13245636
119	0x3db9c3ab	0.09070524
120	0x3f8d5bea	1.1043675
121	0x3f9257a9	1.1433002
122	0x3f78a933	0.9713318
123	0x3f8208fd	1.0158993
124	0x3f8ac522	1.084141
125	0x3f887563	1.0660824
126	0x3f93f72e	1.1559808
127	0x3f926f13	1.1440147

layer2.weight f4 [128, 128]
0	0x3f82045e	1.0157583
1	0x3cb64189	0.022248046
2	0xbc114467	-0.008866406
3	0x3f6c2a8c	0.9225242
4	0x3f69c20c	0.9131172
5	0x3d1a1066	0.037613295
6	0x3f7b8435	0.98248607
7	0xbd94df7a	-0.07269187
8	0x3f79985f	0.97498125
9	0xbd41ed4d	-0.04734545
10	0x3ca66197	0.020310206
11	0xbd78a51e	-0.060704343
12	0x3f748a1f	0.95523256
13	0x3f6ae671	0.91757876
14	0x3d0a96f4	0.033835366
15	0x3d7ce0d7	0.06173786
16	0xbc4f57dd	-0.012655226
17	0x3d0a27a8	0.033729225
18	0xbd91b6a9	-0.07114918
19	0xbd0f4eef	-0.034987386
20	0xbcce666c	-0.025195323
21	0x3d96ec6e	0.07369314
22	0x3f829182	1.0200655
23	0x3f719e09	0.9438177
24	0x3f7f22cf	0.9966249
25	0x3d965f91	0.073424466
26	0x3f7b32b4	0.9812424
27	0x3f686749	0.907826
28	0x3d04e85e	0.032448165
29	0x3f810495	1.0079523
30	0x3f661c13	0.8988659
31	0x3f745ef6	0.954574
32	0xbd5e1bd1	-0.054225747
33	0x3d25a8c4	0.04044415
34	0x3f79db62	0.97600377
35	0xbd3d0271	-0.046144906
36	0x3f79cdd1	0.97579676
37	0x3f836c6d	1.0267464
38	0x3a90e93d	0.0011055839
39	0x3f7d6960	0.98988914
40	0x3d93e3b3	0.072211646
41	0x3f73ecdf	0.9528331
42	0x3f795c9f	0.97406954
43	0xbd80229c	-0.06256601
44	0x3f7993f4	0.97491384
45	0x3d15db43	0.036586057
46	0x3d1a28a8	0.03763643
47	0x3f8395dc	1.0280108
48	0x3f692332	0.9106933
49	0x3c26d000	0.010181427
50	0xbc8eb989	-0.017422454
51	0x3f827250	1.0191135
52	0x3d29a34c	0.041415498
53	0x3d287198	0.041123956
54	0xbd48e5ac	-0.049047157
55	0x3f834170	1.0254345
56	0xbcca996b	-0.024731359
57	0x3d94624c	0.07245311
58	0xbcda8848	-0.026676312
59	0xbc9539bf	-0.018216012
60	0x3f79a607	0.9751896
61	0x3f80eceb	1.0072302
62	0x3f7d2385	0.98882324
63	0x3c7da9f2	0.015482413
64	0xbd8c8776	-0.068617746
65	0xbd4fcced	-0.05073254
66	0x3f806b32	1.0032713
67	0x3f83a498	1.0284605
68	0x3d66177c	0.05617474
69	0xbd23324e	-0.039842896
70	0x3f721921	0.94569594
71	0x3f70cbff	0.94061273
72	0x3f6a761f	0.9158649
73	0x3bb3d07b	0.0054874993
74	0xbd008e21	-0.031385545
75	0x3f717ea4	0.94333863
76	0x3f81533d	1.0103527
77	0x3bed1c43	0.007236035
78	0x3f79c727	0.9756951
79	0xbbeb53a7	-0.007181603
80	0x3d56416a	0.052308477
81	0x393f0e8c	0.00018220599
82	0xbcbbe908	-0.022938266
83	0x3f6aa2fe	0.91654956
84	0xbbd46e99	-0.006482911
85	0xbd13ea0b	-0.036111873
86	0x3f7b761d	0.982271
87	0x3f6e52f5	0.9309533
88	0x3d8a56fb	0.067548715
89	0x3f843166	1.0327575
90	0x3f82d108	1.0220041
91	0xbd3174be	-0.043324225
92	0x3f6db30c	0.9285133
93	0x3f7182b8	0.94340086
94	0x3f6deb97	0.92937607
95	0xbd8e2e15	-0.06942383
96	0x3aefb50a	0.0018288207
97	0x3f777ac2	0.9667169
98	0x3cfedb6e	0.031110492
99	0x3f85da21	1.0457193
100	0xbd4e88bb	-0.050423365
101	0x3f680c00	0.9064331
102	0xbd020389	-0.031741653
103	0xbca047e2	-0.019565526
104	0x3f691769	0.91051346
105	0x3f71c863	0.9444639
106	0x3f6ca0f7	0.9243311
107	0x3f80448d	1.002092
108	0x3f65a2fb	0.89701813
109	0x3f6e30f8	0.9304347
110	0x3d2c5296	0.042070948
111	0x3f7e61b8	0.99367857
112	0x3f795515	0.9739545
113	0x3f7990e9	0.9748674
114	0xbd823932	-0.063585654
115	0x3c705ebc	0.014671024
116	0x3f7070cc	0.93922114
117	0xbc30272b	-0.010751526
118	0x3d95eb25	0.07320241
119	0x3c2258e0	0.009908885
120	0x3f6c2c4c	0.9225509
121	0x3f85daea	1.0457432
122	0x3f73d828	0.95251703
123	0x3f820aa9	1.0159503
124	0x3f8085db	1.004085
125	0x3f7115fa	0.9417416
126	0x3f725ab2	0.9466964
127	0x3f6fe261	0.937048
128	0x3f868c80	1.0511627
129	0xbd82b9c9	-0.06383092
130	0x3d34b87b	0.044121247
131	0x3f8b3a28	1.0877123
132	0x3f837970	1.0271435
133	0xbca841aa	-0.020539124
134	0x3f82851f	1.0196875
135	0x3d866e2d	0.06563983
136	0x3f829db0	1.0204372
137	0xba4d36d1	-0.00078282977
138	0xbd86a2e4	-0.06574038
139	0x3d723edd	0.059141982
140	0x3f847892	1.0349295
141	0x3f81fabd	1.0154644
142	0xbcbb90d5	-0.02289621
143	0x3c460858	0.01208695
144	0x3d17e58a	0.03708414
145	0xbd7330d5	-0.05937274
146	0xbd88029b	-0.06641122
147	0xbd59a510	-0.05313593
148	0xbd07176d	-0.032981325
149	0xbd452148	-0.048127443
150	0x3f82ab64	1.0208554
151	0x3f7665db	0.9624917
152	0x3f7cbb53	0.98723334
153	0x3ccdefc1	0.025138738
154	0x3f82b8fd	1.0212704
155	0x3f89acac	1.075582
156	0x3bcea731	0.006306552
157	0x3f88fe29	1.0702564
158	0x3f85d1ed	1.0454689
159	0x3f74ca03	0.95620745
160	0xbce09544	-0.027414925
161	0xbd2581ef	-0.040407117
162	0x3f80d2fd	1.0064389
163	0xbc3f2027	-0.011665381
164	0x3f86d327	1.0533189
165	0x3f7f9510	0.99836826
166	0x3d968a91	0.07350648
167	0x3f82883c	1.0197825
168	0x3d4e5b71	0.050380174
169	0x3f8a20c7	1.0791253
170	0x3f7ba675	0.9830087
171	0xbd3cad03	-0.046063434
172	0x3f8639f3	1.0486435
173	0xbd8aea2a	-0.067829445
174	0x3a08b11d	0.000521438
175	0x3f75519a	0.9582764
176	0x3f850a7d	1.0393826
177	0xbc180594	-0.009278674
178	0x3b9fbcb1	0.0048747887
179	0x3f84b75f	1.036846
180	0xbd0a8387	-0.03381684
181	0x3d6aa685	0.05728771
182	0xbc253995	-0.010084529
183	0x3f7e3e49	0.9931379
184	0xbd8849df	-0.06654715
185	0xbd12fa66	-0.03588333
186	0x3d9005ac	0.07032332
187	0x3d10ae12	0.035322256
188	0x3f74a92a	0.95570624
189	0x3f7e4d7d	0.9933699
190	0x3f8984d3	1.074366
191	0xbd1f5c1e	-0.03890621
192	0x3ce08bfc	0.0274105
193	0xbd504091	-0.050842825
194	0x3f80765b	1.0036119
195	0x3f800877	1.0002583
196	0xbd42fc0e	-0.04760366
197	0xbd59bf28	-0.053160816
198	0x3f8b3c54	1.0877786
199	0x3f7ac67e	0.97959125
200	0x3f845daa	1.0341084
201	0xbd6cbe28	-0.057798535
202	0x3cb3e585	0.02196003
203	0x3f8b5ca4	1.0887647
204	0x3f8192de	1.0122945
205	0xbd2d47b2	-0.042304702
206	0x3f81c323	1.0137676
207	0x3c885f3b	0.016646972
208	0xbcc872b9	-0.024468767
209	0x3d8a2975	0.067461886
210	0xbb3aec17	-0.0028522068
211	0x3f8337fa	1.0251458
212	0x3d3fade3	0.04679669
213	0x3d4ff30f	0.050768908
214	0x3f7a3e10	0.9775095
215	0x3f8d2eb4	1.1029878
216	0xbb5fa365	-0.003412449
217	0x3f8a043b	1.0782541
218	0x3f8ca828	1.0988817
219	0xbd78447d	-0.06061219
220	0x3f7f7f60	0.99803734
221	0x3f865369	1.0494205
222	0x3f8b9e73	1.090773
223	0x3d4c3113	0.04985149
224	0x3c48d0c0	0.012256801
225	0x3f88feae	1.0702722
226	0x3d3f488a	0.046700038
227	0x3f7d05fa	0.98837245
228	0xbd63eedd	-0.05564772
229	0x3f8c787c	1.0974269
230	0x3d4a5871	0.04940075
231	0xbd2b3112	-0.041794844
232	0x3f7a0a98	0.97672415
233	0x3f836144	1.0264058
234	0x3f85a2bb	1.0440286
235	0x3f8b8001	1.0898439
236	0x3f856d6b	1.0424017
237	0x3f89f9c3	1.0779346
238	0x3d5fb318	0.054614156
239	0x3f71cb8f	0.9445123
240	0x3f8bbbfc	1.0916743
241	0x3f80f017	1.007327
242	0xbd086046	-0.03329494
243	0xbd2fdea9	-0.042936955
244	0x3f765659	0.96225506
245	0xbd7ec16a	-0.062196173
246	0x3d932e66	0.07186584
247	0x3cf5b9dc	0.029995851
248	0x3f87ad36	1.0599735
249	0x3f859185	1.0435034
250	0x3f8d486f	1.103773
251	0x3f8487d8	1.0353956
252	0x3f848b9e	1.0355108
253	0x3f846ef8	1.0346365
254	0x3f86eaae	1.0540369
255	0x3f7c76fd	0.9861906

layer2.bias f4 [128]
0	0x3f76fe38	0.9648166
1	0x3f7302a0	0.9492588
2	0xbc766b11	-0.015040175
3	0xbd4757e0	-0.04866779
4	0x3cedeafc	0.029042713
5	0xbd460334	-0.0483429
6	0x3f6e8820	0.9317646
7	0x3f839b0c	1.0281692
8	0x3cb8d53f	0.022562621
9	0x3d353f8f	0.044250067
10	0xbd3f03c8	-0.046634465
11	0x3d85578d	0.065108396
12	0x3d5eb311	0.05436999
13	0x3bca51c0	0.006174296
14	0x3f51234c	0.81694484
15	0x3f772cfd	0.9655302
16	0x3f8ce0d6	1.1006114
17	0xbc5d4442	-0.013505043
18	0x3f85edda	1.0463212
19	0xbd5dc506	-0.054142974
20	0xbd6558b2	-0.05599279
21	0x3d254412	0.04034812
22	0xbc18c380	-0.009323955
23	0x3d8e9e22	0.06963755
24	0x3b4a480c	0.0030865697
25	0xbbeb06b5	-0.0071724304
26	0x3cd115c4	0.025523074
27	0xbcfca929	-0.03084238
28	0x3d2a7c2d	0.04162233
29	0x3f859348	1.0435572
30	0x3d62d518	0.055379003
31	0x3f8129de	1.0090902
32	0xbd32ab68	-0.043620497
33	0x3f790935	0.97279674
34	0x3f855f28	1.0419664
35	0xbd5b29ba	-0.05350659
36	0x3d9445e2	0.072398916
37	0xbd99cfb4	-0.07510319
38	0x3f690ebc	0.9103811
39	0x3f7476d6	0.9549383
40	0xbd9c97ec	-0.07646164
41	0x3d023991	0.03179318
42	0xbd02f6c7	-0.031973626
43	0xbd5cfab7	-0.053950038
44	0xbcb283b1	-0.021791311
45	0x3f7c32f9	0.9851528
46	0xbd016ae9	-0.031596098
47	0x3f7961b9	0.9741474
48	0x3cd968b2	0.02653918
49	0x3f71bd97	0.94429916
50	0x3d8a4696	0.067517444
51	0xbd5c1287	-0.053728607
52	0xbb893fd6	-0.004188518
53	0x3f7ae61c	0.9800737
54	0xbd325e18	-0.043546766
55	0x3f787b2e	0.9706296
56	0x3f8295c0	1.020195
57	0x3f5cecae	0.86298645
58	0xbcc4e649	-0.02403559
59	0x3d453a03	0.048151027
60	0x3d3b9924	0.045800343
61	0x3f74b5a7	0.9558968
62	0xbd85bcaf	-0.06530129
63	0x3d6a7155	0.057236988
64	0x3cb5b4a5	0.022180865
65	0x3f848666	1.0353515
66	0xbce8eafe	-0.028432366
67	0xbb9e8ee1	-0.00483881
68	0xbd2feaaa	-0.042948402
69	0xbc9ae10e	-0.018906143
70	0xbd13fcd0	-0.036129773
71	0x3f8b42a1	1.0879709
72	0x3f82708e	1.0190599
73	0xbd76f405	-0.06029131
74	0x3cf00aad	0.029301966
75	0x3f82c1d5	1.0215403
76	0x3f71942a	0.94366705
77	0xbd4d6041	-0.050140623
78	0xbc57b560	-0.013165802
79	0x3f7323de	0.94976604
80	0xbcbc6e57	-0.023001833
81	0xbbc240af	-0.005928121
82	0x3f69bf36	0.9130739
83	0xbcddb152	-0.027062092
84	0xbce8231c	-0.028337054
85	0x3f807707	1.0036324
86	0xbd14452d	-0.036198784
87	0x3d11335a	0.035449363
88	0xbce90b7a	-0.028447855
89	0xbd370dc4	-0.044690862
90	0xbcbe0fe6	-0.02320094
91	0x3f7bdb7a	0.9838177
92	0x3f82422a	1.0176442
93	0xbd5a3d0a	-0.053280868
94	0x3d4a1312	0.049334593
95	0x3cd8f790	0.026485234
96	0xbc65ba96	-0.014021536
97	0x3d921632	0.0713314
98	0x3f7890ed	0.9709614
99	0xbd95cd17	-0.073145084
100	0x3d05829b	0.03259526
101	0x3d90e440	0.07074785
102	0xbd134faa	-0.035964645
103	0x3f832348	1.0245142
104	0x3f87a8a9	1.0598346
105	0x3b9105aa	0.004425724
106	0xbd821b7c	-0.063528985
107	0x3f77937c	0.9670942
108	0xbc7c7df4	-0.015410889
109	0xbc031434	-0.008000422
110	0x3f71164c	0.9417465
111	0x3d122aec	0.035685465
112	0xbd30f359	-0.043200824
113	0x3f86aae8	1.0520906
114	0x3f7b0307	0.98051494
115	0xbd8b983e	-0.06816147
116	0x3f7508ea	0.95716727
117	0x3f647739	0.8924442
118	0xbcfdd6d1	-0.030986222
119	0x3ca29a70	0.019849032
120	0x3b86b321	0.0041107093
121	0x3f72f654	0.94907117
122	0xbd84ebbc	-0.06490275
123	0x3d5ae7fa	0.053443886
124	0x3f78cf06	0.9719089
125	0x3f830f11	1.0238973
126	0x3c6fd1ad	0.014637393
127	0xbbde4ac2	-0.006783814

layer3.weight f4 [7, 128]
0	0x3f4daf56	0.80345666
1	0x3f3b2195	0.7309812
2	0xbca82409	-0.020524995
3	0xbd44cfa1	-0.048049573
4	0x3c6a5a61	0.014303775
5	0xbd8472da	-0.06467219
6	0x3f3eaa82	0.74478924
7	0x3f39cdd4	0.72579694
8	0x3d898d24	0.067163736
9	0x3d29589c	0.04134427
10	0xbd8de382	-0.06928159
11	0xbcc5fcf5	-0.02416847
12	0xbd1df0fc	-0.0385599
13	0x3d2b69b0	0.04184884
14	0x3f2e252c	0.6802547
15	0x3f436d54	0.76338696
16	0x3f268b6d	0.65056497
17	0x3d55fc2d	0.052242447
18	0x3f3cfe4e	0.7382554
19	0x3cf4ecf5	0.029898146
20	0x3d17bb22	0.037043698
21	0xbcbfda11	-0.023419412
22	0xbcdaa70e	-0.026690986
23	0x3d9fb822	0.077987924
24	0x3d3e651f	0.046483155
25	0xbd6b0281	-0.057375435
26	0x3ca5ac39	0.020223724
27	0xbc98312c	-0.018578134
28	0x3d17ebcb	0.037090104
29	0x3f38a6f3	0.72129744
30	0x3b0118ef	0.00196987
31	0x3f3cf25c	0.7380731
32	0x3d5009d9	0.05079064
33	0x3f348e87	0.7052998
34	0x3f486608	0.7828069
35	0x3c53926d	0.012913329
36	0x3d89f1e9	0.06735594
37	0x3d4b3930	0.049615085
38	0x3f385071	0.71997744
39	0x3f46c165	0.77638847
40	0xbd015003	-0.031570446
41	0x3d8e88b0	0.06959665
42	0x3c3876c9	0.011258789
43	0xbcd18e37	-0.025580509
44	0x3ce567c9	0.02800359
45	0x3f3edbc3	0.7455408
46	0x3d8795e9	0.0662039
47	0x3f3de069	0.7417055
48	0x3cceb04d	0.025230551
49	0x3f3a538d	0.7278374
50	0x3cc57462	0.024103347
51	0x3bddb422	0.0067658583
52	0x3d58bf64	0.0529169
53	0x3f4cac0f	0.7995004
54	0xbd2c9912	-0.042138167
55	0x3f4cd178	0.80007124
56	0x3f4cc975	0.799949
57	0x3f3fe582	0.74959576
58	0x3c84310a	0.016136665
59	0x3d21108e	0.03932243
60	0xbd231b3a	-0.039820887
61	0x3f4112b6	0.75419176
62	0xbce8495f	-0.028355299
63	0xbcbec95c	-0.023289375
64	0xbc8fb8e4	-0.017544217
65	0x3f3f1a3a	0.74649394
66	0x3d143425	0.03618254
67	0xbd0334e0	-0.032032847
68	0xbd87bfbb	-0.066283666
69	0xbd09c591	-0.03363568
70	0xbcd0f1c0	-0.0255059
71	0x3f2e2e62	0.68039525
72	0x3f3ca0af	0.73682684
73	0xbd82eea6	-0.06393175
74	0xbd860477	-0.0654382
75	0x3f354b29	0.7081781
76	0x3f4233c2	0.75860226
77	0x3c414467	0.011796094
78	0xbbb651d7	-0.0055639553
79	0x3f3e0247	0.74222225
80	0x3d8b1b56	0.06792323
81	0xbcc9754a	-0.02459206
82	0x3f39f238	0.7263522
83	0x3d8dca91	0.06923402
84	0x3c9c43b9	0.019075261
85	0x3f3a4004	0.7275393
86	0xbd6c183d	-0.057640303
87	0x3d58268a	0.05277113
88	0x3c95e315	0.018296758
89	0x3cbc2b80	0.022969961
90	0xbd448aba	-0.047983862
91	0x3f4d3cf8	0.80171156
92	0x3f325ad4	0.6966984
93	0x3c86248e	0.016374853
94	0xbcb125c5	-0.021624455
95	0xbd82a349	-0.063788004
96	0xbd929644	-0.07157567
97	0x3d669680	0.05629587
98	0x3f3f462c	0.7471645
99	0x3d406e3f	0.04698014
100	0xbd8b03de	-0.06787847
101	0x3c265a18	0.010153316
102	0xbd472d1a	-0.048626997
103	0x3f389457	0.7210135
104	0x3f420775	0.7579263
105	0xbcd2107a	-0.025642622
106	0xbcfb3747	-0.030666007
107	0x3f4d8f53	0.8029682
108	0x3cc05bc8	0.023481265
109	0x3d2f90cd	0.042862702
110	0x3f444e6f	0.7668218
111	0x3d8d6543	0.0690408
112	0x3d604c91	0.05476052
113	0x3f473b78	0.7782512
114	0x3f4a273b	0.7896611
115	0xbd15374e	-0.036429696
116	0x3f2d8ba9	0.6779123
117	0x3f480d35	0.7814515
118	0xbc1e1de9	-0.009650686
119	0xbd5f4023	-0.054504525
120	0x3d95fde2	0.07323815
121	0x3f3e6b95	0.7438291
122	0xbcf7cd08	-0.030249134
123	0x3c218c12	0.0098600555
124	0x3f342a49	0.7037702
125	0x3f35f4a0	0.71076393
126	0x3b2ede29	0.002668271
127	0xbcc27aa0	-0.023740113
128	0x3f013f4e	0.5048722
129	0x3ef6f861	0.48236373
130	0x3c6163dc	0.0137567185
131	0xbd141bf4	-0.03615947
132	0x3c871bad	0.016492689
133	0x3d491e8d	0.0491014
134	0x3ee9f7bf	0.45696828
135	0x3ef9006c	0.48633134
136	0xbd3ba1f4	-0.045808747
137	0xbbba8e7f	-0.0056932564
138	0x3c96e3af	0.018419115
139	0x3c17925d	0.009251204
140	0xbc42813f	-0.011871635
141	0x3d856596	0.065135166
142	0x3efb4efc	0.49083698
143	0x3efc1cdc	0.49240768
144	0x3f0631a2	0.52419484
145	0x3bc32bd3	0.005956152
146	0x3f0df903	0.55458087
147	0xbd380ef3	-0.04493613
148	0x3cbc44b0	0.022981972
149	0xb95d6c84	-0.00021116628
150	0x3d85f858	0.065415084
151	0x3d8795c5	0.06620363
152	0x3d69fc3a	0.057125308
153	0x3d6ac10c	0.05731301
154	0xbcd2000d	-0.02563479
155	0x3bda58e6	0.0066634296
156	0xbd883200	-0.06650162
157	0x3f0db12c	0.5534847
158	0x3c97fe89	0.018553989
159	0x3ef4658d	0.47733727
160	0x3c67548f	0.014119281
161	0x3f0835a5	0.53206855
162	0x3f00265e	0.50058544
163	0x3c988e6a	0.018622596
164	0xbc5ac912	-0.013353603
165	0xbb5d0722	-0.0033726175
166	0x3f055295	0.52079135
167	0x3f06e71e	0.52696407
168	0x3c833023	0.016014164
169	0xbd12c290	-0.03583008
170	0xbc857590	-0.01629141
171	0x3d215d40	0.03939557
172	0x3d826ac3	0.063680194
173	0x3f0fe7b3	0.5621292
174	0xbca75788	-0.02042748
175	0x3edff716	0.437432
176	0x3d259434	0.04042454
177	0x3ed55d49	0.41672733
178	0x3cd37637	0.025813205
179	0xbc3c4fd8	-0.011493646
180	0xbd18243c	-0.03714393
181	0x3edd585f	0.43231484
182	0x3cbd2b35	0.023091892
183	0x3ef97224	0.48719895
184	0x3f021cf5	0.50825435
185	0x3f077ad0	0.5292177
186	0x3cd2a217	0.025712056
187	0xbcae949e	-0.0213111
188	0x3d89a47f	0.06720828
189	0x3eee1a37	0.46504375
190	0xbd5bff95	-0.05371054
191	0xbd92b06d	-0.07162557
192	0x3d37279f	0.04471552
193	0x3f092062	0.5356504
194	0x3d1881a2	0.037233002
195	0x3d073eec	0.03301899
196	0x3d368c47	0.044567373
197	0x3cfcd49b	0.030863097
198	0x3b94ae7d	0.004537402
199	0x3f0d27b2	0.55138695
200	0x3ee79f87	0.45238897
201	0x3d2c1063	0.042007815
202	0x3cac0cc0	0.021002173
203	0x3ef69c82	0.4816628
204	0x3f0a2e98	0.53977346
205	0xbc65ee47	-0.0140338605
206	0xbd8570b0	-0.06515634
207	0x3ee9532a	0.45571262
208	0xbd1103bb	-0.03540395
209	0x3d251643	0.040304434
210	0x3ef58e37	0.47960064
211	0x3d8751cb	0.06607398
212	0x3d6649e0	0.056222796
213	0x3ede30a8	0.43396497
214	0x3d37816f	0.044801172
215	0xbd4b206a	-0.04959146
216	0xbd943d1a	-0.07238217
217	0xbd6869f3	-0.056741666
218	0xbcaf2d17	-0.021383805
219	0x3f020df1	0.5080252
220	0x3f04d9b2	0.51894677
221	0x3d100b1d	0.03516685
222	0x3cbac714	0.022800006
223	0x3c211e4d	0.009833884
224	0x3c9b9258	0.01899068
225	0x3cdafc5a	0.026731659
226	0x3f0d4c7d	0.55194837
227	0x3c06e328	0.008232869
228	0xbc6cee4a	-0.014461109
229	0x3ce2e589	0.027697342
230	0xbcdc1cc2	-0.026869182
231	0x3eeddf44	0.464594
232	0x3ef860d0	0.48511362
233	0x3c4af3cc	0.012387227
234	0x3cb68097	0.022278113
235	0x3f0b2ea7	0.5436806
236	0x3be7c89e	0.007073476
237	0xbd948290	-0.07251465
238	0x3ef9e928	0.48810697
239	0xbd8acbcf	-0.06777155
240	0x3d8222c7	0.063542895
241	0x3f09ddd8	0.5385413
242	0x3f04bbc1	0.5184899
243	0x3c7de78f	0.015497102
244	0x3f07bbd2	0.53020966
245	0x3ef8997b	0.48554596
246	0xbd75da21	-0.060022477
247	0xbc712c35	-0.014720012
248	0x3c89578f	0.016765384
249	0x3efa192f	0.4884734
250	0x3ba89dc3	0.00514576
251	0xbc854931	-0.016270252
252	0x3f0ae328	0.5425286
253	0x3efaf210	0.49012804
254	0xbcf8d0e1	-0.030373039
255	0x3d2bd37a	0.041949727

layer3.bias f4 [7]
0	0x3f3c6f50	0.7360735
1	0x3e2fb7b0	0.17159915
2	0x3e7dcfbe	0.24786279
3	0x3e896095	0.268315
4	0x3e588eed	0.21148272
5	0x3e36e51f	0.1786084
6	0x3e30f49e	0.17280814

layer1.weight f4 [128, 28]
0	0x3e0a5a32	0.1351097
1	0xbd7cfbf5	-0.061763722
2	0xbe1a3abb	-0.15061466
3	0xbe1d1623	-0.15340476
4	0xbe12e2f7	-0.14344393
5	0xbe160a3b	-0.1465234
6	0xbdcf8526	-0.10132818
7	0x3f876ede	1.0580709
8	0x3d27d94c	0.040978715
9	0x3e03861f	0.12844132
10	0xbcf56313	-0.029954469
11	0x3df35d2a	0.11883004
12	0xbe0e839d	-0.13917394
13	0x3c9edb87	0.019391788
14	0x3d2eec4a	0.04270581
15	0x3d8fe2ea	0.07025702
16	0x3d957b2f	0.07298886
17	0xbd130fec	-0.035903856
18	0x3db4e1b2	0.088321105
19	0x3bbf5c30	0.005839847
20	0xbcf09b6b	-0.029370984
21	0xbe0e9899	-0.13925399
22	0x3df7a52b	0.1209205
23	0x3da5faa2	0.08104445
24	0x3db67d17	0.08910578
25	0x3e0e415e	0.13892123
26	0xbd92c123	-0.07165744
27	0x3f9abff4	1.208983
28	0xbdcbe834	-0.099563986
29	0xbddd7bae	-0.10814606
30	0x3e1271eb	0.14301269
31	0xbd2bb444	-0.04191996
32	0xbe1e9bb2	-0.1548908
33	0xbe122bd7	-0.14274536
34	0xbe22477b	-0.1584758
35	0xbdb47cc7	-0.08812862
36	0xbdad3912	-0.08458151
37	0xbe0c9e0d	-0.13732167
38	0x3e0b4bdd	0.13603158
39	0x3d736e52	0.05943138
40	0x3d703033	0.058639716
41	0x3de0465f	0.10950922
42	0xbe234274	-0.15943319
43	0x3e0f76c0	0.14010143
44	0xbdee992a	-0.116503075
45	0xbddbd988	-0.1073485
46	0xbd03c606	-0.03217127
47	0xb93ca37f	-0.00017989984
48	0xbd697fb2	-0.057006545
49	0xbce8df4f	-0.028426794
50	0x3dcafe71	0.09911812
51	0xbcd2aed0	-0.025718123
52	0xbde9df9a	-0.11419602
53	0xbe08921d	-0.13336988
54	0x3e0e9fe5	0.13928182
55	0xbe0609b1	-0.13089634
56	0x3d956f6d	0.072966434
57	0xbcef9922	-0.029247824
58	0xbe0b47a1	-0.13601543
59	0x3dc7e125	0.0975974
60	0x3d5b675b	0.053565364
61	0xbdba7c72	-0.09105767
62	0x3c216d79	0.0098527605
63	0xbe00d293	-0.12580328
64	0xbcad556e	-0.0211589
65	0xbdcc6a9c	-0.099812716
66	0x3dca1b3d	0.098684765
67	0x3d98f9fd	0.074695565
68	0x3e2379d7	0.15964447
69	0xbda0adff	-0.07845687
70	0x3d8d01cb	0.068851076
71	0xbda44de6	-0.080226704
72	0xbc0afe8a	-0.008483538
73	0x3daac790	0.08338845
74	0x3dd6cdd4	0.10488477
75	0x3dc28392	0.09497751
76	0x3d6aeeb2	0.057356544
77	0xbcf36e2b	-0.029715618
78	0xbdccbcfc	-0.099969834
79	0x3c99bc34	0.0187665
80	0xbd4f614e	-0.050629906
81	0xbc9206f7	-0.017825587
82	0xbb153683	-0.0022768087
83	0x3c241160	0.010013908
84	0x3e10ea47	0.1415187
85	0x3d83ccba	0.06435533
86	0xbd0991e9	-0.033586416
87	0x3e0cfdd1	0.13768698
88	0xbe0b0d6e	-0.13579342
89	0x3e14c3b5	0.14527781
90	0x3c56e2f6	0.013115635
91	0x3f992ab7	1.196616
92	0x3e0b2e75	0.1359194
93	0xbc9ab531	-0.018885227
94	0x3c095d2a	0.008384028
95	0x3b8faeb0	0.004384838
96	0x3dde0d53	0.10842385
97	0xbdd62546	-0.10456328
98	0x3dbafe02	0.091304794
99	0x3dfd308d	0.12362776
100	0x3d6fcc82	0.058544643
101	0xbcdbd1b9	-0.026833402
102	0x3d9c79a7	0.07640391
103	0xbe079fe2	-0.13244584
104	0xbdbd7419	-0.092506595
105	0x3cc6bd5e	0.02426022
106	0x3dcf7a78	0.10130781
107	0x3e0519ae	0.12998077
108	0x3d26059c	0.040532693
109	0x3cb50e83	0.022101646
110	0xbd2d3a06	-0.042291664
111	0x3f9a9f38	1.207984
112	0x3dc1694f	0.09443914
113	0x3d3d330d	0.046191264
114	0xbe0546d1	-0.13015296
115	0x3c9c5930	0.019085497
116	0x3d036161	0.03207529
117	0x3d032e84	0.032026783
118	0xbceb3082	-0.028709654
119	0x3f7c976e	0.98668563
120	0xbe0b2cce	-0.1359131
121	0xbd4f8dae	-0.050672226
122	0xbdac21d6	-0.08404891
123	0xbd655019	-0.05598459
124	0xbdcb1807	-0.09916692
125	0x3d437b83	0.04772521
126	0xbe0d4d30	-0.13798976
127	0x3d6f77ba	0.05846379
128	0xbc8d6ea2	-0.017264668
129	0x3e16b067	0.1471573
130	0xbdbfdfbf	-0.09368848
131	0x3ded78e2	0.11595322
132	0x3cdfeec4	0.027335532
133	0xbe0ee31c	-0.13953823
134	0x3dd294c6	0.102822825
135	0xbc930d31	-0.017950626
136	0x3d4ea294	0.050448015
137	0x3d1a7b93	0.037715506
138	0xbe168d49	-0.14702334
139	0x3f87bc49	1.0604335
140	0xbda15eed	-0.07879434
141	0x3d7fa678	0.062414616
142	0xbdea07fa	-0.11427303
143	0x3cb67feb	0.022277793
144	0xbcb2edcb	-0.021841904
145	0xbcb9b2ef	-0.02266833
146	0xbba40e92	-0.0050066197
147	0xbdce4aee	-0.100728855
148	0x3df58bc2	0.11989547
149	0x3ca65f7d	0.020309204
150	0xbd68011a	-0.056641676
151	0xbd7b7db0	-0.06139916
152	0xbd3fa437	-0.046787467
153	0xbe15bf95	-0.14623864
154	0x3d8279b5	0.0637087
155	0x3e163597	0.1466888
156	0x3d416b13	0.047221255
157	0x3dd7162c	0.10502276
158	0xbe0b250d	-0.13588353
159	0xbe0033df	-0.12519787
160	0xbdb6b967	-0.089220814
161	0x3e084157	0.13306175
162	0x3e13a18d	0.14417095
163	0x3e23f1e9	0.1601025
164	0xbe1cfc47	-0.15330611
165	0x3e172425	0.14759882
166	0xbe1a5843	-0.15072732
167	0x3d971f75	0.07379047
168	0x3d976ce1	0.07393814
169	0x3d7f0dac	0.062268898
170	0x3d42dc9a	0.047573663
171	0x3e09036c	0.13380212
172	0x3df3c9c2	0.119037166
173	0xbe185aed	-0.14878435
174	0xbd1c6c36	-0.038189135
175	0x3f722915	0.94593936
176	0x3d04a0c1	0.03237987
177	0x3ad6a6b0	0.0016376581
178	0x3e25ad41	0.16179372
179	0xbb10efb5	-0.0022115533
180	0xbe028070	-0.12744308
181	0xbdb7bee7	-0.089719586
182	0xbe09bb16	-0.13450274
183	0xbd50b0f6	-0.050950013
184	0xbdb0a723	-0.08625629
185	0xbdda2d82	-0.10653211
186	0xbe09942a	-0.13435426
187	0xbbe0b8a6	-0.0068579493
188	0xbc657ff8	-0.014007561
189	0xbd477db0	-0.04870385
190	0xbd8c44aa	-0.06849034
191	0xbd1882ba	-0.037234046
192	0xbe0e4aba	-0.13895693
193	0xbdc13a29	-0.09434921
194	0x3cd378a4	0.025814362
195	0x3f899292	1.0747855
196	0x3c5a6b16	0.013331195
197	0x3d42f670	0.047598302
198	0x3e086875	0.13321097
199	0xbdba0fe3	-0.090850614
200	0x3d861543	0.06547024
201	0x3dccf75e	0.10008119
202	0x3e1544cf	0.1457703
203	0x3cf5dff2	0.030014012
204	0xbadcd0be	-0.0016846878
205	0x3d8e19ff	0.06938552
206	0xbd9ea0cd	-0.07745514
207	0xbe213327	-0.1574217
208	0xbe12b557	-0.14326988
209	0x3dea37ca	0.11436422
210	0xbdb5f80a	-0.088852
211	0x3cbe432c	0.02322539
212	0xbd862db2	-0.065516844
213	0x3e23b68e	0.15987608
214	0x3bbade37	0.0057027596
215	0x3e0ee4c8	0.1395446
216	0xbd8ba497	-0.068185024
217	0xbc53bf7c	-0.012924071
218	0x3cfa800b	0.030578634
219	0x3de5e5f1	0.112254985
220	0x3de57c51	0.11205352
221	0xbe1f5fdd	-0.15563913
222	0xbdb90e8f	-0.0903598
223	0xbd06b6fd	-0.032889355
224	0xbe18e099	-0.14929427
225	0x3d37f8fb	0.04491518
226	0xbd2eb73e	-0.042655222
227	0xbcfca957	-0.030842466
228	0x3d99936d	0.07498822
229	0xbcddd8e2	-0.027080957
230	0x3d0a380d	0.03374486
231	0x3f9c47d4	1.220942
232	0xbd917d27	-0.07103949
233	0xb9ffae57	-0.00048767283
234	0x3daeee12	0.08541502
235	0x3e19fbeb	0.15037505
236	0x3c59313a	0.013256365
237	0x3ddf4358	0.10901517
238	0xbd5d6abe	-0.054056875
239	0xbe1c291b	-0.15250055
240	0x3d0cb635	0.034353454
241	0xbd982ba9	-0.074302025
242	0x3c8b0d44	0.016974099
243	0x3df8783b	0.12132307
244	0x3df985e1	0.121837385
245	0x3d492017	0.04910287
246	0xbd2a431c	-0.041567907
247	0xbde2e36a	-0.11078532
248	0x3dca2e0a	0.098720625
249	0x3dccd8bc	0.10002276
250	0xbdd26c10	-0.102745175
251	0x3f8f0fa7	1.1176652
252	0x3da8d53e	0.08243798
253	0xbd942e9b	-0.07235452
254	0x3dd4122a	0.10355027
255	0xbcb7df1b	-0.022445252

layer1.bias f4 [128]
0	0x3f9263f7	1.1436757
1	0xbc81c871	-0.015842648
2	0x3dc5fe35	0.09667627
3	0x3f82a140	1.020546
4	0x3f94eae8	1.1634188
5	0xbdc4cce3	-0.096093915
6	0x3f998865	1.1994749
7	0xbd8cf2ee	-0.06882273
8	0x3f89a094	1.075213
9	0xbd2b71b0	-0.041856468
10	0xbca91302	-0.020638946
11	0xbd6a8a6a	-0.05726091
12	0x3f64a800	0.8931885
13	0x3f62b396	0.88555276
14	0xbdde1a00	-0.10844803
15	0xbda4cfb3	-0.08047428
16	0xbdb9d387	-0.09073549
17	0x3d41e845	0.04734065
18	0xbbacb26b	-0.0052702925
19	0xbd2ee4ee	-0.042698793
20	0xbdfaa165	-0.12237815
21	0xbe0d1ba4	-0.13780075
22	0x3f888997	1.0666989
23	0x3f875cb2	1.0575163
24	0x3f728017	0.947267
25	0x3cf56bc2	0.02995861
26	0x3f853533	1.040686
27	0x3f97a8ed	1.1848427
28	0xbd82bf1b	-0.06384107
29	0x3f987a14	1.1912255
30	0x3f9b6ea9	1.2143146
31	0x3f94055e	1.1564138
32	0xbde7765a	-0.11301871
33	0xbd92050d	-0.071298696
34	0x3f85a898	1.0442076
35	0x3cd1206a	0.025528152
36	0x3f9346f4	1.1506028
37	0x3f98d58c	1.1940169
38	0xbd860f69	-0.06545908
39	0x3f9121bb	1.1338419
40	0xbda20c9f	-0.079125635
41	0x3f961e6d	1.1728035
42	0x3f8dfdb3	1.1093048
43	0x3dcd6e42	0.10030796
44	0x3f9b2399	1.2120239
45	0xbe0c7008	-0.13714612
46	0x3e0a89bf	0.13529108
47	0x3f95d721	1.1706277
48	0x3f937d59	1.1522628
49	0xbe1a3b83	-0.15061764
50	0xbe04ca82	-0.12967876
51	0x3f8f12e6	1.1177642
52	0x3d62ef95	0.055404264
53	0xbda457ad	-0.08024535
54	0x3d9d68df	0.07686018
55	0x3f96793b	1.1755747
56	0xbc0aad48	-0.008464165
57	0xbd81a73f	-0.06330728
58	0x3d755d5a	0.05990348
59	0x3d81f72e	0.06345974
60	0x3f82337c	1.0171962
61	0x3f977255	1.1831766
62	0x3f95f260	1.1714592
63	0xbdeef5c2	-0.11667968
64	0x3c544ca2	0.012957724
65	0xbd5eed21	-0.054425362
66	0x3f9b03b9	1.2110511
67	0x3f9b9d43	1.2157367
68	0xbcb9c137	-0.02267514
69	0x3dde2b02	0.10848047
70	0x3f84d380	1.0377045
71	0x3f9d07dd	1.2268025
72	0x3f94fb7f	1.163925
73	0x3d7fa712	0.06241519
74	0xbdfad5d6	-0.12247817
75	0x3f981bad	1.1883446
76	0x3f96d3aa	1.1783345
77	0x3dc8a5f1	0.09797276
78	0x3f9735a2	1.1813242
79	0xbe09f178	-0.1347102
80	0x3d9bdabf	0.07610082
81	0x3e0987bb	0.13430683
82	0xbe1a43ad	-0.15064879
83	0x3f9c1e71	1.219679
84	0xbda21c9d	-0.07915614
85	0x3dbff015	0.09371964
86	0x3f900970	1.125288
87	0x3f73aa81	0.95182043
88	0xbc9d48b8	-0.019199714
89	0x3f6beed9	0.9216133
90	0x3f9b093c	1.2112193
91	0xbe20a9d3	-0.15689783
92	0x3f994f0c	1.1977248
93	0x3f744abb	0.9542653
94	0x3f8c8640	1.097847
95	0x3d8ab246	0.06772284
96	0xbe164181	-0.14673425
97	0x3f999f9d	1.2001835
98	0x3db49c83	0.08818915
99	0x3f829a03	1.0203251
100	0x3da1526c	0.07877049
101	0x3f99def1	1.2021161
102	0xbdc0ddcc	-0.094173044
103	0xbe0608bf	-0.13089274
104	0x3f95cd6c	1.1703315
105	0x3f877447	1.058236
106	0x3f8f7797	1.1208371
107	0x3f83ff74	1.0312333
108	0x3f803fcc	1.0019469
109	0x3f7d8a38	0.9903903
110	0xbd1d7aaf	-0.03844708
111	0x3f9a1c89	1.2039958
112	0x3f77fecb	0.9687316
113	0x3f7317d6	0.94958246
114	0xbe051781	-0.12997247
115	0x3bac0f52	0.0052508498
116	0x3f932638	1.1496038
117	0xbc047454	-0.008084375
118	0xbe07a9ac	-0.13248318
119	0x3db9cd0b	0.09072312
120	0x3f8d4e2c	1.1039481
121	0x3f924ab8	1.1429052
122	0x3f788c9a	0.9708954
123	0x3f81fb44	1.0154805
124	0x3f8ab769	1.0837222
125	0x3f8867a6	1.0656631
126	0x3f93ea32	1.1555846
127	0x3f92621d	1.1436192

layer2.weight f4 [128, 128]
0	0x3f81f717	1.0153531
1	0x3cb64aeb	0.02225252
2	0xbc114c3f	-0.008868276
3	0x3f6c0e68	0.9220948
4	0x3f69a5df	0.91268724
5	0x3d1a183d	0.03762077
6	0x3f7b68d9	0.9820686
7	0xbd94e74b	-0.07270678
8	0x3f797d00	0.9745636
9	0xbd41f775	-0.047355134
10	0x3ca66a2f	0.020314304
11	0xbd78b264	-0.060717
12	0x3f746df4	0.95480275
13	0x3f6aca46	0.91714895
14	0x3d0a9dfc	0.033842072
15	0x3d7cee1c	0.061750516
16	0xbc4f62cc	-0.012657832
17	0x3d0a2eb0	0.03373593
18	0xbd91be81	-0.07116414
19	0xbd0f56c2	-0.034994848
20	0xbcce715c	-0.025200538
21	0x3d96f441	0.073708065
22	0x3f82843f	1.0196608
23	0x3f7181e1	0.94338804
24	0x3f7f0772	0.99620736
25	0x3d966765	0.0734394
26	0x3f7b1755	0.98082477
27	0x3f684a5f	0.9073848
28	0x3d04ef66	0.03245487
29	0x3f80f74f	1.0075473
30	0x3f65ff24	0.8984244
31	0x3f7442cb	0.9541442
32	0xbd5e2789	-0.054236922
33	0x3d25b15c	0.040452346
34	0x3f79c002	0.97558606
35	0xbd3d0c97	-0.046154585
36	0x3f79b277	0.9753794
37	0x3f835f27	1.0263413
38	0x3a90f113	0.0011058174
39	0x3f7d4e04	0.9894717
40	0x3d93eb89	0.07222659
41	0x3f73d0bb	0.9524037
42	0x3f794142	0.973652
43	0xbd8029a4	-0.06257942
44	0x3f797891	0.97449595
45	0x3d15e317	0.036593523
46	0x3d1a307f	0.037643906
47	0x3f838899	1.0276061
48	0x3f690639	0.9102512
49	0x3c26d898	0.010183476
50	0xbc8ec091	-0.017425807
51	0x3f826510	1.0187092
52	0x3d29abe4	0.041423693
53	0x3d287a30	0.041132152
54	0xbd48efd4	-0.049056843
55	0x3f83342c	1.0250297
56	0xbccaa392	-0.0247362
57	0x3d946a23	0.072468065
58	0xbcda9401	-0.026681902
59	0xbc954191	-0.018219741
60	0x3f798ab0	0.97477245
61	0x3f80dfa2	1.0068247
62	0x3f7d0822	0.98840535
63	0x3c7db737	0.015485576
64	0xbd8c8e7e	-0.06863116
65	0xbd4fd7dc	-0.05074297
66	0x3f805dec	1.0028663
67	0x3f839759	1.0280563
68	0x3d662336	0.056185924
69	0xbd233ae6	-0.03985109
70	0x3f71fcf5	0.94526607
71	0x3f70afdb	0.94018334
72	0x3f6a59fe	0.9154357
73	0x3bb3d9db	0.005488617
74	0xbd009529	-0.03139225
75	0x3f71627f	0.9429092
76	0x3f8145f4	1.0099473
77	0x3bed28c2	0.0072375247
78	0x3f79abc1	0.975277
79	0xbbeb602a	-0.0071830945
80	0x3d564c5a	0.05231891
81	0x393f18b2	0.00018224379
82	0xbcbbf26a	-0.02294274
83	0x3f6a86d4	0.9161198
84	0xbbd47988	-0.006484214
85	0xbd13f1dd	-0.03611933
86	0x3f7b5ac0	0.9818535
87	0x3f6e36ca	0.9305235
88	0x3d8a5e03	0.067562126
89	0x3f84241f	1.0323523
90	0x3f82c3c2	1.021599
91	0xbd317e1f	-0.04333317
92	0x3f6d96e6	0.9280838
93	0x3f716690	0.9429712
94	0x3f6dcf6d	0.9289463
95	0xbd8e351d	-0.06943724
96	0x3aefc18a	0.0018291932
97	0x3f775e9e	0.9662875
98	0x3cfee8b4	0.03111682
99	0x3f85ccdf	1.0453147
100	0xbd4e93aa	-0.050433792
101	0x3f67ef15	0.90599185
102	0xbd020a91	-0.03174836
103	0xbca0507a	-0.019569624
104	0x3f68fa76	0.91007173
105	0x3f71ac3b	0.9440343
106	0x3f6c84d1	0.9239016
107	0x3f80374b	1.0016874
108	0x3f65860c	0.89657664
109	0x3f6e14c9	0.93000466
110	0x3d2c5b2e	0.042079143
111	0x3f7e4663	0.9932615
112	0x3f7939ad	0.9735363
113	0x3f79758a	0.97444975
114	0xbd82403a	-0.063599065
115	0x3c706b42	0.01467401
116	0x3f7054aa	0.9387919
117	0xbc30308b	-0.010753761
118	0x3d95f2fd	0.07321737
119	0x3c226178	0.009910934
120	0x3f6c1026	0.9221214
121	0x3f85cda7	1.0453385
122	0x3f73bbff	0.95208734
123	0x3f81fd64	1.0155454
124	0x3f807892	1.0036795
125	0x3f70f9d2	0.94131196
126	0x3f723e8c	0.9462669
127	0x3f6fc643	0.936619
128	0x3f867ed1	1.0507451
129	0xbd82c0d1	-0.06384433
130	0x3d34c1db	0.044130187
131	0x3f8b2c77	1.0872945
132	0x3f836bc0	1.0267258
133	0xbca84a42	-0.020543221
134	0x3f827771	1.0192701
135	0x3d867535	0.06565324
136	0x3f828ff9	1.0200187
137	0xba4d41c0	-0.0007829927
138	0xbd86a9ec	-0.06575379
139	0x3d724b62	0.059153922
140	0x3f846ae6	1.0345123
141	0x3f81ed11	1.0150472
142	0xbcbb9a37	-0.022900684
143	0x3c461280	0.012089372
144	0x3d17ed5b	0.037091594
145	0xbd733d5a	-0.05938468
146	0xbd8809a3	-0.06642463
147	0xbd59b000	-0.053146362
148	0xbd071e75	-0.03298803
149	0xbd452b70	-0.04813713
150	0x3f829db7	1.0204381
151	0x3f7648f1	0.9620505
152	0x3f7c9f2f	0.98680395
153	0x3ccdfab0	0.025143951
154	0x3f82ab49	1.0208522
155	0x3f899ef9	1.075164
156	0x3bceb220	0.0063078552
157	0x3f88f07b	1.0698389
158	0x3f85c43c	1.0450511
159	0x3f74ad15	0.955766
160	0xbce0a0ff	-0.027420519
161	0xbd258a87	-0.040415313
162	0x3f80c550	1.0060215
163	0xbc3f2a4d	-0.0116678
164	0x3f86c56d	1.0529
165	0x3f7f78eb	0.9979388
166	0x3d969267	0.07352143
167	0x3f827a8f	1.0193652
168	0x3d4e6660	0.0503906
169	0x3f8a131c	1.0787082
170	0x3f7b8a40	0.9825783
171	0xbd3cb729	-0.046073113
172	0x3f862c3a	1.0482247
173	0xbd8af132	-0.067842856
174	0x3a08b825	0.0005215428
175	0x3f7534a5	0.95783454
176	0x3f84fcd0	1.0389652
177	0xbc180d6c	-0.009280544
178	0x3b9fc547	0.004875812
179	0x3f84a9b0	1.0364285
180	0xbd0a8a8f	-0.033823546
181	0x3d6ab30a	0.05729965
182	0xbc25422d	-0.010086578
183	0x3f7e221c	0.99270797
184	0xbd8850e7	-0.06656056
185	0xbd130237	-0.035890784
186	0x3d900d7f	0.07033824
187	0x3d10b5e5	0.03532972
188	0x3f748c3c	0.9552648
189	0x3f7e315b	0.9929406
190	0x3f897721	1.073948
191	0xbd1f64b4	-0.038914397
192	0x3ce097b8	0.027416095
193	0xbd504b80	-0.050853252
194	0x3f8068ad	1.0031945
195	0x3f7ff512	0.9998332
196	0xbd430636	-0.047613345
197	0xbd59ca18	-0.053171247
198	0x3f8b2ea8	1.0873613
199	0x3f7aaa57	0.9791617
200	0x3f845001	1.0336915
201	0xbd6ccaaa	-0.057810463
202	0x3cb3eee7	0.021964503
203	0x3f8b4ef6	1.0883472
204	0x3f818530	1.0118771
205	0xbd2d5112	-0.042313643
206	0x3f81b570	1.0133495
207	0x3c886643	0.016650325
208	0xbcc87ce1	-0.02447361
209	0x3d8a307d	0.0674753
210	0xbb3af577	-0.0028527656
211	0x3f832a4e	1.0247285
212	0x3d3fb809	0.04680637
213	0x3d4ffdfe	0.050779335
214	0x3f7a21e3	0.9770796
215	0x3f8d2109	1.1025707
216	0xbb5faf1e	-0.0034131478
217	0x3f89f686	1.0778358
218	0x3f8c9a72	1.0984633
219	0xbd785102	-0.06062413
220	0x3f7f6335	0.9976075
221	0x3f8645be	1.0490034
222	0x3f8b90b9	1.0903541
223	0x3d4c3c02	0.049861915
224	0x3c48dae8	0.012259223
225	0x3f88f100	1.0698547
226	0x3d3f52b0	0.046709716
227	0x3f7ce9c6	0.9879421
228	0xbd63fa98	-0.055658907
229	0x3f8c6ac5	1.0970083
230	0x3d4a6298	0.049410433
231	0xbd2b39aa	-0.04180304
232	0x3f79ee6a	0.97629416
233	0x3f835398	1.0259886
234	0x3f85950d	1.0436112
235	0x3f8b7246	1.0894248
236	0x3f855fb8	1.0419836
237	0x3f89ec14	1.077517
238	0x3d5fbed1	0.054625336
239	0x3f71aea2	0.94407094
240	0x3f8bae4c	1.0912566
241	0x3f80e25c	1.0069079
242	0xbd08674e	-0.033301644
243	0xbd2fe80a	-0.0429459
244	0x3f763968	0.96181345
245	0xbd7eceb0	-0.06220883
246	0x3d93363e	0.0718808
247	0x3cf5c662	0.030001823
248	0x3f879f83	1.0595554
249	0x3f8583d8	1.043086
250	0x3f8d3ac3	1.1033558
251	0x3f847a2a	1.0349782
252	0x3f847dec	1.0350928
253	0x3f84614b	1.0342191
254	0x3f86dcfd	1.053619
255	0x3f7c5acc	0.98576045

layer2.bias f4 [128]
0	0x3f76e207	0.9643864
1	0x3f72e5ad	0.9488171
2	0xbc767793	-0.015043157
3	0xbd476208	-0.048677474
4	0x3cedf782	0.029048685
5	0xbd460d5c	-0.048352584
6	0x3f6e6c5e	0.93134105
7	0x3f838d55	1.0277506
8	0x3cb8de9f	0.022567092
9	0x3d3548ef	0.044259008
10	0xbd3f0dee	-0.046644144
11	0x3d855e95	0.06512181
12	0x3d5ebec9	0.054381166
13	0x3bca5be8	0.006175507
14	0x3f51045a	0.81647265
15	0x3f77112c	0.9651058
16	0x3f8cd292	1.1001761
17	0xbc5d4ffc	-0.013507839
18	0x3f85dfd3	1.0458931
19	0xbd5dd0bd	-0.054154146
20	0xbd65646e	-0.05600398
21	0x3d254caa	0.040356316
22	0xbc18cb58	-0.009325825
23	0x3d8ea52a	0.06965096
24	0x3b4a5233	0.0030871748
25	0xbbeb133a	-0.007173923
26	0x3cd120b4	0.02552829
27	0xbcfcb66f	-0.03084871
28	0x3d2a84c5	0.041630525
29	0x3f85852f	1.043127
30	0x3d62e0d1	0.055390183
31	0x3f811c30	1.0086727
32	0xbd32b4ca	-0.043629445
33	0x3f78ec3f	0.9723548
34	0x3f855172	1.041548
35	0xbd5b3573	-0.05351777
36	0x3d944db3	0.072413824
37	0xbd99d78c	-0.075118154
38	0x3f68f063	0.909918
39	0x3f7458ce	0.95448005
40	0xbd9c9fbd	-0.07647655
41	0x3d024099	0.031799886
42	0xbd02fdcf	-0.031980332
43	0xbd5d066f	-0.053961214
44	0xbcb28d13	-0.021795785
45	0x3f7c15bf	0.9847068
46	0xbd0171f1	-0.031602804
47	0x3f7945c1	0.9737206
48	0x3cd973a2	0.026544396
49	0x3f71a162	0.94386876
50	0x3d8a4d9e	0.067530856
51	0xbd5c1e3f	-0.053739782
52	0xbb8946de	-0.004189356
53	0x3f7aca9f	0.97965425
54	0xbd32677a	-0.043555714
55	0x3f785f5f	0.97020525
56	0x3f828830	1.0197811
57	0x3f5ccf5b	0.862539
58	0xbcc4f071	-0.024040433
59	0x3d45442b	0.048160713
60	0x3d3ba286	0.04580929
61	0x3f749964	0.95546556
62	0xbd85c3b7	-0.0653147
63	0x3d6a7dda	0.057248928
64	0x3cb5be07	0.022185339
65	0x3f847840	1.0349197
66	0xbce8f6ba	-0.02843796
67	0xbb9e9777	-0.0048398334
68	0xbd2ff40a	-0.042957343
69	0xbc9ae8df	-0.01890987
70	0xbd14049e	-0.036137216
71	0x3f8b344a	1.0875332
72	0x3f826317	1.018649
73	0xbd77008a	-0.06030325
74	0x3cf01732	0.029307935
75	0x3f82b3b8	1.0211096
76	0x3f71766c	0.9432132
77	0xbd4d6b30	-0.05015105
78	0xbc57c050	-0.0131684095
79	0x3f73073f	0.9493293
80	0xbcbc787d	-0.023006672
81	0xbbc24ad7	-0.0059293318
82	0x3f69a21b	0.9126298
83	0xbcddbd0c	-0.027067684
84	0xbce82ed8	-0.02834265
85	0x3f806991	1.0032216
86	0xbd144cff	-0.03620624
87	0x3d113b2d	0.035456825
88	0xbce91735	-0.028453449
89	0xbd371726	-0.04469981
90	0xbcbe1a0c	-0.02320578
91	0x3f7bbf99	0.9833923
92	0x3f8233f7	1.0172108
93	0xbd5a4807	-0.053291347
94	0x3d4a1d3a	0.04934428
95	0x3cd90280	0.02649045
96	0xbc65c652	-0.014024334
97	0x3d921e03	0.071346305
98	0x3f7872b6	0.97050035
99	0xbd95d4e9	-0.07316
100	0x3d0589a3	0.032601964
101	0x3d90ec13	0.070762776
102	0xbd13577d	-0.035972107
103	0x3f8315c2	1.0241015
104	0x3f879b40	1.0594254
105	0x3b910d82	0.004426659
106	0xbd822284	-0.063542396
107	0x3f77762a	0.9666468
108	0xbc7c8b39	-0.015414053
109	0xbc031b3c	-0.008002099
110	0x3f70fa17	0.94131607
111	0x3d1232c1	0.035692934
112	0xbd30fcbb	-0.043209773
113	0x3f869d53	1.0516762
114	0x3f7ae6dc	0.98008513
115	0xbd8b9f46	-0.06817488
116	0x3f74ea50	0.9567003
117	0x3f6459a5	0.89199287
118	0xbcfde416	-0.030992549
119	0x3ca2a308	0.01985313
120	0x3b86ba29	0.0041115475
121	0x3f72d8c5	0.94862014
122	0xbd84f2c4	-0.06491616
123	0x3d5af3b1	0.05345506
124	0x3f78b1c4	0.9714625
125	0x3f83012c	1.0234733
126	0x3c6fde32	0.014640378
127	0xbbde567c	-0.006785212
