Backup/Video_Streaming_DQN_1h40/models_350000.pth (torch, 173013 bytes, 12 tensors)

layer1.weight f4 [128, 28]
00000000: d09a e13d ba88 4ebd ac80 fbbd b930 00be
00000010: 6393 efbd fd9e f4bd a370 a9bd 4d48 643f
00000020: 9114 093d d27f d63d 7a58 c8bc aab3 c63d
00000030: 838a e8bd 4eb9 813c ccbf 0e3d 7fc6 6a3d
00000040: 25ba 733d 48db efbc 29ae 933d 4d36 9c3b
00000050: 4076 c4bc 7cad e8bd 2c2e ca3d ee8c 873d
00000060: ff04 953d 191c e83d 415d 6fbd 6a24 823f
00000070: e499 a6bd c4e3 b4bd 7dde ee3d 163c 0cbd
00000080: 1485 01be 5a6e eebd fd85 04be 115a 93bd
00000090: 6479 8dbd 3c61 e5bd 982d e33d 9ac1 463d
000000a0: 241f 443d 821f b73d 5453 05be 7319 ea3d
000000b0: 6ad4 c2bd 4095 b3bd 38e3 d6bc 631e 1ab9
000000c0: baaf 3ebd f025 bebc 95dd a53d cdec abbc
000000d0: a9fd bebd ada2 debd a4b9 e83d f969 dabd
000000e0: 55a7 733d 65a4 c3bc 8826 e3bd f13a a33d
000000f0: e939 333d c959 98bd 9ed3 033c 154c d2bd
00000100: a98e 8dbc 5b00 a7bd 541d a53d 6b5f 793d
00000110: a580 053e f436 83bd 7907 663d 262e 86bd
00000120: b7ac e2bb 6b7a 8b3d f957 af3d afb0 9e3d
00000130: ecd9 3f3d 7cc1 c6bc 1341 a7bd 8aa9 7a3c
00000140: 7854 29bd 5f33 6ebc 3d4c f3ba a1fc 053c
00000150: e76b ec3d a7ed 563d 014d e0bc d800 e63d
00000160: 8ac5 e2bd 9394 f23d 176a 2f3c 47ba 803f
00000170: 94fc e23d db50 7cbc 17f5 df3b ec72 6a3b
00000180: 4858 b53d 80c7 aebd c1c5 983d 0ab4 ce3d
00000190: 23ce 433d 028f b3bc 0c52 7f3d f50e ddbd
000001a0: d9be 9abd 0d44 a23c 3e68 a93d 94f3 d83d
000001b0: e995 073d 82d3 933c 187a 0dbd 1f08 823f
000001c0: 3dca 9d3d d08c 1a3d ca39 d9bd d01a 7f3c
000001d0: aa46 d63c 8cf7 d53c 660f c0bc d3ea 553f
000001e0: d3f9 e2bd 5777 29bd bc95 8cbd 4b27 3bbd
000001f0: 3af3 a5bd 7c82 1f3d 2285 e6bd 4289 433d
00000200: dfbc 66bc e5a8 f53d 819b 9cbd 2fea c13d
00000210: 6ed9 b63c ab29 e9bd 58d8 ab3d ecd6 6fbc
00000220: 9ebe 283d e8ee fb3c b570 f5bd 5bc6 643f
00000230: b7c7 83bd cbba 503d 751e bfbd 5907 953c
00000240: 950d 92bc ddb1 97bc 55fa 85bb c079 a8bd
00000250: 8579 c83d 73df 873c 5d65 3dbd ec4d 4dbd
00000260: b56d 1cbd 8c27 f4bd 4ade 543d 67e4 f43d
00000270: 98cb 1d3d fb95 af3d e8ec e2bd 3655 d1bd
00000280: 4037 95bd 0d1c de3d 4ac4 f03d e2e2 053e
00000290: 7719 00be 0a62 f63d e2b2 fbbd 8f5a 763d
000002a0: 6fd6 763d f63c 503d 05fc 1e3d 865f df3d
000002b0: e50b c73d 5553 f8bd 273b ffbc 773e 4d3f
000002c0: 7937 d83c 6d36 af3a 9f4d 073e 8d74 ecba
000002d0: c1e8 d4bd 2c11 96bd a291 e0bd 345c 2abd
000002e0: 0828 90bd 453c b2bd c350 e0bd ef7a b7bb
000002f0: 994d 3bbc c9e6 22bd 43cc 64bd a194 f8bc
00000300: b32b e8bd f7a5 9dbd 618b ac3c cbd5 673f
00000310: 1770 323c e111 1f3d 405d de3d 52ff 97bd
00000320: 427d 5a3d f46e a73d 1f63 f33d ebbd c83c
00000330: 045b b4ba 7bda 673d 4289 81bd e7a3 03be
00000340: 674a efbd 4c45 bf3d 1d96 94bd 225e 9b3c
00000350: fba5 5abd 52b2 053e 44ab 983b 752c e93d
00000360: 78c1 63bd 0bc3 2cbc 087d cc3c 2b9f bb3d
00000370: aa4a bb3d 9425 02be e228 97bd cd8a dbbc
00000380: 3f34 f9bd 9141 163d 0398 0ebd b044 cebc
00000390: 4364 7a3d 542e b5bc e761 e13c 9c85 833f
000003a0: e156 6dbd 48c1 d0b9 21c1 8e3d e215 fb3d
000003b0: 0864 313c 4d50 b63d 37d6 34bd 16c9 febd
000003c0: 7f89 e53c af07 78bd 43c5 623c 75d9 ca3d
000003d0: 04af cb3d d248 243d 0c0e 0bbd c136 b9bd
000003e0: 3d2d a53d e156 a73d 5ab8 abbd 223c 713f
000003f0: b4e2 893d 05a6 71bd 0204 ad3d 012c 96bc
0.11015856 -0.05042336 -0.122804016 -0.12518586 -0.11698034 -0.11944387 -0.08273437 0.8917282
0.03346688 0.104735985 -0.024456251 0.09702237 -0.11354544 0.01583543 0.03485088 0.057318207
0.059503693 -0.029279366 0.07210953 0.0047672153 -0.023982167 -0.113612145 0.09872088 0.06618677
0.072763436 0.11333484 -0.058438543 1.0167363 -0.08134821 -0.08832505 0.1166353 -0.03423699
-0.12648422 -0.11642142 -0.12941737 -0.07194913 -0.06907919 -0.112001866 0.11092681 0.048524477
0.04788126 0.089415565 -0.13020068 0.11430635 -0.09513171 -0.087687016 -0.026231393 -0.00014697904
-0.046554305 -0.02321145 0.08098904 -0.020986939 -0.093257256 -0.10870872 0.11363533 -0.10664744
0.059485752 -0.0238821 -0.11091334 0.079702266 0.0437564 -0.07439 0.008046059 -0.10268418
-0.01727994 -0.08154365 0.080622345 0.060882013 0.13037355 -0.06406966 0.05615947 -0.06551771
-0.006917562 0.06810459 0.08561701 0.077485435 0.046838686 -0.024262182 -0.08166709 0.01529921
-0.04134032 -0.014538615 -0.001856215 0.008177907 0.11544018 0.052472737 -0.027380468 0.1123063
-0.11072834 0.118447445 0.010706446 1.0056847 0.11083332 -0.015400137 0.006834637 0.0035774065
0.08854729 -0.08534145 0.074595936 0.100929335 0.04780401 -0.021918777 0.062334105 -0.107938685
-0.075559326 0.01980784 0.08271836 0.10593334 0.03310195 0.01804519 -0.034540266 1.0158728
0.077045895 0.037731946 -0.106067255 0.015570357 0.026156742 0.026119016 -0.023444843 0.8356144
-0.110828064 -0.041373577 -0.06864497 -0.04569177 -0.081030324 0.0389428 -0.11255862 0.04773832
-0.014083116 0.11995105 -0.076468475 0.09468495 0.022320475 -0.11384901 0.08390874 -0.014638644
0.04119741 0.030753568 -0.11984388 0.89365166 -0.06434577 0.05095939 -0.09331981 0.01819198
-0.017828742 -0.018517429 -0.00408868 -0.08226347 0.09788803 0.016586041 -0.046239246 -0.05012314
-0.038190562 -0.119216055 0.051969804 0.11957627 0.03852424 0.085735284 -0.110803425 -0.10221331
-0.07285929 0.10845194 0.11756189 0.1307483 -0.12509714 0.12030418 -0.122899786 0.060144957
0.060263094 0.050839387 0.038814563 0.109068915 0.097190656 -0.12125269 -0.031156136 0.8017344
0.026393639 0.001336766 0.13213204 -0.0018040106 -0.10395957 -0.07327494 -0.10965277 -0.041591838
-0.07038885 -0.08702902 -0.10952904 -0.0055993716 -0.011432075 -0.039770875 -0.05585886 -0.03034431
-0.1133646 -0.07697671 0.021062555 0.905606 0.010890982 0.03883541 0.1085763 -0.07421745
0.05334211 0.081754595 0.1188414 0.024504622 -0.0013760035 0.056604844 -0.06325008 -0.12855493
-0.11684113 0.09339389 -0.07255194 0.018965784 -0.053380948 0.13056305 0.0046590883 0.11385433
-0.055604428 -0.010544549 0.024961963 0.09161218 0.091451004 -0.12709647 -0.07380845 -0.026799584
-0.12168168 0.036683623 -0.03481294 -0.025179237 0.061130773 -0.022116818 0.027512504 1.0275149
-0.057944182 -0.00039816857 0.0697043 0.12260033 0.010827072 0.08902035 -0.044149604 -0.12440698
0.028019665 -0.060554203 0.013840976 0.09904758 0.09945491 0.04010851 -0.033948943 -0.090436466
0.08065269 0.08170868 -0.08384772 0.9423238 0.06732693 -0.05899622 0.0844803 -0.01833153

layer1.bias f4 [128]
00000000: 4c5e 763f 8aca 53bc 4da2 a13d f879 5c3f
00000010: 1b47 7a3f f49f a0bd e50b 813f b4ee 65bd
00000020: 37ee 673f 9d05 0cbd 3d15 8abc 7088 3fbd
00000030: c335 423f 6a95 403f 6c62 b5bd 5998 86bd
00000040: 07cd 97bd 472d 1e3d 070c 8dbb 48ba 0ebd
00000050: 8098 ccbd 8e32 e6bd c91a 663f 812b 643f
00000060: a883 4d3f 845f c83c b39b 603f 33c9 7e3f
00000070: 3e4a 55bd 1918 803f 16c2 823f 7fe4 783f
00000080: 1bed bcbd 5530 6ebd 885a 613f c6b3 aa3c
00000090: 53be 773f d46a 803f 8073 5abd 9d64 743f
000000a0: d455 84bd 3632 7c3f 727d 6f3f 5ecc a73d
000000b0: 1b81 823f 8914 e5bd 10ea e13d 95c1 7b3f
000000c0: 4c13 783f f981 fbbd 6c78 d8bd 3041 713f
000000d0: 7b40 393d 2636 86bd 347b 803d 4ac3 7c3f
000000e0: 4a25 e2bb e696 53bd d153 483d 3f13 543d
000000f0: ecc7 5b3f 1069 7e3f 6aef 7b3f aa1f c3bd
00000100: 6232 2d3c 530b 36bd fe62 823f 4fec 823f
00000110: c4bd 97bc 0670 b53d adfe 5f3f bd33 843f
00000120: 1a61 7a3f 4abb 503d afc3 ccbd 898d 7f3f
00000130: 3955 7d3f 77e1 a33d 21fd 7d3f 45ec e0bd
00000140: df43 7e3d 093c e03d e18f fbbd 8a62 833f
00000150: ea62 84bd 11a8 9c3d 59ae 723f 0f73 4e3f
00000160: 3e5e 80bc 8b46 483f e467 823f 8b33 03be
00000170: 07db 803f 5fef 4e3f 4ee1 6c3f 9c2d 623d
00000180: 77f7 f4bd fd20 813f 8374 933d 9b6d 5c3f
00000190: 7cbd 833d b45b 813f eb5e 9dbd 6668 dabd
000001a0: 4ab1 7b3f f250 643f 79d5 713f 8ca6 5e3f
000001b0: 51e7 583f 5ca8 563f 388b 00bd 7f92 813f
000001c0: 6734 523f 6700 4e3f 32f0 d8bd 9586 8c3b
000001d0: db8f 773f 5cf2 d7bb 461f ddbd 9fc7 973d
000001e0: 9d4b 6e3f fb35 763f 889a 523f 6072 5b3f
000001f0: 52b5 693f 1de2 653f 84b8 783f 915b 763f
0.96237636 -0.012926707 0.078922845 0.8612361 0.9776475 -0.07843009 1.0081755 -0.05613585
0.9059786 -0.03418504 -0.01685583 -0.046760976 0.75863284 0.7522799 -0.08856663 -0.06572027
-0.07412153 0.0386174 -0.0043044123 -0.03484562 -0.099900246 -0.11240111 0.8988462 0.8912888
0.80279016 0.024459608 0.8773758 0.99525756 -0.052072756 1.0007354 1.021548 0.9722366
-0.09224912 -0.05815156 0.88028765 0.020837676 0.96774787 1.0032601 -0.053332806 0.95466024
-0.06461683 0.98514116 0.9355079 0.08193277 1.019565 -0.111855574 0.11030972 0.9834226
0.96904445 -0.1228065 -0.10569844 0.94240093 0.04522751 -0.06553297 0.06273499 0.9873549
-0.006901418 -0.05165758 0.04890806 0.051776167 0.8585193 0.9937906 0.9841219 -0.09527524
0.010571094 -0.044444393 1.018646 1.0228366 -0.018523104 0.088592574 0.8749798 1.0328289
0.97804415 0.050959863 -0.09998261 0.9982534 0.98958164 0.080019884 0.9921437 -0.10982565
0.062076446 0.10948951 -0.12283302 1.0264447 -0.06464179 0.076492436 0.94797283 0.80644315
-0.015669938 0.7823264 1.0187955 -0.12812631 1.0066842 0.80834 0.9253129 0.055219278
-0.11961263 1.0088192 0.07199957 0.86104745 0.06432626 1.010611 -0.0768412 -0.10664444
0.98317397 0.8918601 0.9446636 0.8697288 0.8472796 0.83850646 -0.03138277 1.0122832
0.8211121 0.80469364 -0.105926886 0.0042885044 0.9670388 -0.006590171 -0.107969806 0.074111216
0.93084127 0.9617612 0.82267046 0.857214 0.912923 0.89798146 0.9715655 0.9623347

layer2.weight f4 [128, 128]
00000000: 4340 5b3f 2edb 943c 9a08 edbb b530 483f
00000010: 7b4f 463f 0246 fb3c d1c6 543f 85cd 72bd
00000020: e234 533f 213a 1ebd 33e8 873c 2906 4bbd
00000030: e8e3 4e3f 8530 473f cc0b e23c 547d 4e3d
00000040: a555 29bc 4c52 e13c 6abf 6dbd 3fe6 e9bc
00000050: f197 a8bc 7115 763d de19 5c3f 7884 4c3f
00000060: b0a7 573f 0f34 753d 4482 543f fe40 453f
00000070: cfb1 d83c c2bb 593f 1b37 433f 00c0 4e3f
00000080: 416d 35bd fb50 073d 9368 533f 3a6f 1abd
00000090: 695f 533f 4071 5d3f bd76 6c3a 614e 563f
000000a0: ad3a 713d 8e65 4e3f 1803 533f 4c45 51bd
000000b0: 752f 533f 5f60 f43c 3f6f fb3c c0b6 5d3f
000000c0: 83d5 453f 8942 083c 19f0 68bc 1ce7 5b3f
000000d0: 5392 0a3d 3498 093d fb1f 24bd 8e2d 5d3f
000000e0: b090 a5bc 3c05 723d d390 b2bc f35d 73bc
000000f0: 623d 533f 0a9d 593f a913 563f f022 4f3c
00000100: 4f47 65bd a0b1 29bd 8de7 583f 9fcd 5d3f
00000110: 30d0 3b3d 264d 05bd 17e6 4c3f 89e4 4b3f
00000120: d3d9 463f 4dd2 923b 8cec d1bc c36e 4c3f
00000130: 9035 5a3f 1aa9 c13b 485a 533f 1c36 c0bb
00000140: ffe8 2e3d 6302 1c39 6d91 99bc c7fd 463f
00000150: de58 adbb d344 f1bc 5aba 543f 1cec 493f
00000160: 2ca1 613d dcb2 5e3f 0281 5c3f 2fdb 10bd
00000170: af69 493f 2670 4c3f c59a 493f ad07 68bd
00000180: 3cc5 c33a ba7c 513f 841e d03c 8067 613f
00000190: e6b2 28bd d7f2 443f 6631 d4bc 70ea 82bc
000001a0: 4dcd 453f 1ea4 4c3f 4390 483f 56a8 583f
000001b0: ffcc 423f 79d2 493f a7c4 0c3d 400c 573f
000001c0: d1fe 523f de2d 533f e084 54bd 1c4f 443c
000001d0: ec99 4b3f 35c5 0fbc ca79 743d 409b 043c
000001e0: 4833 483f c069 613f 7756 4e3f 9e48 5b3f
000001f0: 2e10 593f 971f 4c3f f81f 4d3f 542a 4b3f
00000200: b9bd 623f e64c 55bd a293 133d 578a 6a3f
00000210: edbb 5d3f fd70 89bc 2c3a 5c3f 2b1d 5b3d
00000220: bf64 5c3f 65a9 27ba 0575 5bbd 37d5 453d
00000230: ab60 5f3f 7761 5b3f ed47 99bc 79b3 213c
00000240: 05a4 f73c d199 46bd 37bf 5dbd b1d0 31bd
00000250: 3f37 dcbc f5ef 20bd 5278 5c3f 7dbb 503f
00000260: b5f5 553f b43a a83c 388c 5c3f fcef 673f
00000270: d5ca a83b a1cb 663f cf8d 613f 5348 4f3f
00000280: 0368 b7bc 3531 07bd 68a8 593f ee0f 1cbc
00000290: e230 633f 4531 583f dd78 753d 4d3f 5c3f
000002a0: 518f 283d b8a8 683f 311c 553f 832d 1abd
000002b0: d233 623f 7b96 62bd 0fe2 de39 d2c2 4f3f
000002c0: db40 603f 48d7 f7bb 8e78 823b 37c6 5f3f
000002d0: 6aeb e1bc 70a9 3f3d 03f6 06bc 7022 573f
000002e0: fe35 5ebd 65c5 efbc a10a 6b3d 1118 ec3c
000002f0: 712a 4f3f 9f2c 573f 66ae 673f 8a29 02bd
00000300: 9760 b73c 7c0c 2abd 162d 593f 0785 583f
00000310: 3b1f 1fbd 0fe7 31bd 878d 6a3f b75f 543f
00000320: 6431 5f3f a55c 41bd d5e3 923c 28c6 6a3f
00000330: 46c0 5a3f 638b 0dbd c10c 5b3f 9659 5e3c
00000340: b8be a3bc 4c55 613d a4be 18bb a94d 5d3f
00000350: f57c 1c3d 95cf 293d 77f1 533f 90ff 6d3f
00000360: 84a6 36bb 017e 683f cf0b 6d3f c9b9 4abd
00000370: c522 583f 8d5f 623f 2e35 6b3f bedb 263d
00000380: 470e 243c 0ecd 663f ff2e 1c3d b22f 563f
00000390: 1716 3abd 27b3 6c3f b659 253d c6d7 0bbd
000003a0: fcc3 533f 9b95 5d3f 9640 613f e4fd 6a3f
000003b0: 9fea 603f 436f 683f 13b3 363d bdd9 4c3f
000003c0: a969 6b3f f3ce 593f 545b debc c988 0fbd
000003d0: afac 503f 1809 50bd 9818 703d 26a9 c83c
000003e0: d29c 643f 5425 613f 442c 6e3f e378 5f3f
000003f0: 917d 5f3f 294e 5f3f f556 633f 04be 553f
0.8564493 0.01817092 -0.0072336914 0.7819932 0.7746503 0.03067303 0.8311587 -0.05927803
0.8250257 -0.038629655 0.016590213 -0.04956642 0.8081651 0.7780841 0.027593516 0.05041249
-0.010335361 0.027505063 -0.058043875 -0.028552173 -0.020580264 0.060079042 0.8597697 0.7988963
0.84240246 0.0598641 0.8301127 0.77052295 0.026451973 0.8505212 0.7625596 0.8076172
-0.044293646 0.033036213 0.8258144 -0.03770373 0.8256746 0.8650093 0.0009020379 0.83713347
0.05889385 0.8062371 0.82426596 -0.051091477 0.8249429 0.02983111 0.030692695 0.8660698
0.7727892 0.0083166445 -0.0142174 0.8589952 0.033830952 0.033592418 -0.04006956 0.86397636
-0.020210594 0.059087023 -0.021797573 -0.014853942 0.8251554 0.8500525 0.8362375 0.012642607
-0.05597621 -0.041429162 0.8472832 0.8664188 0.04585284 -0.032544278 0.8003859 0.7964559
0.77676123 0.004480636 -0.02562549 0.7985651 0.8523798 0.005910051 0.82559633 -0.0058658253
0.04270267 0.00014878208 -0.018746102 0.77730983 -0.005290135 -0.029451763 0.8309685 0.788759
0.055085346 0.8699167 0.8613435 -0.03536528 0.78676885 0.79858625 0.78751785 -0.056647945
0.00149361 0.8183094 0.025405176 0.88048553 -0.041186236 0.76933044 -0.025902461 -0.01598093
0.7726639 0.7993792 0.78345126 0.8463186 0.7609405 0.7883678 0.03436723 0.84003067
0.8242007 0.8249186 -0.051884532 0.011981752 0.7953174 -0.008775045 0.05968646 0.008093655
0.7820325 0.88051987 0.80600685 0.8565768 0.84790313 0.797357 0.80126905 0.7936146
0.88570744 -0.05207529 0.036029465 0.9161734 0.86614877 -0.01677751 0.86026263 0.053494614
0.86091226 -0.0006395786 -0.053578395 0.04829904 0.8725688 0.85695595 -0.018711055 0.00986945
0.030229578 -0.048486535 -0.054137435 -0.043411914 -0.026881812 -0.03929134 0.86121094 0.81536084
0.83578044 0.020535804 0.86151457 0.9060056 0.0051511326 0.90154463 0.8810701 0.80969733
-0.022388464 -0.03300591 0.8502259 -0.009525282 0.88746464 0.8445018 0.059929717 0.8603409
0.041152302 0.90882444 0.8324614 -0.03764106 0.8836032 -0.05531929 0.00042511566 0.8115665
0.8759896 -0.0075635053 0.0039816564 0.87411827 -0.027578074 0.046792448 -0.008237365 0.8403692
-0.05425071 -0.02926893 0.057383183 0.02882007 0.80924135 0.8405246 0.90500486 -0.031777896
0.022384925 -0.041515812 0.8483442 0.84577984 -0.038848143 -0.043433245 0.91622204 0.8295855
0.8718474 -0.047207493 0.017930904 0.9170861 0.85449636 -0.034556758 0.85566336 0.013571164
-0.019988403 0.055012986 -0.002330699 0.86446625 0.038205106 0.04145773 0.8279032 0.9296808
-0.0027870247 0.90817267 0.92596143 -0.049493585 0.84428054 0.8842705 0.9187802 0.040736906
0.01001317 0.9015664 0.038130756 0.8366653 -0.045431223 0.92460865 0.04036876 -0.034141324
0.82720923 0.86556405 0.87989175 0.91793656 0.87858003 0.9079477 0.044604372 0.8001974
0.919581 0.85081404 -0.027143158 -0.035042558 0.81513494 -0.050789922 0.058617204 0.024494719
0.8930179 0.87947583 0.93036294 0.87293833 0.87300974 0.8722864 0.8880456 0.83493066

layer2.bias f4 [128]
00000000: 3e7a 513f 4148 4e3f 2239 49bc 62cf 22bd
00000010: 1051 c23c 1faf 21bd db94 4a3f d963 5e3f
00000020: f000 973c 3304 143d 1bfa 1bbd c25e 593d
00000030: 41e6 353d 0c54 a53b 199c 323f c5ae 513f
00000040: 1640 6e3f cec0 34bc 4a2c 623f d127 35bd
00000050: 8f37 3bbd 98fe 063d 1410 f9bb 6dc2 683d
00000060: d64b 253b 97f7 bfbb ffb3 aa3c 784f cebc
00000070: c543 0b3d 2da9 613f ad34 393d 3f8e 5a3f
00000080: 12de 11bd 369d 533f bc24 613f fb11 33bd
00000090: c5d7 713d 06d8 7abd cc6c 463f be5b 4f3f
000000a0: cb92 7fbd 7285 d43c c6ab d5bc f985 34bd
000000b0: fabc 91bc e60d 563f fc43 d3bc df9a 533f
000000c0: f39c b13c a437 4d3f da85 613d 39cc 33bd
000000d0: eecf 5fbb 13bb 543f a59d 11bd d5b8 523f
000000e0: 9396 5c3f 2f3b 3c3f 0abe a0bc e204 213d
000000f0: da4e 193d ff85 4f3f 13fc 59bd 397e 3f3d
00000100: c565 943c 5bd8 5f3f 3a3a bebc 9e81 81bb
00000110: c992 0fbd b8a8 7cbc dc62 f1bc 8231 6b3f
00000120: 0f73 5c3f 68a8 49bd d00a c43c 0c1b 5d3f
00000130: 5216 4d3f f4c9 27bd d127 30bc dd67 4e3f
00000140: 4efd 99bc af80 9ebb f2ed 463f 0f18 b5bc
00000150: fe8c bdbc fca7 593f a3d6 f1bc 51ed ec3c
00000160: 6156 bebc 5f85 15bd 803e 9bbc 5c8b 553f
00000170: f54f 5c3f f552 32bd 031f 253d fb3b b13c
00000180: de85 3bbc 4558 6e3d 30f8 523f b349 74bd
00000190: bba1 d93c c16e 6c3d d14d f0bc 95a6 5d3f
000001a0: 61ef 643f 38a4 6c3b a856 54bd 8923 523f
000001b0: e42b 4ebc 8cd9 d5bb e598 4c3f 6d79 ee3c
000001c0: 5b6f 10bd 8943 633f aa08 553f 9bb8 63bd
000001d0: a420 503f 9c39 423f e547 cfbc e5d0 843c
000001e0: 1690 5b3b 1b3f 4e3f 0cb7 58bd 61dd 323d
000001f0: 264d 533f 8983 5d3f 80dc 433c ce92 b5bb
0.8182715 0.80579 -0.012281688 -0.039748557 0.023720294 -0.03947365 0.79133385 0.86871105
0.018433064 0.036136817 -0.038080316 0.053068884 0.04440904 0.0050454196 0.69769436 0.819073
0.9306654 -0.011032296 0.8834883 -0.044227425 -0.04570728 0.032957643 -0.0076007936 0.056826044
0.0025222204 -0.0058583724 0.020837782 -0.025184378 0.034000177 0.88148767 0.04521625 0.853733
-0.035612173 0.8266176 0.8794668 -0.04371832 0.059043664 -0.061241172 0.7750976 0.8099936
-0.062395852 0.025942538 -0.026082885 -0.04407308 -0.017790306 0.8361496 -0.025789253 0.8265819
0.021681285 0.80163026 0.05505929 -0.043895934 -0.0034151035 0.8309795 -0.035550732 0.8231328
0.8616726 0.73527807 -0.019621868 0.039311297 0.037428714 0.81063837 -0.053218912 0.046751235
0.018114934 0.8743951 -0.023221124 -0.003952219 -0.035052095 -0.015421085 -0.029466085 0.9187242
0.86113065 -0.04923287 0.023930937 0.86369395 0.80112183 -0.040964082 -0.0107516805 0.8062723
-0.018797543 -0.0048371176 0.77706826 -0.022106199 -0.02313852 0.8502195 -0.029521292 0.028921755
-0.023234548 -0.036504146 -0.0189507 0.8341577 0.86059505 -0.043536145 0.04031278 0.021635046
-0.011445491 0.05818965 0.82409954 -0.059640598 0.026566377 0.05772281 -0.02933398 0.8658231
0.89427763 0.0036108624 -0.051840454 0.8208547 -0.0125837065 -0.0065261777 0.799208 0.029110635
-0.035262447 0.88774925 0.83216345 -0.055595975 0.81299806 0.75869155 -0.025302837 0.01621289
0.003350263 0.8056504 -0.052908942 0.043668155 0.82539594 0.8652883 0.011954427 -0.005541182

layer3.weight f4 [7, 128]
00000000: bb32 2f3f a47f 203f bf58 89bc deaa 20bd
00000010: 936b 3f3c 00fb 57bd 7bd6 223f 7660 1f3f
00000020: c650 603d 3755 0a3d 638b 67bd d6a9 a1bc
00000030: bdfc 00bd 1906 0c3d d521 153f 0c70 263f
00000040: 0f76 0f3f a6ad 2e3d 69ed 213f ab02 c83c
00000050: 2c60 f73c f19e 9cbc 71a9 b2bc d374 823d
00000060: 0f80 1b3d 2df4 3fbd cf53 873c 081d 78bc
00000070: 07ae f73c 1f36 1e3f 76c4 d23a 03cb 213f
00000080: 7ee1 293d aff1 1a3f 9616 2b3f 3ba8 2c3c
00000090: b8f8 603d e117 263d 3aaf 1d3f f7a8 293f
000000a0: 251a d3bc af9e 683d 39b2 163c a312 abbc
000000b0: a143 bb3c 626a 233f 0f0a 5d3d cb66 223f
000000c0: fdd1 a83c 989d 1f3f 4736 a13c 4f1a b53b
000000d0: d50b 313d 746d 2e3f 52fe 0cbd ba7d 2e3f
000000e0: 2196 2e3f 8fd0 233f a094 573c a08e 033d
000000f0: 443a 05bd 28ea 243f 27ae bdbc 2acd 9bbc
00000100: c88f 6abc 1b62 233f 63bb f13c 600c d6bc
00000110: c14f 5dbd d1ae e0bc b397 aabc 3bd3 153f
00000120: 2b80 213f 229f 55bd fb6c 5abd dd83 1b3f
00000130: 46f9 253f a9b5 1d3c c4e8 94bb 37cf 223f
00000140: 6ee8 623d 8199 a4bc 9846 1f3f d061 673d
00000150: a803 7f3c 64aa 1f3f d5d5 40bd d188 303d
00000160: e36c 743c d1c8 993c 9170 20bd 49fe 2e3f
00000170: 06e5 183f 77a2 5a3c 6099 90bc e629 55bd
00000180: 2d25 6fbd cd35 3c3d 3986 233f ed10 1d3d
00000190: 52c1 62bd 11e2 073c 31ab 22bd ed02 1e3f
000001a0: b3d7 253f fc78 abbc dc1e cdbc de5c 2f3f
000001b0: b802 9d3c e747 0f3d 9b57 273f fab8 663d
000001c0: da2d 373d 0228 2a3f 68bb 2c3f 0c5a f3bc
000001d0: 254c 153f 607f 2a3f 2c25 01bc 1c57 36bd
000001e0: c597 743d 06f1 223f bb58 cabc aff3 033c
000001f0: 4e4d 1a3f 4ccf 1b3f 3cbc 0e3b b6b1 9ebc
00000200: bf45 de3e 1c89 d53e 490d 383c ad94 f1bc
00000210: 553e 5c3c 1c50 243d 240a cb3e 3547 d73e
00000220: 3256 19bd a570 98bb 7307 763c ef1e f73b
00000230: 50b7 1ebc 9874 593d 951c d93e 71bb d93e
00000240: 3150 e63e a647 9f3b b792 f33e b15b 16bd
00000250: 43dd 993c 03e1 34b9 e158 5a3d d309 5d3d
00000260: 131f 3f3d fdbe 3f3d 136c abbc d76a b23b
00000270: 350e 5ebd 8d0b f33e 03cc 773c 033d d33e
00000280: fcd9 3c3c 6a76 e93e 0ca3 dc3e d5b5 783c
00000290: a8c4 32bc e88f 34bb 71e4 e43e 2e8b e73e
000002a0: 0205 563c 0d6c efbc 718d 59bc 60cd 033d
000002b0: fad1 543d 98b3 f63e 6db1 88bc 616e c23e
000002c0: 2840 073d eeec b93e 1192 ac3c d8e5 19bc
000002d0: 5508 f8bc b154 c03e 968e 9a3c 99a2 d73e
000002e0: caa5 df3e a46f e83e 64eb ab3c 1385 8ebc
000002f0: b277 603d edfe cd3e 11bd 33bd 0a4f 6fbd
00000300: eb9a 153d f509 eb3e 1aa0 f83c 1379 dc3c
00000310: 7719 153d 4073 ce3c 237f 723b d313 f23e
00000320: 2d0b c93e 7d8e 0c3d 838b 8c3c de32 d53e
00000330: cff9 ec3e 39af 3bbc dc85 59bd 0078 ca3e
00000340: 1fa1 ecbc 1dd9 063d 4f40 d43e 8698 5c3d
00000350: 80f8 3b3d 3f0b c13e c3e5 153d eb02 26bd
00000360: b8c9 71bd 63ca 3dbd 6ff7 8ebc 318b df3e
00000370: bd22 e43e 5713 eb3c cc9f 983c df99 033c
00000380: 1bd6 7d3c aeed b23c ad5b f23e 21e0 db3b
00000390: c083 41bc d441 b93c 68d4 b3bc ffc9 cd3e
000003a0: 8cc6 d63e 2add 253c b90f 953c 70cd ee3e
000003b0: 913e bd3b dc38 72bd 53fe d73e e263 62bd
000003c0: 0062 543d 9864 ec3e f9f1 e33e ae55 4f3c
000003d0: 1ec6 e83e a5fe d63e 5fc3 48bd 0ff6 44bc
000003e0: 79f7 5f3c d61a d83e 57bc 893b 6c48 59bc
000003f0: bf49 ee3e 9ebf d83e a027 cbbc a75c 0c3d
0.68436784 0.62694764 -0.01676595 -0.03922545 0.011683363 -0.052729607 0.6360852 0.6225656
0.05476453 0.033772673 -0.056529414 -0.019734304 -0.03149103 0.034185503 0.5825475 0.6501472
0.5603952 0.042646073 0.63252884 0.024415335 0.030197226 -0.019118758 -0.021809312 0.06369939
0.037963923 -0.046863724 0.016519455 -0.01514364 0.03023435 0.6180133 0.0016080278 0.63200396
0.04147481 0.6052503 0.6683134 0.010538156 0.054924697 0.040550116 0.615955 0.66273445
-0.025769303 0.056791957 0.009197765 -0.02088291 0.022859396 0.638342 0.05396467 0.634381
0.020607943 0.62349844 0.019679202 0.005526818 0.043224175 0.6813576 -0.034422226 0.68160594
0.6819783 0.6399011 0.013157994 0.03211844 -0.03252627 0.64419794 -0.023154331 -0.019018728
-0.014316507 0.6382157 0.029508298 -0.026128948 -0.054031137 -0.027427109 -0.020824289 0.5852544
0.63086194 -0.052153714 -0.053326588 0.6074808 0.64833486 0.009625831 -0.0045443494 0.63597435
0.055397443 -0.020092728 0.6221709 0.056489766 0.015564837 0.6236937 -0.047078926 0.04309923
0.014918539 0.018772515 -0.03916985 0.6835676 0.5972446 0.013344399 -0.01765126 -0.05204191
-0.058385063 0.045949746 0.6387668 0.03834622 -0.055360146 0.0082936445 -0.039714042 0.61723214
0.64782256 -0.020931713 -0.025039129 0.6850108 0.019166335 0.03498068 0.6536805 0.05632875
0.04472146 0.664673 0.6747346 -0.029706024 0.5831931 0.6660061 -0.007882398 -0.044516668
0.05971505 0.6364902 -0.024700513 0.008053704 0.6027421 0.60863185 0.0021779677 -0.019371849
0.43412587 0.4170617 0.011233636 -0.02948984 0.0134425955 0.04011546 0.39656174 0.42046514
-0.037435718 -0.0046521 0.0150164245 0.0075415294 -0.00968726 0.053089708 0.4240462 0.4252582
0.44983056 0.004860836 0.47572872 -0.036708537 0.018782264 -0.00017249961 0.053307418 0.053964447
0.046660494 0.046813 -0.020925557 0.005444865 -0.054212768 0.4746975 0.015124324 0.41257486
0.011526581 0.45598155 0.43093145 0.015180071 -0.010911144 -0.0027551595 0.44705537 0.45223373
0.013062717 -0.029226327 -0.013278351 0.032178283 0.05195806 0.48183894 -0.016686166 0.37974837
0.03302017 0.36313576 0.021065744 -0.009393178 -0.03027741 0.37564614 0.018866818 0.4211624
0.43681175 0.45397675 0.020986266 -0.01739744 0.05480165 0.40233555 -0.04388148 -0.058424987
0.036524694 0.45906034 0.03034978 0.026913201 0.03640124 0.02520144 0.003700205 0.4728075
0.3926634 0.034315575 0.017156368 0.4164037 0.4628434 -0.011455351 -0.053106174 0.39544678
-0.028885422 0.0329219 0.41455314 0.053856395 0.045891285 0.37703893 0.03659607 -0.040530127
-0.059030265 -0.04633559 -0.01745197 0.43660882 0.44557753 0.028695745 0.018630885 0.008032291
0.015492941 0.02184185 0.47335568 0.006710068 -0.011811197 0.022614397 -0.02195187 0.40193173
0.41948354 0.01012353 0.018195974 0.4664111 0.0057752808 -0.059136257 0.4218622 -0.055271037
0.051851273 0.46170497 0.44520548 0.012654705 0.4546365 0.41991153 -0.049014445 -0.012021556
0.013669842 0.42207974 0.00420336 -0.013261896 0.4654064 0.42333692 -0.024799168 0.034268048

layer3.bias f4 [7]
00000000: 5f1f 203f d8e9 173e fc2c 563e d2b1 663e
00000010: 4a49 383e 9af2 1c3e 97d6 163e
0.6254787 0.14835298 0.20915598 0.2252877 0.17996708 0.1532692 0.14730297

layer1.weight f4 [128, 28]
00000000: 8aa6 e13d aa93 4ebd f18d fbbd c137 00be
00000010: e29f efbd 82ab f4bd 3b79 a9bd 5463 643f
00000020: 991b 093d c28a d63d a262 c8bc d2bd c63d
00000030: 3e96 e8bd 56c0 813c d4c6 0e3d 02d3 6a3d
00000040: aac6 733d cae7 efbc fbb5 933d 1f3e 9c3b
00000050: 6880 c4bc 34b9 e8bd 5438 ca3d f693 873d
00000060: d50c 953d d527 e83d c269 6fbd 2433 823f
00000070: 7ca2 a6bd 26ed b4bd 02eb ee3d 1e43 0cbd
00000080: 1c8c 01be da7a eebd 058d 04be e161 93bd
00000090: 6c80 8dbd f76c e5bd 5039 e33d c2cb 463d
000000a0: 4c29 443d e328 b73d 5c5a 05be f225 ea3d
000000b0: 92de c2bd a29e b3bd 28ee d6bc 3926 1ab9
000000c0: e0b9 3ebd 1630 bebc 2de6 a53d 65f5 abbc
000000d0: cf07 bfbd 66ae debd 5fc5 e83d b275 dabd
000000e0: dab3 733d 8dae c3bc 4332 e3bd 8943 a33d
000000f0: 4b43 333d 9b61 98bd a6da 033c 0457 d2bd
00000100: b195 8dbc f308 a7bd ec25 a53d b06c 793d
00000110: ad87 053e fc3d 83bd 3213 663d 2e35 86bd
00000120: 72b8 e2bb 7381 8b3d 5a61 af3d 45b9 9e3d
00000130: 12e4 3f3d a4cb c6bc ab49 a7bd cfb6 7a3c
00000140: 105d 29bd e23f 6ebc c258 f3ba a903 063c
00000150: 6a78 ec3d 96f8 563d bb58 e0bc 930c e63d
00000160: 45d1 e2bd 13a1 f23d 7673 2f3c efc8 803f
00000170: 4f08 e33d 205e 7cbc d200 e03b 727f 6a3b
00000180: aa61 b53d e2d0 aebd 93cd 983d fabe ce3d
00000190: 4bd8 433d 6398 b3bc 515f 7f3d af1a ddbd
000001a0: b1c6 9abd a54c a23c d670 a93d 84fe d83d
000001b0: f19c 073d 53db 933c 2081 0dbd e516 823f
000001c0: 11d2 9d3d a794 1a3d ba44 d9bd 1528 7f3c
000001d0: 9a51 d63c 7c02 d63c 8e19 c0bc 0f05 563f
000001e0: 8e05 e3bd ef7f 29bd c49c 8cbd ab30 3bbd
000001f0: d2fb a5bd 128b 1f3d dc90 e6bd 6a93 433d
00000200: 9ac8 66bc 6ab5 f53d 55a3 9cbd 57f4 c13d
00000210: cfe2 b63c 6735 e9bd f0e0 ab3d 72e3 6fbc
00000220: 36c7 283d 2efc fb3c 3a7d f5bd 61e1 643f
00000230: bfce 83bd bac5 503d 9b28 bfbd 2d0f 953c
00000240: 6b15 92bc adb9 97bc 5d01 86bb 5882 a8bd
00000250: ad83 c83d 7be6 873c 836f 3dbd dc58 4dbd
00000260: 8d75 1cbd 1234 f4bd 3ae9 543d ebf0 f43d
00000270: 6fd3 1d3d 5a9f af3d a0f8 e2bd 2660 d1bd
00000280: 113f 95bd c527 de3d cbd0 f03d eae9 053e
00000290: 7f20 00be 8b6e f63d 28c0 fbbd 1367 763d
000002a0: f3e2 763d e647 503d 9b04 1f3d 3f6b df3d
000002b0: 0d16 c73d dd5f f8bd 6c48 ffbc b758 4d3f
000002c0: 6842 d83c ce3f af3a a754 073e 1281 ecba
000002d0: b0f3 d4bd ff18 96bd 5d9d e0bd cc64 2abd
000002e0: df2f 90bd a745 b2bd 7b5c e0bd 4f84 b7bb
000002f0: fb56 3bbc 61ef 22bd fbd7 64bd e7a1 f8bc
00000300: 6b37 e8bd c7ad 9dbd f993 ac3c d8f0 673f
00000310: 7779 323c 771a 1f3d f768 de3d 2307 98bd
00000320: f988 5a3d 8c77 a73d a36f f33d 13c8 c83c
00000330: 6664 b4ba 35e6 673d 4a90 81bd efaa 03be
00000340: ea56 efbd 724f bf3d ef9d 94bd f365 9b3c
00000350: b2b1 5abd 5ab9 053e 17b3 983b 2d38 e93d
00000360: 34cd 63bd a3cb 2cbc f887 cc3c 8ba8 bb3d
00000370: 0b54 bb3d 9c2c 02be b930 97bd 8696 dbbc
00000380: 8441 f9bd 6549 163d 0b9f 0ebd a04f cebc
00000390: 8871 7a3d b637 b5bc a06d e13c 4994 833f
000003a0: 6263 6dbd 38cc d0b9 29c8 8e3d 2723 fb3d
000003b0: 6a6d 313c af59 b63d 97df 34bd 5bd6 febd
000003c0: 3895 e53c 3314 78bd ffd0 623c 9de3 ca3d
000003d0: f4b9 cb3d 6a51 243d 1415 0bbd 2340 b9bd
000003e0: d535 a53d 795f a73d f2c0 abbd ff57 713f
000003f0: bce9 893d 8ab2 71bd 9c0c ad3d d533 96bc
0.11018093 -0.050433792 -0.122829325 -0.12521268 -0.11700417 -0.11946775 -0.08275076 0.8921406
0.033473585 0.10475685 -0.024461094 0.09704174 -0.113567814 0.015838783 0.034857586 0.05733014
0.059515633 -0.02928533 0.072124444 0.0047681476 -0.02398701 -0.1136345 0.09874025 0.06620018
0.07277838 0.11335722 -0.058450468 1.0171857 -0.0813646 -0.08834295 0.11665918 -0.034243695
-0.12651104 -0.11644526 -0.1294442 -0.07196403 -0.0690926 -0.11202424 0.11094916 0.048534162
0.047890946 0.089433454 -0.1302275 0.11433019 -0.09515108 -0.08770491 -0.026236609 -0.00014700824
-0.046563983 -0.023216289 0.08100543 -0.020991037 -0.09327661 -0.108731076 0.113657705 -0.1066698
0.05949769 -0.023886943 -0.11093571 0.07971866 0.043765347 -0.07440492 0.008047735 -0.10270503
-0.017283292 -0.08156004 0.08063874 0.060894668 0.13040037 -0.06408307 0.05617065 -0.06553112
-0.0069189603 0.068118 0.0856349 0.07750181 0.046848364 -0.024267025 -0.08168348 0.015302374
-0.041348517 -0.014541598 -0.0018565881 0.008179584 0.11546405 0.052483164 -0.02738606 0.11232867
-0.11075071 0.11847129 0.01070868 1.006132 0.11085569 -0.0154033005 0.0068360353 0.003578153
0.088565186 -0.08535935 0.07461085 0.1009502 0.047813695 -0.02192325 0.06234676 -0.10796105
-0.07557429 0.019811938 0.08273475 0.1059542 0.033108655 0.018048918 -0.03454697 1.0163237
0.077060826 0.037739422 -0.10608812 0.015573521 0.026161958 0.026124232 -0.023449685 0.8360147
-0.11085044 -0.041381773 -0.06865838 -0.04570071 -0.081046715 0.038950987 -0.112580985 0.047748007
-0.014085913 0.119974926 -0.076483406 0.09470432 0.022324948 -0.11387139 0.08392513 -0.0146416295
0.041205607 0.030759897 -0.11986776 0.894064 -0.06435918 0.050969817 -0.09333917 0.018195713
-0.017832479 -0.018521154 -0.004089518 -0.08227986 0.0979074 0.016589394 -0.046248924 -0.05013357
-0.038198043 -0.11923994 0.051980235 0.11960014 0.038531717 0.08575316 -0.11082578 -0.10223417
-0.072874196 0.10847429 0.11758574 0.13077512 -0.12512396 0.12032803 -0.1229251 0.060156893
0.06027503 0.050849818 0.03882275 0.109091274 0.09721003 -0.121276595 -0.031162463 0.80213493
0.026398852 0.0013370456 0.13215886 -0.0018043837 -0.10398042 -0.073289864 -0.10967515 -0.041600034
-0.07040381 -0.087046914 -0.10955139 -0.005600489 -0.011434312 -0.03977907 -0.055870038 -0.030350639
-0.11338695 -0.07699161 0.021066653 0.90601873 0.010893217 0.0388436 0.10859864 -0.07423236
0.053353284 0.08177099 0.118865274 0.024509465 -0.0013762831 0.056616027 -0.06326349 -0.12858175
-0.116864994 0.09341325 -0.07256686 0.018969512 -0.05339212 0.13058987 0.004660021 0.11387668
-0.05561562 -0.010546598 0.024967179 0.091630064 0.09146889 -0.1271233 -0.0738234 -0.026805174
-0.12170699 0.03669109 -0.034819644 -0.025184453 0.061143428 -0.022121292 0.027518094 1.0279628
-0.057956107 -0.00039825006 0.06971771 0.12262564 0.010829309 0.089038245 -0.044158544 -0.12443229
0.028025255 -0.06056614 0.013843774 0.09906695 0.09947577 0.040116705 -0.03395565 -0.09045436
0.08066908 0.08172507 -0.08386411 0.94274896 0.067340344 -0.05900816 0.08449671 -0.018335262

layer1.bias f4 [128]
00000000: 237a 763f 7ad5 53bc e5aa a13d 0695 5c3f
00000010: ac63 7a3f 8ca8 a0bd a71a 813f 6efa 65bd
00000020: 4409 683f a50c 0cbd 451c 8abc 9692 3fbd
00000030: 484f 423f e8ae 403f ce6b b5bd 619f 86bd
00000040: ddd4 97bd dd35 1e3d 0f13 8dbb 50c1 0ebd
00000050: 70a3 ccbd 483e e6bd d835 663f 9046 643f
00000060: e89d 4d3f ac69 c83c bdb6 603f d9e5 7e3f
00000070: 2e55 55bd c726 803f ded0 823f 1201 793f
00000080: 41f7 bcbd da3c 6ebd 8775 613f 5ebc aa3c
00000090: 26da 773f 8b79 803f 397f 5abd 7780 743f
000000a0: dc5c 84bd de4e 7c3f 4499 6f3f f6d4 a73d
000000b0: d58f 823f 4420 e5bd ccf5 e13d 3bde 7b3f
000000c0: 132f 783f 3e8f fbbd 5c83 d8bd f45c 713f
000000d0: db49 393d 2e3d 86bd 3c82 803d eedf 7c3f
000000e0: 0431 e2bb d6a1 53bd f95d 483d 2e1e 543d
000000f0: ebe2 5b3f b185 7e3f 050c 7c3f d229 c3bd
00000100: c23b 2d3c b314 36bd a971 823f 18fb 823f
00000110: 97c5 97bc 6779 b53d b619 603f 7a42 843f
00000120: c27d 7a3f 3ac6 503d 9ece ccbd 2eaa 7f3f
00000130: d171 7d3f 0fea a33d b419 7e3f fdf7 e0bd
00000140: 2451 7e3d c247 e03d 279d fbbd 3371 833f
00000150: f269 84bd e9af 9c3d 3cca 723f 4f8d 4e3f
00000160: 4665 80bc 0560 483f 8276 823f 933a 03be
00000170: a5e9 803f 9a09 4f3f 2afd 6c3f 5639 623d
00000180: fb03 f5bd c02f 813f 537c 933d 9f88 5c3f
00000190: 84c4 833d 616a 813f c366 9dbd 1d74 dabd
000001a0: f3cd 7b3f 036c 643f 47f1 713f 96c1 5e3f
000001b0: 9901 593f a6c2 563f 4092 00bd 25a1 813f
000001c0: a94e 523f a51a 4e3f 22fb d8bd 9d8d 8c3b
000001d0: afab 773f 4cfd d7bb ff2a ddbd 6fcf 973d
000001e0: 6d67 6e3f c651 763f c7b4 523f 6c8d 5b3f
000001f0: 1fd1 693f 28fd 653f 16d5 783f 5e77 763f
0.96280116 -0.012929315 0.07893924 0.8616489 0.9780834 -0.07844648 1.0086259 -0.05614703
0.9063914 -0.034191746 -0.016859183 -0.046770655 0.75902224 0.75266886 -0.08858453 -0.06573368
-0.07413647 0.038625587 -0.0043052505 -0.034852326 -0.09992111 -0.11242348 0.8992591 0.8917017
0.8031907 0.02446445 0.87778836 0.9956947 -0.052083187 1.0011834 1.0219991 0.9726726
-0.092268474 -0.0581635 0.8806996 0.020841774 0.96817243 1.0037092 -0.053343985 0.9550852
-0.06463024 0.9855784 0.9359324 0.08194916 1.0200144 -0.11187795 0.1103321 0.9838597
0.9694683 -0.12283181 -0.1057193 0.9428246 0.04523645 -0.06554638 0.0627484 0.9877919
-0.006902816 -0.05166801 0.048917744 0.051786594 0.85893124 0.99422747 0.9845584 -0.09529461
0.010573329 -0.044453334 1.0190936 1.0232878 -0.018526835 0.08861046 0.8753923 1.0332787
0.9784814 0.050970294 -0.100003466 0.9986905 0.99001795 0.080036275 0.9925797 -0.109848
0.0620891 0.10951187 -0.12285834 1.0268921 -0.0646552 0.0765074 0.94839835 0.8068437
-0.015673291 0.78271514 1.0192416 -0.12815313 1.0071303 0.80874026 0.925738 0.05523046
-0.1196365 1.0092697 0.07201447 0.8614597 0.06433967 1.0110589 -0.07685616 -0.10666678
0.9836113 0.8922731 0.94508785 0.8701414 0.8476806 0.8389076 -0.031389475 1.0127302
0.82151276 0.80509406 -0.10594775 0.0042893426 0.96746343 -0.0065914746 -0.107992165 0.07412612
0.93126565 0.96218526 0.82307094 0.8576267 0.9133472 0.8983941 0.97200143 0.9627589

layer2.weight f4 [128, 128]
00000000: bb5a 5b3f ffe2 943c 1a15 edbb 9f49 483f
00000010: 6868 463f 4853 fb3c 8fe0 543f 0ada 72bd
00000020: 904e 533f b742 1ebd 3bef 873c 5110 4bbd
00000030: b1fd 4e3f 6f49 473f 8717 e23c 4488 4e3d
00000040: 3d5e 29bc 055e e13c eacb 6dbd c2f2 e9bc
00000050: 89a0 a8bc f321 763d 6034 5c3f 2c9e 4c3f
00000060: 67c1 573f 9340 753d fb9b 543f e559 453f
00000070: bebc d83c 7ad5 593f 0050 433f b9d9 4e3f
00000080: a376 35bd 0358 073d 4482 533f 0b77 1abd
00000090: 1679 533f b48b 5d3f 4283 6c3a 2168 563f
000000a0: 3247 713d 3c7f 4e3f d21c 533f 3c50 51bd
000000b0: 2049 533f e36c f43c 857c fb3c 3bd1 5d3f
000000c0: 75ee 453f 9149 083c d3fb 68bc a801 5c3f
000000d0: 5b99 0a3d 3c9f 093d 9328 24bd ff47 5d3f
000000e0: 4899 a5bc c211 723d 339a b2bc 736a 73bc
000000f0: 1057 533f b8b6 593f 612d 563f e02d 4f3c
00000100: 0753 65bd 38ba 29bd 4301 593f 15e8 5d3f
00000110: 92d9 3b3d 2e54 05bd ccff 4c3f 3bfe 4b3f
00000120: b8f2 463f 23da 923b 7cf7 d1bc 7788 4c3f
00000130: 674f 5a3f 42b3 c13b f573 533f 4440 c0bb
00000140: 5ef2 2e3d 350a 1c39 3f99 99bc b516 473f
00000150: 3e62 adbb 5351 f1bc 24d4 543f 0b05 4a3f
00000160: e8ac 613d 5fcd 5e3f 849b 5c3f 03e3 10bd
00000170: ac82 493f e189 4c3f b6b3 493f 6713 68bd
00000180: 64cf c33a 7196 513f 7429 d03c f581 613f
00000190: 7ebb 28bd bd0b 453f 563c d4bc 78f1 82bc
000001a0: 3fe6 453f dfbd 4c3f 33a9 483f 07c2 583f
000001b0: f0e5 423f 6aeb 493f afcb 0c3d f925 573f
000001c0: 8a18 533f 9247 533f d08f 54bd 4459 443c
000001d0: 99b3 4b3f 0acd 0fbc 4b86 743d 48a2 043c
000001e0: 2f4c 483f 3784 613f 3c70 4e3f 2263 5b3f
000001f0: dc29 593f 4a39 4c3f a839 4d3f 7443 4b3f
00000200: d4d8 623f d657 55bd 759b 133d 31a6 6a3f
00000210: 0ed7 5d3f 0578 89bc 4a55 5c3f e428 5b3d
00000220: dd7f 5c3f fdb1 27ba be80 5bbd 5fdf 453d
00000230: ce7b 5f3f 9c7c 5b3f c54f 99bc 11bc 213c
00000240: 8ab0 f73c f9a3 46bd f0ca 5dbd 13da 31bd
00000250: f742 dcbc 8df8 20bd 6e93 5c3f d6d5 503f
00000260: 0310 563f 4c43 a83c 52a7 5c3f 1a0b 683f
00000270: 6dd3 a83b bce6 663f eca8 613f 9e62 4f3f
00000280: 6371 b7bc 3d38 07bd c0c2 593f c317 1cbc
00000290: fb4b 633f 974b 583f 6285 753d 725a 5c3f
000002a0: e997 283d cfc3 683f 8e36 553f 5735 1abd
000002b0: f34e 623f 33a2 62bd c7ed de39 2cdd 4f3f
000002c0: fe5b 603f cbe3 f7bb 967f 823b 58e1 5f3f
000002d0: 25f7 e1bc 96b3 3f3d 0bfd 06bc c33c 573f
000002e0: b541 5ebd ead1 efbc 2217 6b3d 9224 ec3c
000002f0: c344 4f3f ee46 573f 89c9 673f 9230 02bd
00000300: f769 b73c 1415 2abd 6c47 593f 629f 583f
00000310: d127 1fbd 6ff0 31bd 6aa9 6a3f 137a 543f
00000320: 744c 5f3f cd66 41bd adeb 923c 14e2 6a3f
00000330: 5fdb 5a3f 6b92 0dbd e027 5b3f 4f65 5e3c
00000340: 50c7 a3bc 0761 613d 77c6 18bb d168 5d3f
00000350: c984 1c3d 2dd8 293d de0b 543f 6e1b 6e3f
00000360: e6af 36bb 2199 683f ad27 6d3f f0c3 4abd
00000370: 213d 583f bb7a 623f 1651 6b3f 56e4 263d
00000380: df16 243c 27e8 663f d136 1c3d 104a 563f
00000390: 771f 3abd 12cf 6c3f 4e62 253d cede 0bbd
000003a0: 4cde 533f bab0 5d3f b85b 613f c219 6b3f
000003b0: c505 613f 658a 683f 73bc 363d 04f4 4c3f
000003c0: 9185 6b3f 4de9 593f 0d67 debc 9c90 0fbd
000003d0: fcc6 503f 0814 50bd 1b25 703d 4eb3 c83c
000003e0: edb7 643f 7640 613f 2c48 6e3f 0094 5f3f
000003f0: aa98 5f3f 5169 5f3f 1372 633f 58d8 553f
0.8568532 0.018174646 -0.0072351815 0.78237337 0.7750306 0.03067936 0.8315515 -0.05928997
0.8254175 -0.038637843 0.016593566 -0.049576107 0.8085585 0.77846426 0.02759911 0.05042292
-0.01033741 0.027510652 -0.058055796 -0.028558139 -0.020584362 0.06009097 0.8601742 0.7992885
0.84279484 0.059876036 0.8305051 0.77090293 0.026457187 0.85091364 0.76293945 0.8080097
-0.044302594 0.03304292 0.82620645 -0.037711184 0.8260664 0.86541295 0.00090222445 0.8375264
0.058905788 0.80662894 0.8246585 -0.051101908 0.82533455 0.029837077 0.030699024 0.86647385
0.7731698 0.008318321 -0.014220196 0.8594003 0.033837657 0.033599123 -0.040077757 0.8643798
-0.020214692 0.059098966 -0.021802044 -0.014856922 0.8255472 0.8504443 0.8366299 0.012645215
-0.055987384 -0.041437358 0.8476755 0.86682254 0.045861788 -0.032550983 0.80077815 0.796848
0.7771411 0.0044815703 -0.025630705 0.7989573 0.8527741 0.005911262 0.8259881 -0.005867036
0.042711608 0.00014881122 -0.018749831 0.77769023 -0.0052912524 -0.029457724 0.831362 0.78913945
0.055096537 0.8703212 0.861748 -0.035372745 0.78715014 0.79897887 0.7878984 -0.05665913
0.0014939127 0.8187018 0.025410391 0.88088924 -0.04119443 0.76971036 -0.025907677 -0.015984282
0.7730445 0.7997722 0.7838318 0.8467106 0.76132107 0.7887484 0.034373935 0.84042317
0.8245932 0.8253108 -0.051894963 0.011984173 0.7957092 -0.0087769125 0.059698384 0.0080953315
0.78241247 0.8809237 0.80640006 0.8569814 0.848295 0.79774916 0.801661 0.793998
0.88612103 -0.05208572 0.036036927 0.9165984 0.8665627 -0.016780863 0.8606764 0.053505793
0.86132604 -0.0006397067 -0.053589575 0.048308726 0.87298286 0.85737014 -0.018714795 0.009871499
0.030235548 -0.04849622 -0.054148614 -0.043420862 -0.0268874 -0.039299536 0.8616246 0.8157629
0.8361818 0.020539902 0.8619281 0.9064194 0.005152157 0.9019582 0.8814838 0.8100985
-0.022392934 -0.033012617 0.8506279 -0.00952715 0.8878781 0.8449034 0.059941657 0.8607551
0.041160498 0.9092378 0.8328637 -0.037648525 0.88401717 -0.055330466 0.00042520298 0.81196856
0.8764037 -0.007564997 0.0039824946 0.8745322 -0.027583668 0.046802126 -0.008239041 0.8407709
-0.05426188 -0.0292749 0.057395108 0.028826032 0.809643 0.84092605 0.90541893 -0.0317846
0.022389395 -0.041524008 0.84874606 0.846182 -0.03885633 -0.043442186 0.91664755 0.8299877
0.87226033 -0.04721718 0.017934645 0.9175122 0.85490984 -0.034563463 0.8560772 0.013573959
-0.0199925 0.055024173 -0.0023311654 0.8648806 0.03821257 0.041465927 0.8283061 0.93010604
-0.002787584 0.90858656 0.92638665 -0.049503267 0.84468275 0.8846852 0.919206 0.040745102
0.0100152185 0.90197986 0.038138214 0.8370676 -0.045440163 0.92503464 0.040376954 -0.03414803
0.82761073 0.8659779 0.88030577 0.9183618 0.8789943 0.90836173 0.044613313 0.8005984
0.9200068 0.85121614 -0.027148748 -0.03505002 0.81553626 -0.050800353 0.058629137 0.024499562
0.8934315 0.87988985 0.93078876 0.87335205 0.8734232 0.87270075 0.8884594 0.8353324

layer2.bias f4 [128]
00000000: a896 513f 6c65 4e3f 4a43 49bc fad7 22bd
00000010: 385b c23c b7b7 21bd efb0 4a3f c181 5e3f
00000020: c308 973c 090c 143d ed01 1cbd b269 593d
00000030: a3ef 353d a45c a53b 37b7 323f 39cb 513f
00000040: 635e 6e3f 2fca 34bc 744a 623f 3331 35bd
00000050: ef40 3bbd a005 073d 591d f9bb 29ce 683d
00000060: 6e54 253b bf01 c0bb 97bc aa3c 685a cebc
00000070: cd4a 0b3d 54c6 613f 0f3e 393d 46ac 5a3f
00000080: eae5 11bd d0b9 533f 4142 613f 5b1b 33bd
00000090: 4ae4 713d 4be5 7abd 3588 463f a778 4f3f
000000a0: 10a0 7fbd 6290 d43c b6b6 d5bc 5b8f 34bd
000000b0: cbc4 91bc a02a 563f ec4e d3bc 06b8 533f
000000c0: 53a6 b13c b354 4d3f 9591 613d 9bd5 33bd
000000d0: a6db 5fbb aad8 543f 77a5 11bd 05d6 523f
000000e0: 16b4 5c3f 0157 3c3f a2c6 a0bc 7a0d 213d
000000f0: af56 193d 8da2 4f3f 0207 5abd 5f88 3f3d
00000100: 9d6d 943c 01f6 5f3f 6044 bebc a688 81bb
00000110: 9c9a 0fbd fdb5 7cbc 626f f1bc 3550 6b3f
00000120: 8090 5c3f 90b2 49bd f814 c43c ed38 5d3f
00000130: 0f33 4d3f 8cd2 27bd 3331 30bc f684 4e3f
00000140: 2305 9abc 4589 9ebb e709 473f 6f21 b5bc
00000150: 2497 bdbc ccc4 593f 23e3 f1bc d2f9 ec3c
00000160: 8760 bebc 318d 15bd 5846 9bbc d0a8 553f
00000170: 3a6e 5c3f 575c 32bd 9b27 253d 5b45 b13c
00000180: 3f8f 3bbc ca64 6e3d 8115 533f 3356 74bd
00000190: aaac d93c 427b 6c3d 535a f0bc dac4 5d3f
000001a0: 760d 653f bab0 6c3b 9861 54bd 7640 523f
000001b0: d436 4ebc 7ce4 d5bb 5fb6 4c3f f285 ee3c
000001c0: 3377 10bd 0861 633f 9925 553f 56c4 63bd
000001d0: e73d 503f 2456 423f d452 cfbc edd7 843c
000001e0: d09b 5b3b 3d5c 4e3f fcc1 58bd c3e6 323d
000001f0: ec6a 533f 33a1 5d3f a8e6 433c 2f9c b5bb
0.8187051 0.8062351 -0.012284109 -0.039756753 0.023725137 -0.039481845 0.7917623 0.8691674
0.018436795 0.03614429 -0.038087774 0.053079315 0.04441799 0.005046444 0.69810814 0.8195072
0.9311277 -0.011034532 0.88394856 -0.044236373 -0.045716222 0.03296435 -0.0076023755 0.056837235
0.0025227326 -0.005859583 0.02084188 -0.025189593 0.034006882 0.8819325 0.0452252 0.8541912
-0.035619654 0.827054 0.8799172 -0.04372726 0.059055604 -0.061253827 0.77551585 0.81043476
-0.062408507 0.025947753 -0.0260881 -0.044082027 -0.017794034 0.8365879 -0.025794469 0.8270267
0.021685755 0.80207366 0.05507048 -0.043904882 -0.003415802 0.83143103 -0.03555819 0.8235782
0.8621229 0.7357026 -0.019625966 0.039319493 0.037436184 0.8110741 -0.05322934 0.046760913
0.018118674 0.8748475 -0.023225963 -0.0039530573 -0.035059556 -0.015424249 -0.029472057 0.9191926
0.8615799 -0.049242556 0.02393578 0.86414987 0.80156034 -0.040972278 -0.0107539175 0.8067163
-0.018801278 -0.004838141 0.77749485 -0.022110669 -0.023143359 0.85065913 -0.029527253 0.028927717
-0.023239387 -0.036511604 -0.018954441 0.8346071 0.8610569 -0.043545093 0.040320974 0.021639517
-0.011447727 0.05820159 0.8245469 -0.05965252 0.02657159 0.057734735 -0.029339945 0.86628497
0.89473665 0.003611608 -0.051850885 0.8212961 -0.012586314 -0.0065274816 0.79965776 0.029116604
-0.035269927 0.8881993 0.83260494 -0.055607162 0.81344455 0.7591269 -0.02530805 0.016216243
0.003350962 0.80609494 -0.052919373 0.043677103 0.82585025 0.86574095 0.011956848 -0.0055423

layer3.weight f4 [7, 128]
00000000: 8550 2f3f 699d 203f c75f 89bc 76b3 20bd
00000010: b975 3f3c f005 58bd 43f3 223f 7b7e 1f3f
00000020: 805c 603d 3f5c 0a3d 1b97 67bd 6eb2 a1bc
00000030: c503 01bd 210d 0c3d 373d 153f b38c 263f
00000040: 8c93 0f3f 06b7 2e3d 470b 223f d30c c83c
00000050: b26c f73c c5a6 9cbc d3b2 b2bc db7b 823d
00000060: e587 1b3d 55fe 3fbd d75a 873c 8b29 78bc
00000070: 8bba f73c eb53 1e3f 66cf d23a a5e8 213f
00000080: 16ea 293d 1e0f 1b3f 4534 2b3f d3b0 2c3c
00000090: 7304 613d 7920 263d adcb 1d3f 7bc6 293f
000000a0: 1425 d3bc 6baa 683d 0dba 163c 3b1b abbc
000000b0: 034d bb3c 6b88 233f c815 5d3d 2284 223f
000000c0: 95da a83c feba 1f3f df3e a13c af23 b53b
000000d0: 3715 313d 798b 2e3f 5a05 0dbd 9e9b 2e3f
000000e0: 4bb4 2e3f 8aed 233f 909f 573c a895 033d
000000f0: 4c41 05bd 4707 253f 4db8 bdbc 01d5 9bbc
00000100: 4a9c 6abc 9a7f 233f e3c7 f13c 5017 d6bc
00000110: 795b 5dbd 8bba e0bc 4ba0 aabc 98f0 153f
00000120: 7c9d 213f 12aa 55bd b478 5abd 23a1 1b3f
00000130: 3c17 263f 7bbd 1d3c 97f0 94bb 51ed 223f
00000140: 27f4 623d 19a2 a4bc 1164 1f3f 8b6d 673d
00000150: ed10 7f3c 15c8 1f3f fddf 40bd 3392 303d
00000160: 6379 743c a3d0 993c 2979 20bd 8c1c 2f3f
00000170: e701 193f 2eae 5a3c 31a1 90bc d634 55bd
00000180: b231 6fbd 923f 3c3d b8a3 233f c118 1d3d
00000190: 0dcd 62bd 19e9 073c c9b3 22bd 1a20 1e3f
000001a0: 9af5 253f 9481 abbc cc29 cdbc 527b 2f3f
000001b0: 890a 9d3c ba4f 0f3d 9574 273f b2c4 663d
000001c0: 3b37 373d b945 2a3f 7cd9 2c3f 9266 f3bc
000001d0: 3e69 153f 5d9c 2a3f 342c 01bc 7e60 36bd
000001e0: 4aa4 743d 8f0e 233f e362 cabc b7fa 033c
000001f0: e169 1a3f 0cec 1b3f 44c3 0e3b 4cba 9ebc
00000200: 2149 de3e b68b d53e ab16 383c 32a1 f1bc
00000210: 0e4a 5c3c b458 243d 1f0c cb3e ce49 d73e
00000220: 075e 19bd 7578 98bb f313 763c 732b f73b
00000230: e6bf 1ebc 887f 593d 231f d93e fdbd d93e
00000240: 9c53 e63e 3c50 9f3b ee96 f33e 8763 16bd
00000250: 1be5 993c 63ea 34b9 8264 5a3d 8c15 5d3d
00000260: 3929 3f3d 23c9 3f3d ab74 abbc 3774 b23b
00000270: ec19 5ebd c50f f33e 83d8 773c 9a3f d33e
00000280: 22e4 3c3c 5c7a e93e 75a6 dc3e 1ac3 783c
00000290: 0ace 32bc 4a99 34bb cbe7 e43e 938e e73e
000002a0: f20f 563c 9278 efbc 6098 59bc 68d4 033d
000002b0: eadc 543d c8b7 f63e 75b8 88bc 3570 c23e
000002c0: 3047 073d f1ed b93e a99a ac3c a9ed 19bc
000002d0: da14 f8bc 8256 c03e 6996 9a3c 29a5 d73e
000002e0: 27a9 df3e fd72 e83e fcf3 ab3c 1b8c 8ebc
000002f0: 6d83 603d 8501 ce3e 73c6 33bd 8a5b 6fbd
00000300: c1a2 153d 1d0e eb3e 5fad f83c cd84 dc3c
00000310: 4d21 153d 307e ce3c a38b 723b 0618 f23e
00000320: 010d c93e 8595 0c3d 8b92 8c3c 8535 d53e
00000330: fafd ec3e 9bb8 3bbc cc90 59bd d879 ca3e
00000340: a2ad ecbc 25e0 063d e442 d43e 3fa4 5c3d
00000350: e201 3c3d 070d c13e 99ed 153d 830b 26bd
00000360: 3bd6 71bd 89d4 3dbd 7dfe 8ebc 948e df3e
00000370: 1c26 e43e da1f eb3c a4a7 983c e7a0 033c
00000380: 60e3 7d3c 0ff7 b23c d75f f23e daeb db3b
00000390: e88d 41bc 364b b93c cadd b3bc 96cc cd3e
000003a0: 27c9 d63e c2e5 253c 8917 953c 9ad1 ee3e
000003b0: b748 bd3b 6245 72bd f100 d83e 9d6f 62bd
000003c0: f06c 543d c668 ec3e 68f5 e33e 9e60 4f3c
000003d0: 81c9 e83e 3901 d73e 86cd 48bd 3700 45bc
000003e0: 3403 603c 6d1d d83e 5fc3 893b 5c53 59bc
000003f0: e24d ee3e 35c2 d83e cc31 cbbc af63 0c3d
0.6848224 0.6274019 -0.016769303 -0.039233647 0.011685782 -0.052740037 0.6365244 0.6230237
0.054775715 0.03377938 -0.05654059 -0.019738402 -0.031497736 0.03419221 0.5829653 0.6505844
0.56084514 0.042655014 0.6329846 0.024420178 0.030203197 -0.01912249 -0.021813786 0.0637128
0.037971396 -0.04687341 0.016522808 -0.015146623 0.030240318 0.618468 0.0016083538 0.6324561
0.041483007 0.6056994 0.6687663 0.010540205 0.054935884 0.040558312 0.6163891 0.6631848
-0.025774516 0.05680315 0.009199631 -0.020887008 0.02286387 0.6388003 0.05397585 0.6348287
0.02061204 0.623947 0.0196833 0.0055279355 0.043233123 0.6818157 -0.03442893 0.68206203
0.68243855 0.6403433 0.013160601 0.032125145 -0.032532975 0.6446423 -0.02315917 -0.019022467
-0.014319489 0.6386658 0.029514259 -0.026134163 -0.054042313 -0.0274327 -0.020828387 0.5857024
0.6313093 -0.052164145 -0.053337768 0.6079275 0.648792 0.009627695 -0.004545282 0.63643366
0.055408623 -0.020096825 0.62262064 0.056500953 0.015568 0.62414676 -0.047088612 0.043108176
0.014921519 0.018776244 -0.039178047 0.68402934 0.5976853 0.013347192 -0.017654987 -0.05205234
-0.058397003 0.045959063 0.6392169 0.038353685 -0.055371333 0.008295321 -0.039722238 0.61767733
0.64827883 -0.020935811 -0.025044344 0.68547547 0.019170063 0.034988143 0.65412265 0.056339927
0.044730406 0.6651264 0.67519355 -0.029711995 0.5836371 0.6664484 -0.007884074 -0.044525616
0.05972699 0.6369409 -0.024705356 0.008055381 0.6031781 0.60907054 0.0021783868 -0.019375943
0.43415168 0.41708153 0.011235873 -0.02949581 0.01344539 0.040123656 0.39657685 0.42048496
-0.037443187 -0.0046530315 0.015019405 0.0075430213 -0.009689307 0.05310014 0.42406568 0.42527762
0.44985664 0.0048618596 0.47576088 -0.03671601 0.018786004 -0.00017253454 0.053318508 0.053975627
0.046670172 0.04682268 -0.020929655 0.005445983 -0.05422394 0.4747297 0.015127304 0.41259462
0.0115290005 0.45601165 0.43095747 0.015183235 -0.010913381 -0.0027557188 0.44708094 0.45225963
0.013065325 -0.029232297 -0.013280958 0.03218499 0.051968493 0.4818709 -0.016689518 0.37976232
0.033026874 0.36314347 0.021069841 -0.0093950415 -0.03028338 0.37566 0.01887055 0.42118195
0.4368374 0.4540023 0.020990364 -0.017400792 0.054812837 0.40235534 -0.043890428 -0.058436908
0.036532167 0.45909205 0.030356107 0.026918793 0.03640871 0.025206655 0.00370095 0.47283953
0.39267734 0.03432228 0.01715972 0.41642395 0.4628752 -0.011457588 -0.053116605 0.39546084
-0.028891388 0.032928605 0.41457283 0.053867575 0.045900233 0.37705252 0.036603544 -0.040538322
-0.059042197 -0.046345267 -0.017455334 0.43663466 0.44560325 0.028701711 0.018634625 0.008033968
0.015496105 0.021846322 0.47338745 0.0067114653 -0.011813618 0.022618871 -0.021956343 0.4019515
0.41950342 0.010125579 0.018199699 0.46644288 0.0057764906 -0.0591482 0.42188218 -0.055282224
0.051861703 0.46173686 0.44523168 0.012657313 0.45466235 0.4199312 -0.049024127 -0.012023977
0.013672639 0.4220995 0.0042041983 -0.013264503 0.46543795 0.42335668 -0.024804018 0.034274753

layer3.bias f4 [7]
00000000: 9b3d 203f 30ea 173e 902c 563e 74f0 663e
00000010: e277 383e 07bd 1c3e ccd6 163e
0.62594 0.14835429 0.20915437 0.22552663 0.18014482 0.15306483 0.14730376
