Backup/Video_Streaming_DQN_1h40/models_1250000.pth (torch, 173027 bytes, 12 tensors)

layer1.weight f4 [128, 28]
000000 44 26 35 3d 7f e1 a5 bc 05 e1 49 bd 19 c5 4d bd
       0.044225946 -0.020249126 -0.04928686 -0.050236795
000010 53 55 40 bd c0 6e 44 bd a3 1a 08 bd 7b ea b9 3e
       -0.04695637 -0.047957182 -0.033228528 0.36311707
000020 15 b0 5b 3c a3 23 2c 3d 1b d7 20 bc 08 73 1f 3d
       0.01340868 0.042026173 -0.00981691 0.03892806
000030 d3 b2 3a bd c9 27 d0 3b ce 22 65 3c da 6e bc 3c
       -0.045580696 0.006352399 0.013985349 0.023002077
000040 d1 b4 c3 3c be 8f 40 bc b3 cb ec 3c f1 91 fa 3a
       0.02388993 -0.011753021 0.028905725 0.001911698
000050 f3 9a 1d bc cd ce 3a bd 8a 64 22 3d 16 38 d9 3c
       -0.009619462 -0.045607377 0.039646663 0.026516002
000060 3d f0 ee 3c 7f 5a 3a 3d 58 29 c0 bc 12 97 d3 3e
       0.029167289 0.04549646 -0.023457214 0.41326195
000070 06 c8 05 bd e2 27 11 bd 58 c2 3f 3d f4 f1 60 bc
       -0.03266146 -0.035438426 0.0468162 -0.013729561
000080 8a d6 4f bd 3c 67 3f bd a0 82 54 bd 27 45 ec bc
       -0.05074171 -0.04672931 -0.051882386 -0.028841568
000090 ca 02 e3 bc 67 2b 38 bd 7d 68 36 3d d4 7e 9f 3c
       -0.02771129 -0.044963267 0.04453324 0.019469656
0000a0 f2 57 9d 3c 56 04 13 3d 0a c2 55 bd 2c e9 3b 3d
       0.019206975 0.035892807 -0.052187003 0.045876667
0000b0 8a 59 1c bd 1f 11 10 bd bd 71 2c bc dd 18 77 b8
       -0.03817133 -0.035172578 -0.010525164 -5.8912545e-05
0000c0 a1 29 99 bc a2 bf 18 bc f4 2d 05 3d 22 23 0a bc
       -0.018696608 -0.009323033 0.032514527 -0.008431228
0000d0 93 65 19 bd 28 c6 32 bd 87 d8 3a 3d 98 65 2f bd
       -0.037450384 -0.043646008 0.045616653 -0.042821497
0000e0 88 a5 c3 3c 87 f9 1c bc d7 62 36 bd fa 05 03 3d
       0.023882642 -0.009580976 -0.044527855 0.03198812
0000f0 01 c5 8f 3c b3 44 f4 bc 29 6d 53 3b 6a d6 28 bd
       0.017549993 -0.029817915 0.003226111 -0.041220106
000100 3d 26 e3 bb dc 1b 06 bd a8 90 04 3d 10 40 c8 3c
       -0.0069320486 -0.032741413 0.032364517 0.02444461
000110 88 08 56 3d 76 79 d2 bc 65 b0 b8 3c 6e 16 d7 bc
       0.05225423 -0.025692683 0.022545049 -0.026255812
000120 63 01 36 bb 2c af df 3c 5b c9 0c 3d be b1 fe 3c
       -0.0027771823 0.027305208 0.034371715 0.031090613
000130 02 0f 9a 3c ba 7e 1f bc d0 50 06 bd 82 3c c9 3b
       0.018805984 -0.009734804 -0.032791913 0.0061412463
000140 97 03 88 bc 50 37 bf bb 84 5b 43 ba 66 c9 56 3b
       -0.016603274 -0.005835451 -0.00074522966 0.0032773851
000150 3f c5 3d 3d ef 79 ac 3c 38 1b 34 bc 17 ab 38 3d
       0.046330687 0.021054236 -0.010992818 0.04508504
000160 3f 15 36 bd 4a c6 42 3d f1 d6 8c 3b 29 79 d1 3e
       -0.044453856 0.047552384 0.004298084 0.4091275
000170 47 41 36 3d 38 80 ca bb e3 d4 33 3b 46 2c bc 3a
       0.044495847 -0.0061798356 0.0027440123 0.0014356456
000180 fb 88 11 3d 00 5d 0c bd 73 f1 f4 3c 87 03 26 3d
       0.035531025 -0.03426838 0.029900288 0.040530708
000190 a3 19 9d 3c eb 0b 10 bc 0e ea cc 3c 2f 83 31 bd
       0.019177264 -0.008791904 0.02501395 -0.043337997
0001a0 9a 19 f8 bc f9 3b 02 3c c4 13 08 3d 94 25 2e 3d
       -0.030285645 0.007948869 0.033221975 0.042516306
0001b0 10 46 59 3c 75 07 ed 3b f6 03 63 bc 82 6b d3 3e
       0.013261333 0.007233555 -0.013855925 0.4129296
0001c0 a2 40 fd 3c 8c c9 77 3c c3 61 2e bd 91 bc cc 3b
       0.030914608 0.015123736 -0.0425737 0.006248065
0001d0 bb f6 2b 3c 90 b8 2b 3c 25 38 1a bc 21 71 ae 3e
       0.010495837 0.010481015 -0.0094128 0.34070686
0001e0 13 3f 36 bd 1f 20 88 bc 5e 87 e1 bc 28 60 96 bc
       -0.044493746 -0.016616879 -0.027530368 -0.018356398
0001f0 aa 3f 05 bd f9 f5 7f 3c ec 14 39 bd a6 e4 9c 3c
       -0.032531418 0.015622609 -0.04518597 0.019151997
000200 83 41 b9 bb cd 46 45 3d fc 3d fb bc 5d a5 1b 3d
       -0.0056535616 0.048163224 -0.030669205 0.0379995
000210 f0 c9 12 3c 26 32 3b bd 65 12 0a 3d 32 8c c0 bb
       0.008959278 -0.045702122 0.03370895 -0.0058760876
000220 fc 88 87 3c 51 35 4a 3c 26 19 45 bd f3 56 ba 3e
       0.016544811 0.012341813 -0.048119687 0.36394462
000230 a4 5a d3 bc 1e 9b a7 3c cd 7e 19 bd ff f3 ee 3b
       -0.025800057 0.020459708 -0.037474442 0.00729227
000240 2d 31 ea bb 07 38 f3 bb d4 c5 d6 ba a3 50 07 bd
       -0.0071469755 -0.0074224505 -0.0016385862 -0.033035886
000250 11 f3 20 3d 74 b8 d9 3b 80 2b 98 bc 25 ea a4 bc
       0.039294306 0.006644303 -0.01857543 -0.02013118
000260 23 f0 7a bc b4 0d 44 bd 93 db aa 3c 27 a7 44 3d
       -0.015316042 -0.04786463 0.020856654 0.04801097
000270 f2 42 7d 3c dc f7 0c 3d bd 34 36 bd 71 14 28 bd
       0.015457856 0.034416065 -0.04448389 -0.04103512
000280 a5 40 ef bc 75 5a 32 3d 0f 4d 41 3d 5a a1 56 3d
       -0.02920563 0.043543298 0.04719263 0.05239997
000290 ec a0 4d bd 3b dd 45 3d 6b 07 4a bd 27 d7 c5 3c
       -0.050202295 0.048306685 -0.04932348 0.024150444
0002a0 cd 3b c6 3c 40 38 a7 3c 2b 26 7f 3c 3c 5d 33 3d
       0.024198437 0.020412564 0.015573065 0.043790087
0002b0 b1 bd 1f 3d 48 71 47 bd 33 d7 4c bc c6 ab a7 3e
       0.038999263 -0.048692018 -0.012502479 0.3274824
0002c0 58 84 2d 3c 32 b0 0c 3a 9c d5 58 3d 45 cc 3d ba
       0.010590635 0.00053668313 0.05293809 -0.00072402164
0002d0 cd e3 2a bd 51 9d f0 bc 1f 52 34 bd 5f db 88 bc
       -0.041721154 -0.02937189 -0.04402363 -0.016706167
0002e0 5d 4c e7 bc 94 f4 0e bd 39 1e 34 bd 86 50 13 bb
       -0.028234655 -0.034901217 -0.043974135 -0.0022478416
0002f0 14 80 96 bb 1f c1 82 bc 39 b4 b7 bc fd a4 47 bc
       -0.004592905 -0.015961228 -0.022424804 -0.012185332
000300 f9 66 3a bd f9 02 fd bc e1 a4 0a 3c 21 d6 bc 3e
       -0.04550836 -0.030885207 0.008462162 0.36882117
000310 d2 1c 8f 3b f4 47 7f 3c 9d 8e 32 3d f5 b3 f3 bc
       0.0043674493 0.01558112 0.043593038 -0.029748896
000320 05 75 af 3c 59 76 06 3d 1c 6e 43 3d f1 2c 21 3c
       0.021418104 0.03282771 0.04771243 0.009837375
000330 ed b5 10 ba 00 26 ba 3c 0a dd cf bc f0 22 53 bd
       -0.0005520273 0.022723198 -0.025373954 -0.05154699
000340 07 1a 40 bd ae 9c 19 3d d3 3e ee bc 75 22 f9 3b
       -0.04689982 0.037502937 -0.029082691 0.0076029846
000350 99 95 af bc ce 55 56 3d 11 c7 f4 3a 61 34 3b 3d
       -0.021433638 0.052327923 0.0018675049 0.04570425
000360 cb de b6 bc 6c d2 8a bb 05 46 24 3c 0d c4 16 3d
       -0.022323033 -0.00423651 0.01002646 0.036808062
000370 a2 7d 16 3d 36 d0 50 bd dc 5c f2 bc a8 4c 30 bc
       0.036740907 -0.050979815 -0.029585294 -0.010760464
000380 0c 1f 48 bd bf ea 70 3c 7e e0 64 bc 09 ac 25 bc
       -0.048857734 0.014704405 -0.013969539 -0.010111817
000390 88 07 c9 3c 05 66 11 bc bd f8 34 3c 1a ae d5 3e
       0.024539724 -0.008874421 0.011045632 0.4173439
0003a0 2a 84 be bc 36 a0 27 b9 06 25 e5 3c 5c 8f 49 3d
       -0.02325638 -0.00015986044 0.027971756 0.049208984
0003b0 66 52 8e 3b aa 57 12 3d 97 1c 91 bc 42 79 4c bd
       0.0043433188 0.035728134 -0.017713828 -0.049920328
0003c0 9d 4b 38 3c d1 33 c7 bc 06 15 b6 3b 79 f5 22 3d
       0.011248496 -0.0243167 0.0055567054 0.039784882
0003d0 26 a4 23 3d c9 e2 83 3c 8d fa 5e bc 60 c2 14 bd
       0.039951466 0.01609935 -0.013609541 -0.036318183
0003e0 ac 9d 04 3d a7 62 06 3d 38 f8 09 bd b6 78 c4 3e
       0.03237693 0.032808926 -0.033683985 0.38373345
0003f0 a6 07 dd 3c 77 04 c2 bc 93 07 0b 3d 3f c8 f0 bb
       0.026981186 -0.02368377 0.03394277 -0.00734809

layer1.bias f4 [128]
000000 2f 8a c8 3e eb 02 aa bb a2 b7 01 3d 82 f2 b3 3e
       0.39167926 -0.005188336 0.031669267 0.35145956
000010 af 80 cb 3e 42 e4 00 bd 8e f2 d1 3e 94 9c b8 bc
       0.39746615 -0.031467684 0.41005367 -0.0225356
000020 53 ec bc 3e 29 97 60 bc df 5b dd bb 53 d0 99 bc
       0.3689905 -0.013707914 -0.0067553367 -0.018776095
000030 3d 6a 9e 3e 82 22 9d 3e 6e 91 11 bd a0 bb d7 bc
       0.30940428 0.3069039 -0.035539083 -0.026334584
000040 7d 63 f3 bc a8 e6 7d 3c 85 4c e2 ba 9d 19 65 bc
       -0.029710526 0.015496887 -0.0017265236 -0.013983157
000050 9a 5b 24 bd dc d2 38 bd 93 68 bb 3e 23 d4 b9 3e
       -0.04012642 -0.045122966 0.3660322 0.3629466
000060 49 db a7 3e 10 dd 20 3c 72 0e b7 3e f9 4f cf 3e
       0.3278449 0.00981833 0.35753208 0.40490702
000070 65 30 ab bc 01 7f d0 3e 96 87 d4 3e 93 72 ca 3e
       -0.0208971 0.40721896 0.41509694 0.39540538
000080 ff ce 17 bd d8 34 bf bc 54 95 b7 3e 05 23 09 3c
       -0.03706264 -0.023340628 0.35856116 0.008370166
000090 3c a4 c9 3e a8 08 d1 3e 37 6d af bc 23 01 c7 3e
       0.39383113 0.40826917 -0.021414382 0.38868055
0000a0 b6 37 d4 bc 2d 10 cd 3e fb 10 c3 3e c7 c2 06 3d
       -0.025905471 0.40051404 0.38098893 0.032900598
0000b0 2d 2a d4 3e 0b ee 37 bd aa 65 35 3d a7 b2 cc 3e
       0.41438428 -0.04490475 0.044286408 0.3998005
0000c0 fd e4 c9 3e 03 e2 49 bd 04 bc 2d bd 9f 7a c4 3e
       0.39432517 -0.049287807 -0.042415634 0.38374802
0000d0 7b ca 94 3c df 22 d7 bc f6 38 ce 3c 6d 8e cd 3e
       0.018162956 -0.026261745 0.025173645 0.40147725
0000e0 0c 95 35 bb 58 da a9 bc 29 d3 a0 3c 0b 3c aa 3c
       -0.0027707247 -0.020733997 0.019631939 0.020780584
0000f0 5c 5a b3 3e ac f8 ce 3e f9 d6 cc 3e 6d 93 1c bd
       0.35029876 0.40424097 0.4000776 -0.038226534
000100 29 2d 8b 3b 2f 1e 92 bc a4 fc d3 3e 86 be d4 3e
       0.004247327 -0.017836658 0.41403687 0.41551608
000110 11 4b f3 bb c4 9c 11 3d 97 99 b6 3e ed b9 d6 3e
       -0.00742472 0.035549894 0.35664055 0.41938725
000120 90 9b cb 3e 82 9b a7 3c 88 7d 24 bd f2 fc cf 3e
       0.39767122 0.020459894 -0.04015878 0.4062267
000130 5a 04 ce 3e 39 8e 03 3d 27 99 ce 3e a1 9a 34 bd
       0.40237695 0.032118056 0.4035122 -0.044092778
000140 8d 0b cc 3c a5 0d 34 3d a6 ec 49 bd d1 7a d5 3e
       0.024907852 0.043958325 -0.04929795 0.41695264
000150 11 4c d4 bc 59 53 fb 3c af 99 c5 3e c5 8c a8 3e
       -0.025915178 0.030679392 0.38593814 0.329199
000160 e9 0b ce bb 0e 83 a3 3e b2 04 d4 3e 28 74 52 bd
       -0.006288041 0.31935924 0.41409832 -0.051380306
000170 ea a5 d1 3e 9f e4 a8 3e 2f e1 c0 3e b4 9b b5 3c
       0.40946895 0.32986924 0.376718 0.022168972
000180 a4 b6 44 bd 84 0c d2 3e 77 6f ec 3c 20 e5 b3 3e
       -0.048025742 0.41025174 0.028861744 0.35135746
000190 ba 4a d3 3c f4 66 d2 3e 32 8a fc bc 55 64 2f bd
       0.025792468 0.41094172 -0.030827615 -0.042820293
0001a0 d0 a8 cc 3e 6d f0 b9 3e 4c ef c4 3e 80 9e b5 3e
       0.39972544 0.36316243 0.3846382 0.35472488
0001b0 ac ea b0 3e 99 1a af 3e de 51 4e bc b4 b9 d2 3e
       0.3455404 0.3419998 -0.012592761 0.41157305
0001c0 b2 70 ab 3e e2 35 a8 3e ad 22 2e bd 1d 6e e1 3a
       0.33484417 0.3285361 -0.04251354 0.0017198954
0001d0 93 81 c9 3e 1b 49 2d bb 3c 90 31 bd d7 5a f3 3c
       0.3935667 -0.002644128 -0.043350443 0.029706402
0001e0 a4 0c c2 3e 19 6e c8 3e 0b c0 ab 3e 7e 10 b3 3e
       0.3790027 0.39146498 0.33544955 0.3497352
0001f0 e8 6e be 3e ca 3a bb 3e 31 54 ca 3e 44 89 c8 3e
       0.3719399 0.3656829 0.39517358 0.39167225

layer2.weight f4 [128, 128]
000000 7f d5 b2 3e 55 ad ee 3b 90 44 3e bb a5 64 a3 3e
       0.3492851 0.0072838464 -0.0029032566 0.31912723
000010 f4 cd a1 3e 28 b4 49 3c 06 5d ad 3e 8f f4 c2 bc
       0.31602442 0.012311019 0.33860034 -0.023798255
000020 0a 27 ac 3e 85 fa 7d bc 10 c6 d9 3b 4d 1b a3 bc
       0.33623534 -0.015501623 0.0066459253 -0.019910479
000030 1b cc a8 3e 53 94 a2 3e a7 80 35 3c 89 d8 a5 3c
       0.3296822 0.31753787 0.011078036 0.020244854
000040 8d 04 88 bb 41 ec 34 3c 19 d9 be bc c5 c2 3b bc
       -0.004150933 0.011042655 -0.02329688 -0.011460011
000050 57 69 07 bc ff 9e c5 3c a1 8d b3 3e 08 15 a7 3e
       -0.008264861 0.024123667 0.35068992 0.32633233
000060 25 e7 af 3e df e7 c4 3c b2 25 ad 3e 56 de a0 3e
       0.34356037 0.024036346 0.33817822 0.3141963
000070 34 ed 2d 3c 21 91 b1 3e 8f 35 9f 3e 47 b5 a8 3e
       0.010615636 0.34681037 0.3109555 0.32950804
000080 75 9a 91 bc d5 da 58 3c b0 4c ac 3e 35 9a 77 bc
       -0.017773846 0.013235767 0.33652258 -0.015112449
000090 88 48 ac 3e 1a a5 b4 3e 0c ce bd 39 c5 b3 ae 3e
       0.33649087 0.35282212 0.00036202406 0.34121528
0000a0 3f ad c1 3c 16 71 a8 3e 44 ff ab 3e f0 07 a8 bc
       0.02364218 0.32898778 0.3359319 -0.020511597
0000b0 30 21 ac 3e e0 3b 44 3c b1 d3 49 3c 50 d7 b4 3e
       0.3361907 0.011977166 0.012318538 0.3532052
0000c0 79 66 a1 3e 96 52 5a 3b 18 04 bb bb d6 62 b3 3e
       0.31523493 0.0033313385 -0.005707275 0.35036343
0000d0 59 2c 5e 3c 7b 8b 5c 3c 5f c1 83 bc ee 6f b4 3e
       0.013560378 0.013460989 -0.016083417 0.35241646
0000e0 0a ef 04 bc d3 51 c2 3c 19 38 0f bc e8 69 c3 bb
       -0.008113632 0.023720657 -0.008741402 -0.0059635527
0000f0 2a 2e ac 3e df 73 b1 3e 34 81 ae 3e a9 5a a6 3b
       0.3362897 0.34658715 0.3408295 0.0050767255
000100 a9 16 b8 bc cf 4f 88 bc f5 d8 b0 3e 42 ec b4 3e
       -0.022471743 -0.016639618 0.34540525 0.353365
000110 e7 ec 96 3c 6e b8 55 bc a8 5f a7 3e ec 87 a6 3e
       0.01842351 -0.01304446 0.32690167 0.32525575
000120 dd 4b a2 3e ed 6b eb 3a 5a 8b 28 bc 98 04 a7 3e
       0.31698504 0.0017961242 -0.01028713 0.32620692
000130 92 f9 b1 3e 4d 73 1b 3b ae 44 ac 3e eb 55 1a bb
       0.3476072 0.0023719848 0.33646148 -0.0023549746
000140 1f 76 8c 3c b0 39 7a 38 53 37 f6 bb 43 66 a2 3e
       0.017146168 5.965837e-05 -0.0075139194 0.31718644
000150 06 4a 0b bb 7e b5 41 bc 25 53 ad 3e fb d6 a4 3e
       -0.0021253838 -0.011823056 0.33852497 0.32195267
000160 5a 2b b5 3c 4a 97 b5 3e 20 e7 b3 3e 16 59 68 bc
       0.022115398 0.35466987 0.35137272 -0.014181396
000170 b5 69 a4 3e 38 03 a7 3e 49 96 a4 3e 28 4a ba bc
       0.32111898 0.32619643 0.32145908 -0.022740439
000180 c9 12 1d 3a 3b e3 aa 3e 54 20 27 3c e1 8c b7 3e
       0.0005991874 0.33376488 0.010200579 0.3584967
000190 65 7f 87 bc e3 9c a0 3e bd 53 2a bc 6e 02 d2 bb
       -0.016540239 0.31369695 -0.010395941 -0.006408981
0001a0 1d 61 a1 3e 36 30 a7 3e b6 af a3 3e b0 a8 b0 3e
       0.31519404 0.3265397 0.31969994 0.34503698
0001b0 f7 dc 9e 3e 47 c1 a4 3e 8f d5 61 3c f5 67 af 3e
       0.31027958 0.3217871 0.0137838265 0.34259
0001c0 90 fd ab 3e 01 1f ac 3e 52 95 aa bc d8 7c 9d 3b
       0.3359189 0.33617404 -0.020823155 0.0048061423
0001d0 79 48 a6 3e 20 b8 66 bb 87 50 c4 3c b2 a3 54 3b
       0.32477167 -0.0035204962 0.02396418 0.0032446203
0001e0 b7 66 a3 3e b7 8e b7 3e 57 63 a8 3e 67 dc b2 3e
       0.31914303 0.3585107 0.3288829 0.3493378
0001f0 cb fd b0 3e 91 b7 a6 3e f5 85 a7 3e 4d f5 a5 3e
       0.3456863 0.32561925 0.3271939 0.32413712
000200 b0 c8 b8 3e 7d 32 ab bc 41 a1 6c 3c 63 20 bf 3e
       0.36090612 -0.020898098 0.014442743 0.37329397
000210 5f f1 b4 3e 1f 4a dc bb 58 bd b3 3e f3 f4 af 3c
       0.35340402 -0.006722703 0.35105395 0.021479106
000220 7b e3 b3 3e 2a a6 86 b9 3b 3b b0 bc cf b6 9e 3c
       0.3513449 -0.00025682274 -0.021512618 0.01937428
000230 4b 32 b6 3e bf 05 b3 3e ba c1 f5 bb af c5 81 3b
       0.35585245 0.3496532 -0.0074999006 0.0039603333
000240 d7 e2 46 3c 29 5d 9f bc 30 10 b2 bc e5 a3 8e bc
       0.012139044 -0.019453602 -0.021736234 -0.017412135
000250 9d d6 30 bc b7 25 81 bc 2f f5 b3 3e 8d 6c aa 3e
       -0.010793355 -0.015765054 0.35147998 0.33285943
000260 f1 7f ae 3e 0e 1d 07 3c 76 07 b4 3e 60 f1 bc 3e
       0.34081987 0.008246673 0.35161942 0.36902905
000270 fa 92 07 3b e3 fe bb 3e 72 c5 b7 3e cf 2f a9 3e
       0.002068697 0.367179 0.35892826 0.33044288
000280 c1 40 13 bc 68 a9 58 bc b2 95 b1 3e b5 50 7a bb
       -0.0089876065 -0.013223983 0.3468452 -0.0038195078
000290 e3 28 b9 3e bd 67 b0 3e c6 1f c5 3c 7a c1 b3 3e
       0.36164007 0.34454146 0.024063002 0.35108548
0002a0 48 62 87 3c 98 95 bd 3e ef be ad 3e 0f 31 77 bc
       0.016526356 0.37028193 0.33934733 -0.01508738
0002b0 be 54 b8 3e 99 ef b5 bc dd f8 32 39 0e 93 a9 3e
       0.36002153 -0.022208976 0.00017068112 0.33120006
0002c0 12 ca b6 3e 7e 0c 47 bb 49 51 d1 3a 63 77 b6 3e
       0.35701042 -0.0030372436 0.001596966 0.3563796
0002d0 bf 66 35 bc b6 e9 99 3c 54 4d 58 bb 29 91 af 3e
       -0.01107186 0.0187882 -0.0033005076 0.34290436
0002e0 35 6f b2 bc f5 7d 40 bc 36 a6 bc 3c 21 81 3d 3c
       -0.021781543 -0.0117487805 0.023028474 0.011566431
0002f0 d0 14 a9 3e d3 9b af 3e ba b8 bc 3e 5e d6 50 bc
       0.3302369 0.34298572 0.36859685 -0.012746422
000300 92 3a 13 3c 26 9a 88 bc 71 2d b1 3e 7a a2 b0 3e
       0.008986132 -0.016675066 0.34604982 0.3449896
000310 95 5c 7f bc ac b4 8e bc df 1f bf 3e 28 24 ad 3e
       -0.015586038 -0.017420135 0.37329003 0.33816648
000320 fd 0e b6 3e 7c 38 9b bc fa 87 eb 3b ee 47 bf 3e
       0.3555831 -0.018947832 0.0071878405 0.37359565
000330 87 7b b2 3e c9 20 63 bc 97 c0 b2 3e af 8b b2 3b
       0.3485987 -0.013862797 0.3491256 0.0054487805
000340 cb 71 03 bc a7 ee b4 3c 11 e6 74 ba e3 a1 b4 3e
       -0.008022736 0.022086455 -0.0009342144 0.3527976
000350 0e 0a 7b 3c 51 68 88 3c f9 c8 ac 3e dc ce c1 3e
       0.015322221 0.016651304 0.3374708 0.37853134
000360 82 9f 92 ba c3 70 bd 3e 7d 0a c1 3e ad da a2 bc
       -0.0011186453 0.37000093 0.37703314 -0.019879663
000370 dd 5a b0 3e 24 79 b8 3e d4 9d bf 3e e7 fd 85 3c
       0.34444323 0.36029923 0.374251 0.016356422
000380 e3 b2 83 3b 7d 00 bc 3e 86 85 7a 3c c6 ad ae 3e
       0.0040191277 0.36719123 0.0152906235 0.34116954
000390 7d 7c 95 bc d1 bb c0 3e 0f c2 84 3c c3 4a 60 bc
       -0.018247837 0.37643293 0.016205816 -0.0136897
0003a0 26 a7 ac 3e d7 d3 b4 3e e9 84 b7 3e 35 71 bf 3e
       0.33721274 0.3531787 0.3584359 0.37391058
0003b0 49 45 b7 3e 91 64 bd 3e f9 a9 92 3c 27 6f a7 3e
       0.35795048 0.3699079 0.017903315 0.3270199
0003c0 90 c3 bf 3e d1 b8 b1 3e 14 8d 32 bc 7d 5d 66 bc
       0.3745389 0.34711316 -0.010897893 -0.014060375
0003d0 3d 60 aa 3e 7e 0f a7 bc 8f c1 c0 3c 5e 1b 21 3c
       0.3327655 -0.02039313 0.023529796 0.009833185
0003e0 9d 3a ba 3e 56 6e b7 3e 5c f3 c1 3e f6 41 b6 3e
       0.36372843 0.35826367 0.3788098 0.355972
0003f0 85 46 b6 3e 84 24 b6 3e 1a 3f b9 3e 89 4c ae 3e
       0.35600677 0.35574734 0.36180955 0.34042767

layer2.bias f4 [128]
000000 24 0f af 3e ba ef ac 3e 33 95 a1 bb f9 ad 82 bc
       0.3419124 0.33776647 -0.004931116 -0.015952097
000010 80 f4 1b 3c 1f c2 81 bc 4d ff a9 3e 38 e1 b9 3e
       0.009518743 -0.015839634 0.33202592 0.3630464
000020 f1 1c f2 3b 5d 55 6d 3c 9c 2b 7a bc 73 81 ae 3c
       0.007388704 0.014485684 -0.015269186 0.02130196
000030 4b ff 91 3c 6d bd 04 3b 53 d0 96 3e f6 42 af 3e
       0.017821928 0.0020254508 0.29455814 0.34230775
000040 57 04 c7 3e c0 0a 91 bb e1 85 bc 3e 98 60 91 bc
       0.388705 -0.0044263303 0.36820891 -0.017746255
000050 b6 6d 96 bc ae 5a 58 3c 64 03 48 bb 8e df ba 3c
       -0.018362861 0.0132052135 -0.00305196 0.022811677
000060 b5 b6 84 3a d4 25 1a bb 34 23 09 3c 82 b4 25 bc
       0.0010125252 -0.0023521082 0.0083702095 -0.010113837
000070 17 54 5f 3c ff 33 bc 3e a5 c0 94 3c 2e f8 b6 3e
       0.013630888 0.3675842 0.018158266 0.3573622
000080 28 e5 69 bc 17 46 b1 3e d9 ce bb 3e bb a3 8f bc
       -0.0142758265 0.34623787 0.3668125 -0.017534127
000090 e3 2c c2 3c 0e 60 c9 bc 4c 59 a6 3e f2 5e ad 3e
       0.023703044 -0.024581935 0.32490003 0.338615
0000a0 60 1f cd bc c6 95 2a 3c 08 7d 2b bc b9 d9 90 bc
       -0.025039375 0.010411685 -0.0104668215 -0.017681943
0000b0 35 b0 e9 bb 39 4e b3 3e 32 99 29 bc e7 fd b0 3e
       -0.007131601 0.35020617 -0.010351466 0.34568712
0000c0 17 7d 0e 3c 06 19 ac 3e 7f 15 b5 3c ef 3e 90 bc
       0.008696816 0.3361284 0.022104977 -0.017608134
0000d0 29 b7 b3 ba bd 04 b2 3e 13 7e 69 bc ee 1b b0 3e
       -0.0013711202 0.3476924 -0.01425125 0.3439631
0000e0 dd 94 b8 3e e5 5c 9e 3e e0 fc 00 bc d6 36 81 3c
       0.36051074 0.30930248 -0.00787279 0.015773218
0000f0 cd cc 75 3c 9f 7c ad 3e 4a 08 af bc 78 c8 99 3c
       0.015002442 0.3388414 -0.021366257 0.018772349
000100 7a f1 ed 3b 7b e1 ba 3e 3e cf 18 bc 29 d1 cf ba
       0.0072614523 0.36500153 -0.009326754 -0.0015855181
000110 7d 6c 66 bc 69 c3 ca bb e5 cd 41 bc 22 5f c4 3e
       -0.014063952 -0.0061878455 -0.011828874 0.3835383
000120 b8 91 b8 3e 5a f3 a1 bc 4f 48 1d 3c 4b 38 b9 3e
       0.36048675 -0.01976936 0.009599759 0.3617576
000130 92 04 ac 3e ce c0 86 bc 3d 65 8d bb d9 08 ad 3e
       0.33597237 -0.016449358 -0.004315047 0.33795813
000140 ed e3 f6 bb 8f 67 fe ba e7 c8 a6 3e 76 53 11 bc
       -0.007534495 -0.0019409525 0.3257515 -0.008869996
000150 fc 49 18 bc 77 42 b6 3e f7 2b 42 bc 65 2e 3e 3c
       -0.009294983 0.35597584 -0.011851302 0.011607741
000160 e5 e4 18 bc a3 bd 6f bc af ec f8 bb 9b 8a b2 3e
       -0.009331916 -0.014632615 -0.0075965743 0.34871373
000170 e2 95 b8 3e 98 05 8f bc 09 92 84 3c 5c 34 0e 3c
       0.36051852 -0.017458722 0.016182916 0.008679476
000180 f8 ae 96 bb 4b 55 bf 3c 84 82 b0 3e 74 29 c4 bc
       -0.0045984946 0.0233561 0.34474576 -0.023945548
000190 da ba 2e 3c 90 c7 bd 3c cd ec 40 bc cd 83 b9 3e
       0.010664666 0.023166448 -0.011775208 0.3623337
0001a0 a7 ca be 3e 01 f3 bd 3a 02 71 aa bc e7 cb af 3e
       0.37263986 0.0014491976 -0.02080584 0.34335253
0001b0 8c 98 a5 bb ff a0 2b bb f0 80 ab 3e 3b 70 3f 3c
       -0.0050535854 -0.002618849 0.3349681 0.011684473
0001c0 59 b7 67 bc f3 5a bd 3e 3d 66 b2 3e b3 d7 b6 bc
       -0.014142835 0.3698345 0.34843627 -0.02231965
0001d0 93 58 ae 3e 07 e3 a2 3e b2 77 26 bc 24 f7 d4 3b
       0.34051952 0.31813833 -0.0101603735 0.006499188
0001e0 e2 50 b0 3a c4 e5 ac 3e b1 f1 ad bc e5 77 8f 3c
       0.0013451839 0.33769047 -0.021233412 0.017513225
0001f0 f9 e8 b0 3e 62 6b b9 3e af 24 9d 3b c0 b9 11 bb
       0.34552744 0.3621474 0.004795633 -0.002223596

layer3.weight f4 [7, 128]
000000 f6 17 90 3e 3f e8 84 3e b8 21 dc bb 30 ed 80 bc
       0.2814328 0.2595844 -0.006717887 -0.0157381
000010 20 ba 99 3b 83 50 ad bc 12 28 86 3e e3 07 84 3e
       0.0046913773 -0.021156555 0.26202446 0.25787267
000020 3c 1e b4 3c 80 c6 5d 3c b9 e6 b9 bc cc bd 01 bc
       0.021987073 0.013536096 -0.022693025 -0.007918786
000030 74 02 4f bc f8 97 60 3c 8c 4c 75 3e 6f eb 88 3e
       -0.012634862 0.013708107 0.23954982 0.26742122
000040 23 7d 6e 3e 9c 49 8c 3c 63 08 86 3e 7f 8e 20 3c
       0.23289923 0.017124943 0.26178274 0.009799599
000050 b6 ab 46 3c d4 43 fb bb 9d 4c 0f bc 7c 4b d1 3c
       0.0121259 -0.007667998 -0.008746293 0.025548689
000060 22 5c 79 3c 34 23 9a bc 3c df d8 3b 2a 45 c7 bb
       0.01521972 -0.018815614 0.0066184085 -0.006081243
000070 f9 ea 46 3c f6 f9 82 3e 00 35 29 3a e9 cc 85 3e
       0.012140983 0.2558133 0.0006454736 0.26132897
000080 f9 76 88 3c 07 41 80 3e 3b 55 8d 3e 7c bc 8a 3b
       0.016658293 0.25049612 0.27604088 0.004233895
000090 97 a4 b4 3c a7 5d 85 3c 6a 29 82 3e 97 0a 8c 3e
       0.022051139 0.016280008 0.2542222 0.2735183
0000a0 52 78 29 bc f6 c2 ba 3c ff 9e 71 3b a3 70 09 bc
       -0.010343628 0.022798043 0.003686845 -0.008388671
0000b0 c5 77 16 3c 6b 3d 87 3e 43 7f b1 3c 44 26 86 3e
       0.009183829 0.26414046 0.021667128 0.2620107
0000c0 d5 98 07 3c 9c eb 83 3e 40 5f 01 3c 56 55 11 3b
       0.008276184 0.25765693 0.0078962445 0.0022176108
0000d0 40 10 8e 3c 5b 72 8f 3e ad 35 62 bc d4 70 8f 3e
       0.017341733 0.28016934 -0.013806743 0.2801577
0000e0 0f bb 8f 3e 92 f9 86 3e 21 fd ac 3b d6 01 53 3c
       0.28072402 0.26362282 0.0052791988 0.012878856
0000f0 0e 9b 55 bc 29 fa 87 3e 7e 63 18 bc 37 df f9 bb
       -0.013037456 0.26558045 -0.009301065 -0.0076254862
000100 66 42 bc bb a8 f2 86 3e d3 15 42 3c ee c8 2b bc
       -0.00574522 0.26357007 0.011846024 -0.010484917
000110 05 b7 b1 bc 78 69 34 bc 0d 0c 09 bc 98 54 78 3e
       -0.021693716 -0.011011474 -0.00836469 0.2425102
000120 f7 52 85 3e 19 73 ab bc 00 68 af bc cb ba 80 3e
       0.2603986 -0.020928906 -0.021411896 0.25142512
000130 b1 48 89 3e a7 1d 7d 3b 11 c3 ee ba 19 d2 86 3e
       0.26813272 0.003862241 -0.0018216093 0.26332167
000140 29 31 b6 3c cd 24 04 bc 38 ae 83 3e 77 c5 b9 3c
       0.022240238 -0.008065415 0.25718856 0.022677166
000150 7e a9 cc 3b e0 21 84 3e c9 d0 9a bc fd ad 8d 3c
       0.006245791 0.25807095 -0.018898385 0.017294878
000160 0b 46 c4 3b f3 8f f6 3b 7d bd 80 bc 7b 34 90 3e
       0.005989795 0.0075244843 -0.015715355 0.2816504
000170 ee bf 7c 3e c9 92 af 3b 61 f6 e7 bb fd 16 ab bc
       0.2468259 0.0053580743 -0.007078931 -0.020884985
000180 c7 fb bf bc 95 41 97 3c 0f 13 87 3e 9a 05 7c 3c
       -0.023435486 0.01846389 0.26381728 0.015382195
000190 df 11 b6 bc 86 bc 59 3b 5d 90 82 bc 1b a9 82 3e
       -0.022225318 0.003322394 -0.015937978 0.25519642
0001a0 fe 1c 89 3e 60 c4 09 bc 2c c5 24 bc 5f 99 90 3e
       0.26779932 -0.008408636 -0.010056775 0.28242013
0001b0 74 ed fb 3b 2a fc 65 3c 75 dc 89 3e 65 3e b9 3c
       0.0076882187 0.014037171 0.26926008 0.02261276
0001c0 4a 10 93 3c 1c a2 8c 3e da 97 8e 3e bc 66 43 bc
       0.017952103 0.2746743 0.2785023 -0.011926349
0001d0 cd 38 77 3e 5a 80 8c 3e 5a 41 4f bb 56 5d 92 bc
       0.24142762 0.27441674 -0.0031624646 -0.017866772
0001e0 e3 68 c4 3c a7 a6 86 3e 8d 88 22 bc 0a 9f 53 3b
       0.023975795 0.2629902 -0.009920252 0.003229084
0001f0 0d a6 7e 3e 57 b5 80 3e dd 1c 65 3a 54 b3 fe bb
       0.24868031 0.2513835 0.00087399577 -0.0077728424
000200 44 82 38 3e 45 31 31 3e 7c ca 93 3b 5f f6 41 bc
       0.18018442 0.17303951 0.004510222 -0.011838525
000210 48 dc b0 3b c0 e8 83 3c 73 fa 28 3e 04 40 32 3e
       0.0053973533 0.016102195 0.16501789 0.17407233
000220 8d d8 75 bc 47 69 f4 ba a0 93 c5 3b b5 76 46 3b
       -0.015005243 -0.0018647098 0.006029561 0.0030283157
000230 fc bb 7e bb 29 94 ae 3c 85 3b 34 3e 4a d0 34 3e
       -0.0038869372 0.021310883 0.1760083 0.17657581
000240 dd 5a 3e 3e 0d 9b ff 3a 66 4f 49 3e 8d 14 71 bc
       0.18589349 0.0019501165 0.19659194 -0.014714372
000250 aa b0 f6 3b 97 25 91 b8 d6 57 af 3c 13 7f b1 3c
       0.007528384 -6.9211404e-05 0.021404188 0.021667039
000260 47 7f 99 3c 4a fa 99 3c d0 b9 09 bc 72 18 0f 3b
       0.018737448 0.018796105 -0.008406118 0.002183464
000270 61 4f b2 bc f1 d1 48 3e 55 03 c7 3b b3 26 2f 3e
       -0.021766366 0.19611336 0.0060733953 0.17104606
000280 49 c0 97 3b 1f 10 41 3e 9d 19 37 3e 61 be c7 3b
       0.0046310765 0.18853806 0.17880864 0.006095693
000290 4b 63 8f bb 00 e2 90 ba 55 34 3d 3e bf 9b 3f 3e
       -0.0043758503 -0.0011053681 0.18476994 0.18711756
0002a0 24 c3 ab 3b 5d 35 40 bc 76 a9 ae bb 72 63 53 3c
       0.0052417684 -0.011731473 -0.00533026 0.012902128
0002b0 e7 d1 aa 3c d2 a8 4b 3e d9 0a db bb 5a da 21 3e
       0.020852042 0.19888619 -0.0066846428 0.15805951
0002c0 aa c0 58 3c c1 4d 1b 3e 5a aa 0a 3c 65 be 76 bb
       0.013229528 0.1516638 0.008463467 -0.0037650105
0002d0 58 34 47 bc 31 af 1f 3e 61 cc f7 3b da 8c 32 3e
       -0.012158476 0.15594174 0.0075622057 0.17436543
0002e0 90 34 39 3e 15 34 40 3e fb 21 0a 3c ee c0 e4 bb
       0.18086457 0.18769868 0.008430953 -0.006981007
0002f0 5f 3d b4 3c aa fd 2a 3e 4d 32 90 bc cb 1d c0 bc
       0.02200192 0.16698328 -0.01760211 -0.023451706
000300 1d e0 6f 3c 95 64 42 3e c3 ad 47 3c 47 0b 31 3c
       0.014640835 0.18983681 0.012187424 0.010805911
000310 fd 10 6f 3c 9e d0 25 3c df b4 c2 3a 2c fb 47 3e
       0.014591453 0.010120539 0.0014854929 0.19529408
000320 4b 2b 27 3e 4a 7b 61 3c 54 76 e1 3b 1f e5 30 3e
       0.16325109 0.013762305 0.006880561 0.17274903
000330 d0 ef 43 3e 6f d1 96 bb f7 a2 ae bc af 58 28 3e
       0.1913445 -0.004602603 -0.021317942 0.1644008
000340 7c f0 3d bc 60 20 58 3c 39 21 30 3e 6f 24 b1 3c
       -0.0115929805 0.013191313 0.17200173 0.021623818
000350 7f 0e 97 3c 3b 5a 20 3e dd 57 70 3c 81 4c 85 bc
       0.01843953 0.1565942 0.014669386 -0.016271831
000360 79 21 c2 bc 36 79 98 bc 87 7f e5 bb 9c 26 39 3e
       -0.023697602 -0.018612485 -0.007003728 0.18081135
000370 bf 98 3c 3e 4a ad 3c 3c b8 b4 f4 3b 54 13 53 3b
       0.18417643 0.011515925 0.0074678324 0.0032207565
000380 28 b1 cb 3b 7a 85 0f 3c 22 32 48 3e eb 90 30 3b
       0.006216187 0.008759851 0.19550374 0.0026941847
000390 91 56 9b bb 9a cb 14 3c c0 45 10 bc 9c d3 2a 3e
       -0.004740544 0.0090817455 -0.008805692 0.16682285
0003a0 27 fb 31 3e 9d 2d 85 3b 67 01 ef 3b 7b 84 45 3e
       0.17380963 0.0040642754 0.0072938683 0.19288819
0003b0 a8 0d 18 3b c5 7b c2 bc 51 fe 32 3e 1f c7 b5 bc
       0.00232015 -0.023740659 0.17479827 -0.022189675
0003c0 ec 79 aa 3c 89 72 43 3e b6 6c 3c 3e 87 82 a6 3b
       0.02081009 0.1908666 0.18400845 0.005081478
0003d0 18 84 40 3e ff 1e 32 3e 8e 31 a1 bc 44 fd 9d bb
       0.1880039 0.17394637 -0.01967695 -0.0048214514
0003e0 cb d6 b3 3b 7b 1c 33 3e b5 c7 dc 3a 4d 6e ae bb
       0.005488252 0.17491333 0.0016844185 -0.0053232075
0003f0 de 1a 45 3e 09 da 33 3e 9e 37 23 bc 3a 28 61 3c
       0.1924853 0.17563643 -0.009961991 0.013742501

layer3.bias f4 [7]
000000 c2 ce 8e 3e 39 2f 91 3d 88 63 bf 3d 47 9e ca 3d
       0.2789212 0.07089085 0.09345156 0.0989347
000010 fd 71 a8 3d ea 4b 8e 3d 44 c6 87 3d
       0.082248665 0.06948073 0.06629613

layer1.weight f4 [128, 28]
000000 a6 2f 35 3d 17 ea a5 bc 2d eb 49 bd 08 d0 4d bd
       0.044234894 -0.020253224 -0.049296547 -0.050247222
000010 7b 5f 40 bd e8 78 44 bd ab 21 08 bd 5b ef b9 3e
       -0.046966057 -0.047966868 -0.033235233 0.36315426
000020 ce bb 5b 3c 3b 2c 2c 3d b3 df 20 bc 9e 7b 1f 3d
       0.013411475 0.04203437 -0.009818959 0.03893625
000030 33 bc 3a bd b8 32 d0 3b 86 2e 65 3c 00 79 bc 3c
       -0.045589637 0.0063537024 0.013988143 0.023006916
000040 f9 be c3 3c e6 99 40 bc 32 d8 ec 3c 36 9f fa 3a
       0.023894774 -0.011755442 0.028911684 0.0019120935
000050 c3 a2 1d bc 2f d8 3a bd 22 6d 22 3d 06 43 d9 3c
       -0.009621325 -0.045616325 0.03965486 0.026521217
000060 c2 fc ee 3c df 63 3a 3d 80 33 c0 bc 86 9d d3 3e
       0.029173259 0.0455054 -0.023462057 0.41331118
000070 0e cf 05 bd ba 2f 11 bd 7e cc 3f 3d ac fd 60 bc
       -0.032668166 -0.035445906 0.04682588 -0.013732355
000080 7a e1 4f bd 62 71 3f bd 90 8d 54 bd aa 51 ec bc
       -0.05075214 -0.04673899 -0.051892817 -0.028847534
000090 85 0e e3 bc c7 34 38 bd df 71 36 3d 6a 87 9f 3c
       -0.027716884 -0.044972207 0.04454219 0.01947375
0000a0 c5 5f 9d 3c 2d 0c 13 3d fa cc 55 bd 8e f2 3b 3d
       0.019210706 0.035900284 -0.052197434 0.045885615
0000b0 5b 61 1c bd f1 18 10 bd 55 7a 2c bc 62 25 77 b8
       -0.038178783 -0.035180036 -0.010527213 -5.8924204e-05
0000c0 75 31 99 bc 7a c7 18 bc fc 34 05 3d 2a 2a 0a bc
       -0.01870034 -0.009324903 0.032521233 -0.008432904
0000d0 6b 6d 19 bd 8a cf 32 bd e7 e1 3a 3d fa 6e 2f bd
       -0.037457865 -0.043654956 0.045625594 -0.042830445
0000e0 b0 af c3 3c 5b 01 1d bc 37 6c 36 bd 02 0d 03 3d
       0.023887485 -0.009582843 -0.044536795 0.031994827
0000f0 d8 cc 8f 3c 33 51 f4 bc 18 78 53 3b 02 df 28 bd
       0.017553732 -0.029823875 0.0032267626 -0.0412283
000100 f8 31 e3 bb e4 22 06 bd b0 97 04 3d 38 4a c8 3c
       -0.006933447 -0.032748118 0.032371223 0.024449453
000110 78 13 56 3d 66 84 d2 bc c7 b9 b8 3c 5e 21 d7 bc
       0.05226466 -0.025697898 0.022549523 -0.026261028
000120 c3 0a 36 bb e5 ba df 3c 63 d0 0c 3d 03 bf fe 3c
       -0.002777741 0.027310798 0.03437842 0.03109694
000130 d5 16 9a 3c 50 87 1f bc d8 57 06 bd aa 46 c9 3b
       0.018809715 -0.009736851 -0.032798618 0.006142457
000140 9f 0a 88 bc 76 41 bf bb ac 65 43 ba 56 d4 56 3b
       -0.016606627 -0.005836661 -0.000745381 0.003278037
000150 65 cf 3d 3d 87 82 ac 3c 9a 24 34 bc 77 b4 38 3d
       0.046340365 0.021058334 -0.010995055 0.04509398
000160 9f 1e 36 bd 72 d0 42 3d f9 dd 8c 3b 99 7f d1 3e
       -0.044462796 0.04756207 0.004298922 0.40917662
000170 a7 4a 36 3d 60 8a ca bb 43 de 33 3b cc 35 bc 3a
       0.044504788 -0.0061810464 0.002744571 0.0014359294
000180 cd 90 11 3d 08 64 0c bd f3 fd f4 3c 1f 0c 26 3d
       0.035538483 -0.034275085 0.029906249 0.040538903
000190 77 21 9d 3c bf 13 10 bc fe f4 cc 3c 8f 8c 31 bd
       0.019180996 -0.00879377 0.025019165 -0.043346938
0001a0 1b 26 f8 bc 01 43 02 3c cc 1a 08 3d f6 2e 2e 3d
       -0.030291608 0.007950545 0.03322868 0.042525254
0001b0 00 51 59 3c fa 13 ed 3b b1 0f 63 bc f4 71 d3 3e
       0.013263941 0.0072350474 -0.013858722 0.41297877
0001c0 e7 4d fd 3c 12 d6 77 3c 22 6b 2e bd 80 c7 cc 3b
       0.030920936 0.015126722 -0.04258264 0.006249368
0001d0 53 ff 2b 3c 28 c1 2b 3c f7 3f 1a bc 07 76 ae 3e
       0.010497886 0.010483064 -0.0094146645 0.34074423
0001e0 73 48 36 bd 27 27 88 bc 16 93 e1 bc fb 67 96 bc
       -0.044502687 -0.016620232 -0.027535956 -0.018360129
0001f0 b2 46 05 bd be 01 80 3c 4e 1e 39 bd 7e ec 9c 3c
       -0.032538123 0.01562583 -0.045194916 0.019155737
000200 e3 4a b9 bb f5 50 45 3d 41 4b fb bc 33 ad 1b 3d
       -0.005654679 0.04817291 -0.030675532 0.038006973
000210 c7 d1 12 3c 87 3b 3b bd 6d 19 0a 3d 5a 96 c0 bb
       0.008961148 -0.045711067 0.033715654 -0.0058772983
000220 04 90 87 3c 78 3f 4a 3c 4e 23 45 bd cd 5b ba 3e
       0.016548164 0.012344234 -0.048129372 0.36398163
000230 94 65 d3 bc b6 a3 a7 3c 9d 86 19 bd 82 00 ef 3b
       -0.025805272 0.020463806 -0.037481893 0.0072937617
000240 b2 3d ea bb 8b 44 f3 bb c4 d0 d6 ba ab 57 07 bd
       -0.007148468 -0.0074239424 -0.0016389121 -0.03304259
000250 a9 fb 20 3d 64 c3 d9 3b 51 33 98 bc bd f2 a4 bc
       0.0393025 0.006645607 -0.018579157 -0.020135278
000260 69 fd 7a bc dc 17 44 bd 2b e4 aa 3c 4f b1 44 3d
       -0.015319207 -0.047874317 0.020860752 0.048020657
000270 37 50 7d 3c e4 fe 0c 3d 1f 3e 36 bd 09 1d 28 bd
       0.015461019 0.03442277 -0.044492837 -0.041043315
000280 2a 4d ef bc d7 63 32 3d 37 57 41 3d 4a ac 56 3d
       -0.0292116 0.043552246 0.047202315 0.0524104
000290 dc ab 4d bd 63 e7 45 3d 92 11 4a bd 4f e1 c5 3c
       -0.050212726 0.04831637 -0.049333163 0.024155287
0002a0 f5 45 c6 3c d8 40 a7 3c 70 33 7f 3c 9e 66 33 3d
       0.02420328 0.020416662 0.0155762285 0.043799035
0002b0 47 c6 1f 3d 70 7b 47 bd 22 e2 4c bc db af a7 3e
       0.03900745 -0.048701704 -0.012505086 0.32751355
0002c0 ba 8d 2d 3c 3a b7 0c 3a 8c e0 58 3d 6b d6 3d ba
       0.010592872 0.0005367879 0.05294852 -0.00072417286
0002d0 65 ec 2a bd d3 a9 f0 bc 7f 5b 34 bd 67 e2 88 bc
       -0.04172935 -0.029377853 -0.04403257 -0.01670952
0002e0 19 58 e7 bc a0 fb 0e bd 9b 27 34 bd 59 58 13 bb
       -0.02824025 -0.034907937 -0.043983083 -0.002248308
0002f0 e5 87 96 bb 27 c8 82 bc 9b bd b7 bc 25 af 47 bc
       -0.0045938366 -0.01596458 -0.022429278 -0.012187754
000300 5b 70 3a bd 3f 10 fd bc e9 ab 0a 3c ce db bc 3e
       -0.045517307 -0.030891536 0.008463838 0.36886448
000310 a4 24 8f 3b 3a 55 7f 3c ff 97 32 3d 7a c0 f3 bc
       0.0043683816 0.015584284 0.043601986 -0.029754866
000320 66 7e af 3c 61 7d 06 3d 44 78 43 3d 89 35 21 3c
       0.021422576 0.032834414 0.047722116 0.009839424
000330 bf bd 10 ba 62 2f ba 3c fa e7 cf bc e0 2d 53 bd
       -0.00055214384 0.022727672 -0.02537917 -0.05155742
000340 2f 24 40 bd 7f a4 19 3d 52 4b ee bc ba 2f f9 3b
       -0.046909507 0.03751039 -0.02908865 0.0076045664
000350 fa 9e af bc be 60 56 3d 93 d3 f4 3a c3 3d 3b 3d
       -0.02143811 0.052338354 0.0018678777 0.045713197
000360 2b e8 b6 bc 74 d9 8a bb 9d 4e 24 3c dd cb 16 3d
       -0.022327503 -0.004237348 0.0100285085 0.036815513
000370 79 85 16 3d 26 db 50 bd 62 69 f2 bc 0a 56 30 bc
       0.036748383 -0.050990246 -0.029591266 -0.010762701
000380 34 29 48 bd 43 f7 70 3c 37 ec 64 bc a1 b4 25 bc
       -0.04886742 0.014707389 -0.013972334 -0.010113866
000390 af 11 c9 3c d7 6d 11 bc 1f 02 35 3c 86 b4 d5 3e
       0.024544565 -0.0088762855 0.011047869 0.4173929
0003a0 50 8e be bc ce a8 27 b9 c0 30 e5 3c 83 99 49 3d
       -0.02326122 -0.00015989246 0.027977347 0.049218666
0003b0 6e 59 8e 3b 7b 5f 12 3d 67 24 91 bc 32 84 4c bd
       0.004344157 0.03573559 -0.017717553 -0.04993076
0003c0 ff 54 38 3c f9 3d c7 bc 67 1e b6 3b 11 fe 22 3d
       0.011250733 -0.024321543 0.0055578235 0.039793078
0003d0 be ac 23 3d d1 e9 83 3c 45 06 5f bc 31 ca 14 bd
       0.03995966 0.016102703 -0.013612335 -0.036325637
0003e0 b4 a4 04 3d af 69 06 3d 40 ff 09 bd 5e 7e c4 3e
       0.032383636 0.03281563 -0.03369069 0.3837766
0003f0 5d 13 dd 3c 9f 0e c2 bc 9b 0e 0b 3d c3 d4 f0 bb
       0.026986772 -0.023688613 0.033949476 -0.007349582

layer1.bias f4 [128]
000000 df 8f c8 3e 83 0b aa bb aa be 01 3d 68 f7 b3 3e
       0.39172265 -0.0051893606 0.031675972 0.35149693
000010 1c 87 cb 3e 4a eb 00 bd 03 f9 d1 3e f6 a5 b8 bc
       0.39751518 -0.03147439 0.41010293 -0.022540074
000020 f0 f1 bc 3e e4 a2 60 bc 99 67 dd bb 23 d8 99 bc
       0.36903334 -0.013710711 -0.0067567346 -0.01877982
000030 52 6e 9e 3e d1 25 9d 3e 46 99 11 bd 90 c6 d7 bc
       0.30943543 0.30692914 -0.035546564 -0.0263398
000040 02 70 f3 bc ed f3 7d 3c 41 58 e2 ba 58 25 65 bc
       -0.029716495 0.015500051 -0.0017268733 -0.013985954
000050 32 64 24 bd 3e dc 38 bd 74 6d bb 3e 0d d9 b9 3e
       -0.040134616 -0.045131914 0.36606944 0.3629841
000060 5c df a7 3e a8 e5 20 3c 4d 13 b7 3e 6b 56 cf 3e
       0.32787597 0.009820379 0.35756913 0.4049562
000070 fd 38 ab bc 71 85 d0 3e 05 8e d4 3e 42 78 ca 3e
       -0.020901198 0.40726808 0.41514602 0.39544874
000080 d1 d6 17 bd fe 3e bf bc 2b 9a b7 3e 0d 2a 09 3c
       -0.0370701 -0.023345467 0.35859808 0.008371842
000090 e4 a9 c9 3e 19 0f d1 3e 96 76 af bc cb 06 c7 3e
       0.3938743 0.4083183 -0.02141885 0.3887237
0000a0 a6 42 d4 bc 9f 16 cd 3e 9d 16 c3 3e cf c9 06 3d
       -0.025910687 0.4005632 0.3810319 0.032907303
0000b0 9e 30 d4 3e 6b f7 37 bd 0b 6f 35 3d 19 b9 cc 3e
       0.41443342 -0.04491369 0.044295352 0.39984968
0000c0 a6 ea c9 3e 2b ec 49 bd 66 c5 2d bd 43 80 c4 3e
       0.39436835 -0.049297493 -0.042424582 0.38379106
0000d0 51 d2 94 3c ce 2d d7 bc e6 43 ce 3c db 94 cd 3e
       0.018166693 -0.026266959 0.02517886 0.4015263
0000e0 6e 9e 35 bb f0 e2 a9 bc c1 db a0 3c a3 44 aa 3c
       -0.002771284 -0.020738095 0.019636037 0.020784682
0000f0 45 5f b3 3e 19 ff ce 3e 69 dd cc 3e 3f 9b 1c bd
       0.35033622 0.40429 0.40012673 -0.03823399
000100 31 34 8b 3b 05 26 92 bc 15 03 d4 3e fb c4 d4 3e
       0.004248165 -0.017840395 0.414086 0.41556534
000110 93 57 f3 bb 9b a4 11 3d 83 9e b6 3e 5c c0 d6 3e
       -0.007426211 0.03555737 0.3566781 0.41943634
000120 fe a1 cb 3e 1a a4 a7 3c 20 86 24 bd 63 03 d0 3e
       0.39772028 0.020463992 -0.040166974 0.40627584
000130 c9 0a ce 3e 41 95 03 3d 98 9f ce 3e 03 a4 34 bd
       0.40242603 0.03212476 0.40356135 -0.044101726
000140 7c 16 cc 3c 07 17 34 3d ce f6 49 bd 42 81 d5 3e
       0.024913065 0.043967273 -0.049307637 0.41700178
000150 00 57 d4 bc 9e 60 fb 3c 5d 9f c5 3e d9 90 a8 3e
       -0.025920391 0.03068572 0.38598147 0.3292301
000160 d8 16 ce bb 2c 87 a3 3e 22 0b d4 3e 18 7f 52 bd
       -0.0062893443 0.31939065 0.41414744 -0.051390737
000170 5c ac d1 3e bb e8 a8 3e d9 e6 c0 3e 16 a5 b5 3c
       0.40951812 0.3299006 0.37676123 0.022173446
000180 cc c0 44 bd f0 12 d2 3e fa 7b ec 3c 02 ea b3 3e
       -0.048035428 0.41030073 0.02886771 0.3513947
000190 aa 55 d3 3c 65 6d d2 3e 77 97 fc bc b6 6d 2f bd
       0.025797684 0.41099086 -0.030833943 -0.042829238
0001a0 3b af cc 3e 4a f5 b9 3e fc f4 c4 3e 60 a3 b5 3e
       0.3997744 0.36319953 0.38468158 0.35476208
0001b0 8d ef b0 3e 7d 1f af 3e ce 5c 4e bc 28 c0 d2 3e
       0.34557763 0.3420371 -0.012595369 0.4116223
0001c0 c6 74 ab 3e f4 39 a8 3e 0e 2c 2e bd d5 79 e1 3a
       0.3348753 0.32856715 -0.042522483 0.0017202446
0001d0 3b 87 c9 3e 7a 52 2d bb 9e 99 31 bd 5b 67 f3 3c
       0.39360985 -0.0026446865 -0.04335939 0.02971237
0001e0 4b 12 c2 3e cb 73 c8 3e 1a c4 ab 3e 5c 15 b3 3e
       0.3790458 0.39150843 0.3354805 0.34977233
0001f0 85 74 be 3e b0 3f bb 3e d3 59 ca 3e f1 8e c8 3e
       0.37198272 0.36572027 0.39521655 0.39171556

layer2.weight f4 [128, 128]
000000 aa da b2 3e da b9 ee 3b b6 4e 3e bb 0b 69 a3 3e
       0.34932452 0.007285339 -0.0029038615 0.3191608
000010 69 d2 a1 3e 4f be 49 3c 46 62 ad 3e b7 fe c2 bc
       0.31605843 0.0123134395 0.3386404 -0.023803098
000020 7c 2b ac 3e ca 07 7e bc 00 d1 d9 3b e5 23 a3 bc
       0.33626926 -0.015504787 0.006647229 -0.019914577
000030 81 d0 a8 3e c8 98 a2 3e 07 8a 35 3c 21 e1 a5 3c
       0.32971576 0.31757188 0.011080272 0.020248951
000040 95 0b 88 bb a3 f5 34 3c 3f e3 be bc 27 cc 3b bc
       -0.0041517713 0.0110448925 -0.023301719 -0.011462248
000050 5f 70 07 bc 27 a9 c5 3c d1 92 b3 3e 6e 19 a7 3e
       -0.008266537 0.02412851 0.3507295 0.3263659
000060 61 ec af 3e 07 f2 c4 3c 64 2a ad 3e c2 e2 a0 3e
       0.3436003 0.024041189 0.33821404 0.31423002
000070 96 f6 2d 3c 48 96 b1 3e f4 39 9f 3e bb b9 a8 3e
       0.010617873 0.34684968 0.31098902 0.329542
000080 4d a2 91 bc c4 e5 58 3c 26 51 ac 3e ba a6 77 bc
       -0.017777586 0.013238374 0.3365566 -0.015115434
000090 f1 4c ac 3e 59 aa b4 3e 32 d8 bd 39 f5 b8 ae 3e
       0.33652452 0.35286215 0.00036209967 0.34125486
0000a0 67 b7 c1 3c 8b 75 a8 3e b6 03 ac 3e 88 10 a8 bc
       0.023647023 0.32902178 0.3359658 -0.020515695
0000b0 97 25 ac 3e 08 46 44 3c d8 dd 49 3c 81 dc b4 3e
       0.3362243 0.011979587 0.012320958 0.3532448
0000c0 df 6a a1 3e e6 5d 5a 3b 7a 0d bb bb ff 67 b3 3e
       0.3152685 0.0033320128 -0.0057083936 0.3504028
0000d0 13 38 5e 3c 34 97 5c 3c 67 c8 83 bc 2b 75 b4 3e
       0.013563174 0.013463784 -0.01608677 0.35245642
0000e0 12 f6 04 bc fb 5b c2 3c e8 3f 0f bc 10 74 c3 bb
       -0.008115308 0.0237255 -0.008743264 -0.0059647635
0000f0 9d 32 ac 3e 1d 79 b1 3e 74 86 ae 3e 41 63 a6 3b
       0.33632365 0.34662715 0.34086955 0.00507775
000100 0b 20 b8 bc d7 56 88 bc 29 de b0 3e 7f f1 b4 3e
       -0.022476217 -0.016642971 0.34544495 0.35340497
000110 b9 f4 96 3c 5e c3 55 bc 1b 64 a7 3e 53 8c a6 3e
       0.01842724 -0.013047067 0.32693562 0.32528934
000120 53 50 a2 3e 72 78 eb 3a f2 93 28 bc ff 08 a7 3e
       0.31701908 0.0017964973 -0.010289179 0.3262405
000130 d0 fe b1 3e 1f 7b 1b 3b 14 49 ac 3e bb 5d 1a bb
       0.3476472 0.002372451 0.33649504 -0.0023554403
000140 27 7d 8c 3c f5 46 7a 38 d3 43 f6 bb b6 6a a2 3e
       0.017149521 5.967073e-05 -0.0075154095 0.3172204
000150 0e 51 0b bb a6 bf 41 bc 4f 58 ad 3e 63 db a4 3e
       -0.002125803 -0.011825478 0.33856437 0.3219863
000160 bb 34 b5 3c 89 9c b5 3e 57 ec b3 3e cf 64 68 bc
       0.02211987 0.3547099 0.3514125 -0.014184191
000170 1f 6e a4 3e 9d 07 a7 3e b3 9a a4 3e 8a 53 ba bc
       0.32115266 0.32622996 0.32149276 -0.022744913
000180 a1 1a 1d 3a a4 e7 aa 3e ec 28 27 3c 24 92 b7 3e
       0.0005993043 0.33379853 0.010202628 0.35853684
000190 6d 86 87 bc 46 a1 a0 3e 55 5c 2a bc 5e 0d d2 bb
       -0.016543591 0.31373042 -0.01039799 -0.006410285
0001a0 82 65 a1 3e ab 34 a7 3e 1d b4 a3 3e f0 ad b0 3e
       0.31522757 0.3265737 0.31973353 0.34507704
0001b0 6e e1 9e 3e b9 c5 a4 3e 4a e1 61 3c 20 6d af 3e
       0.31031364 0.321821 0.013786623 0.34262943
0001c0 fc 01 ac 3e 69 23 ac 3e ea 9d aa bc af 84 9d 3b
       0.33595264 0.33620766 -0.020827252 0.004807077
0001d0 de 4c a6 3e db c3 66 bb af 5a c4 3c a2 ae 54 3b
       0.3248052 -0.0035211954 0.023969023 0.0032452722
0001e0 28 6b a3 3e e2 93 b7 3e c3 67 a8 3e 8d e1 b2 3e
       0.3191769 0.35855013 0.32891664 0.34937707
0001f0 05 03 b1 3e fc bb a6 3e 68 8a a7 3e c5 f9 a5 3e
       0.34572616 0.32565296 0.32722783 0.32417122
000200 9d cd b8 3e 15 3b ab bc c2 ad 6c 3c 0c 26 bf 3e
       0.3609437 -0.020902196 0.014445724 0.37333715
000210 4a f6 b4 3e d9 55 dc bb 3f c2 b3 3e 52 fe af 3c
       0.35344154 -0.006724101 0.35109136 0.021483574
000220 63 e8 b3 3e 32 ad 86 b9 9b 44 b0 bc 65 bf 9e 3c
       0.35138234 -0.00025687512 -0.021517089 0.019378373
000230 36 37 b6 3e a4 0a b3 3e 3b ce f5 bb b7 cc 81 3b
       0.35588998 0.34969056 -0.007501391 0.0039611715
000240 ff ec 46 3c bf 65 9f bc 92 19 b2 bc ed aa 8e bc
       0.012141465 -0.019457696 -0.021740709 -0.017415488
000250 ff df 30 bc bf 2c 81 bc 0c fa b3 3e a9 70 aa 3e
       -0.010795592 -0.015768407 0.35151708 0.33289078
000260 d5 84 ae 3e 16 24 07 3c 5b 0c b4 3e 05 f7 bc 3e
       0.34085718 0.00824835 0.35165676 0.3690721
000270 02 9a 07 3b c9 03 bc 3e 61 ca b7 3e e5 33 a9 3e
       0.002069116 0.36721638 0.3589659 0.33047405
000280 91 48 13 bc 58 b4 58 bc 8f 9a b1 3e fa 5d 7a bb
       -0.008989469 -0.013226591 0.3468823 -0.0038202987
000290 d6 2d b9 3e a3 6c b0 3e ee 29 c5 3c 63 c6 b3 3e
       0.36167783 0.34457883 0.024067845 0.35112295
0002a0 50 69 87 3c 4c 9b bd 3e d3 c3 ad 3e 93 3d 77 bc
       0.01652971 0.37032545 0.33938465 -0.015090364
0002b0 95 59 b8 3e fb f8 b5 bc 3f 02 33 39 1f 97 a9 3e
       0.36005846 -0.02221345 0.00017071607 0.3312311
0002c0 f8 ce b6 3e a6 16 47 bb 38 5c d1 3a 3c 7c b6 3e
       0.3570478 -0.003037849 0.0015972918 0.35641658
0002d0 1f 70 35 bc 87 f1 99 3c 44 58 58 bb 06 96 af 3e
       -0.011074095 0.018791927 -0.0033011595 0.34294146
0002e0 97 78 b2 bc 1d 88 40 bc 5c b0 bc 3c 47 8b 3d 3c
       -0.021786017 -0.011751202 0.023033313 0.011568851
0002f0 f6 18 a9 3e b6 a0 af 3e 60 be bc 3e 4e e1 50 bc
       0.33026856 0.343023 0.36863995 -0.012749029
000300 65 42 13 3c 2e a1 88 bc 4f 32 b1 3e 4d a7 b0 3e
       0.008987998 -0.016678419 0.34608695 0.3450264
000310 db 69 7f bc b4 bb 8e bc 8a 25 bf 3e 68 28 ad 3e
       -0.015589203 -0.017423488 0.37333328 0.3381989
000320 eb 13 b6 3e 54 40 9b bc 7a 94 eb 3b a5 4d bf 3e
       0.3556207 -0.018951572 0.0071893306 0.37363926
000330 78 80 b2 3e 85 2c 63 bc 73 c5 b2 3e 0f 95 b2 3b
       0.3486364 -0.013865595 0.34916267 0.005449898
000340 d3 78 03 bc 07 f8 b4 3c 93 f2 74 ba b7 a6 b4 3e
       -0.008024412 0.022090925 -0.00093440077 0.35283443
000350 53 17 7b 3c 59 6f 88 3c 10 cd ac 3e 8a d4 c1 3e
       0.015325385 0.016654657 0.337502 0.37857467
000360 5a a7 92 ba 69 76 bd 3e 29 10 c1 3e 45 e3 a2 bc
       -0.0011188791 0.37004402 0.37707642 -0.019883761
000370 c2 5f b0 3e 15 7e b8 3e 8a a3 bf 3e ef 04 86 3c
       0.34448057 0.36033693 0.37429458 0.016359774
000380 eb b9 83 3b 65 05 bc 3e cb 92 7a 3c 9f b2 ae 3e
       0.004019966 0.36722866 0.015293787 0.34120652
000390 53 84 95 bc 86 c1 c0 3e 17 c9 84 3c 7c 56 60 bc
       -0.018251574 0.37647647 0.016209168 -0.0136924945
0003a0 40 ab ac 3e b2 d8 b4 3e c4 89 b7 3e dc 76 bf 3e
       0.33724403 0.35321575 0.35847294 0.3739537
0003b0 33 4a b7 3e 34 6a bd 3e c9 b1 92 3c 49 73 a7 3e
       0.35798797 0.3699509 0.01790704 0.32705143
0003c0 35 c9 bf 3e b2 bd b1 3e 76 96 32 bc 36 69 66 bc
       0.37458196 0.3471504 -0.0109001305 -0.01406317
0003d0 61 64 aa 3e 16 18 a7 bc b7 cb c0 3c f6 23 21 3c
       0.33279708 -0.020397227 0.023534639 0.009835234
0003e0 7d 3f ba 3e 30 73 b7 3e 07 f9 c1 3e e0 46 b6 3e
       0.36376563 0.3583007 0.37885305 0.35600948
0003f0 70 4b b6 3e 64 29 b6 3e f5 43 b9 3e 7d 51 ae 3e
       0.3560443 0.35578454 0.3618466 0.34046546

layer2.bias f4 [128]
000000 55 0c af 3e 3b eb ac 3e cb 9d a1 bb 01 b5 82 bc
       0.34189096 0.33773217 -0.0049321405 -0.01595545
000010 57 fc 1b 3c 27 c9 81 bc 2e fb a9 3e 40 dd b9 3e
       0.009520612 -0.015842987 0.33199447 0.36301613
000020 73 29 f2 3b e2 61 6d 3c e2 38 7a bc d2 8a ae 3c
       0.007390195 0.014488669 -0.015272351 0.021306429
000030 1f 07 92 3c 75 c4 04 3b 19 cb 96 3e c6 3f af 3e
       0.017825661 0.00202587 0.29451826 0.34228343
000040 c7 ff c6 3e 97 12 91 bb ab 82 bc 3e 69 68 91 bc
       0.38867018 -0.004427265 0.36818442 -0.017749982
000050 89 75 96 bc 9e 65 58 3c 8c 0d 48 bb ef e8 ba 3c
       -0.018366592 0.013207821 -0.0030525653 0.02281615
000060 bd bd 84 3a a5 2d 1a bb 3c 2a 09 3c 1a bd 25 bc
       0.0010127347 -0.0023525741 0.008371886 -0.010115886
000070 d1 5f 5f 3c 10 30 bc 3e 79 c8 94 3c 50 f4 b6 3e
       0.013633684 0.3675542 0.018161999 0.3573327
000080 aa f1 69 bc 4d 41 b1 3e a3 cb bb 3e 90 ab 8f bc
       -0.014278809 0.34620133 0.366788 -0.017537862
000090 0b 37 c2 3c 35 6a c9 bc db 54 a6 3e 85 5b ad 3e
       0.023707887 -0.024586776 0.32486615 0.33858886
0000a0 50 2a cd bc 5e 9e 2a 3c a0 85 2b bc 91 e1 90 bc
       -0.02504459 0.010413734 -0.01046887 -0.017685683
0000b0 ba bc e9 bb 32 4a b3 3e ca a1 29 bc 9b fa b0 3e
       -0.0071330937 0.35017544 -0.010353515 0.34566197
0000c0 1f 84 0e 3c 7c 14 ac 3e df 1e b5 3c c3 46 90 bc
       0.008698492 0.33609378 0.022109447 -0.017611867
0000d0 8b c0 b3 ba b6 01 b2 3e 92 8a 69 bc fb 18 b0 3e
       -0.0013713998 0.3476693 -0.014254229 0.3439406
0000e0 db 91 b8 3e 8f 58 9e 3e e8 03 01 bc de 3d 81 3c
       0.3604878 0.3092694 -0.0078744665 0.01577657
0000f0 52 d9 75 3c 5d 79 ad 3e aa 11 af bc 49 d0 99 3c
       0.0150054265 0.33881655 -0.021370728 0.018776076
000100 fa fd ed 3b 0a de ba 3e 11 d7 18 bc 18 dc cf ba
       0.0072629424 0.36497527 -0.00932862 -0.001585844
000110 36 78 66 bc 91 cd ca bb 0d d8 41 bc 2d 5b c4 3e
       -0.014066746 -0.006189056 -0.011831296 0.38350812
000120 67 8e b8 3e f2 fb a1 bc 25 50 1d 3c 32 34 b9 3e
       0.36046144 -0.019773457 0.0096016275 0.36172634
000130 35 00 ac 3e d6 c7 86 bc 45 6c 8d bb 41 04 ad 3e
       0.33593908 -0.016452711 -0.0043158852 0.33792308
000140 72 f0 f6 bb d4 74 fe ba 76 c4 a6 3e 49 5b 11 bc
       -0.0075359875 -0.001941348 0.32571763 -0.008871862
000150 d3 51 18 bc 9f 3e b6 3e 1f 36 42 bc 8b 38 3e 3c
       -0.009296852 0.3559465 -0.011853724 0.011610161
000160 b5 ec 18 bc 22 ca 6f bc f4 f9 f8 bb 97 87 b2 3e
       -0.009333779 -0.014635595 -0.007598156 0.34869072
000170 b1 91 b8 3e d8 0c 8f bc 11 99 84 3c 64 3b 0e 3c
       0.36048654 -0.017462179 0.016186269 0.008681152
000180 cf b6 96 bb 71 5f bf 3c e8 7e b0 3e 9c 33 c4 bc
       -0.004599429 0.02336094 0.34471822 -0.02395039
000190 3a c4 2e 3c b6 d1 bd 3c f5 f6 40 bc b8 7f b9 3e
       0.010666901 0.023171287 -0.011777629 0.36230254
0001a0 d3 c7 be 3e 27 fd bd 3a 9a 79 aa bc a8 c8 af 3e
       0.3726183 0.0014495001 -0.020809937 0.34332776
0001b0 24 a1 a5 bb 97 a9 2b bb cf 7c ab 3e 61 7a 3f 3c
       -0.00505461 -0.0026193613 0.3349366 0.011686892
0001c0 12 c3 67 bc 66 58 bd 3e 6a 62 b2 3e 13 e1 b6 bc
       -0.0141456295 0.36981505 0.3484071 -0.02232412
0001d0 12 54 ae 3e 29 df a2 3e 4a 80 26 bc 14 02 d5 3b
       0.34048516 0.31810883 -0.010162422 0.006500492
0001e0 43 5a b0 3a 7d e1 ac 3e 12 fb ad bc bc 7f 8f 3c
       0.0013454634 0.33765784 -0.021237884 0.017516963
0001f0 7c e4 b0 3e 41 67 b9 3e 85 2c 9d 3b 97 c1 11 bb
       0.3454932 0.3621159 0.004796567 -0.0022240633
