Backup/Video_Streaming_A2C_40m/models_50000.pth (torch, 21247 bytes, 5 tensors)

affine1.weight f4 [128, 28]
000000 55 d1 1c 3d d7 e5 24 be a2 07 90 be e4 df a0 be
       0.038285572 -0.16103302 -0.28130823 -0.31420815
000010 26 a5 90 be ab 78 9d be a7 df 8c be 80 89 0d be
       -0.28250998 -0.30756125 -0.27514383 -0.13821983
000020 44 a9 05 3e cc c8 91 3e 1c b7 4e be 03 f5 25 bd
       0.13052851 0.28473508 -0.20187038 -0.040516865
000030 22 07 db be 5f ad 4f be 42 75 d5 bd e2 a1 d6 bd
       -0.4277888 -0.2028098 -0.10422756 -0.104800954
000040 22 37 db bd fb 38 78 be 83 59 b6 bd a7 20 46 be
       -0.10703875 -0.24240486 -0.08903792 -0.19348393
000050 6a a2 0c be 9e c7 89 be ba 83 30 3d 33 36 e1 bb
       -0.13733831 -0.26910108 0.043094374 -0.006872916
000060 fc ce 18 3c 93 47 93 3d c0 a2 27 be 45 ed 10 bc
       0.009326693 0.07191386 -0.16370678 -0.008845632
000070 d9 98 97 be 20 b9 9c be 33 1a 61 bc 7f 76 6a be
       -0.296088 -0.3060999 -0.013739157 -0.22896765
000080 4d b6 38 be 7c 1e 2a be ca c1 3c be 94 09 d2 bd
       -0.18038292 -0.16613191 -0.184333 -0.10255733
000090 7c aa 8e be 29 b6 23 be d3 18 22 3e 0e c0 8d 3d
       -0.27864444 -0.15987457 0.15829782 0.06921397
0000a0 1e ed 8b 3d df a1 02 3e ca 33 bb be b3 c8 8a bc
       0.06832336 0.12757061 -0.3656295 -0.016941404
0000b0 a8 c2 a1 be ff f4 ff bd 64 60 19 bd 00 98 5b b9
       -0.31593823 -0.12497901 -0.03744544 -0.00020942092
0000c0 01 92 7c be ba 6f 5a be 2b a3 84 bd 19 22 57 be
       -0.24665071 -0.21331683 -0.06476434 -0.21009101
0000d0 7c 6e a0 be 9a a0 ab be f8 97 92 bc d1 30 aa be
       -0.31334293 -0.33520967 -0.01789473 -0.3324037
0000e0 f9 76 9c bd a5 a3 40 be 5c 6a de be d5 71 1e bd
       -0.0763988 -0.18812425 -0.4344052 -0.038682777
0000f0 e9 10 96 bd 0f f7 89 be 75 b7 1b be 60 e8 a1 be
       -0.07327444 -0.26946303 -0.15206702 -0.316226
000100 26 9b 81 be a8 d3 5c bd 8e 13 db bc 06 bc 85 3d
       -0.2531368 -0.05391279 -0.026742723 0.06530003
000110 61 d5 b5 3b fa 47 69 bd 9f 2f a6 bd a2 8e 84 be
       0.0055491184 -0.056953408 -0.08114552 -0.2589007
000120 1e 47 8d be 24 59 c2 bd 53 07 7d bd 5a 7b c9 bd
       -0.2759332 -0.094896585 -0.061774563 -0.098379806
000130 02 18 e6 bd 1e ad 5a be 58 bc 98 be 75 f8 22 be
       -0.11235048 -0.21355101 -0.29831195 -0.15915091
000140 bc 26 79 be 1d cd 53 be 16 72 43 be 74 ba 2c be
       -0.24331182 -0.20683713 -0.19086489 -0.16868001
000150 22 ae b7 bd e7 7a 55 be d3 3d 59 be 2b cd 0f 3e
       -0.0896876 -0.20847665 -0.2121499 0.14043109
000160 8a b1 3d be 45 f4 d6 bd 8b fd ea bc 00 ef 30 be
       -0.18524757 -0.104958095 -0.028685352 -0.17278671
000170 19 0b 0e 3d d1 e3 5d be 48 1f f4 bd 58 cd 54 be
       0.034678552 -0.21668936 -0.11920029 -0.20781457
000180 94 e4 9c 3e a0 0c 50 be 16 6c 0f be 58 5f bf bd
       0.3064314 -0.20317316 -0.14006075 -0.09344357
000190 87 55 c4 bd fe d0 56 be e5 0e ba bd 64 dd d0 be
       -0.095866255 -0.20978162 -0.09084872 -0.40793908
0001a0 1e 20 c0 be 2a cb 73 be 85 49 0f be cd 9f e4 bd
       -0.37524503 -0.2380797 -0.13992889 -0.11163292
0001b0 22 34 44 be bc 49 51 be 24 01 8b be 1d 8a ef bd
       -0.19160512 -0.20438284 -0.27149308 -0.11696265
0001c0 22 17 7a bd c9 dd f0 bd 85 86 b9 be 8d 41 16 be
       -0.061057217 -0.11761052 -0.36235443 -0.14673443
0001d0 3c 89 23 be 20 05 e5 bd 78 b9 63 be e5 b8 b8 be
       -0.1597032 -0.11182618 -0.2223872 -0.36078563
0001e0 8e 1d a5 be f0 88 0a bb db 1e 5b be e6 df ee bd
       -0.3224911 -0.002113875 -0.21398489 -0.11663799
0001f0 c2 83 84 3d 86 1b 9e 3d 3e 9e b0 be 74 d3 bd bd
       0.06470443 0.077200934 -0.3449573 -0.09268847
000200 58 94 4a be bb 74 8a 3c 26 e4 8f be 28 73 fe bc
       -0.19783151 0.016901365 -0.2810375 -0.03106077
000210 04 8d 2f be 6f b2 ba be 22 f0 ae bd 77 b4 65 be
       -0.17143637 -0.3646426 -0.085418954 -0.22432123
000220 f5 5d 17 be 32 4e 27 be a4 ce c1 be 05 00 44 be
       -0.14781936 -0.16338423 -0.37852967 -0.19140632
000230 95 0b 5d be 7d ba 12 bd de fe 99 be 95 ba 06 be
       -0.2158645 -0.03582238 -0.3007726 -0.13157113
000240 35 8c 93 be 90 6f bf be 12 43 b2 be 20 36 4c be
       -0.28817907 -0.37389803 -0.34816796 -0.19942522
000250 55 43 a5 3e c4 ba f2 bd 4c fe d0 bb 9d b0 47 be
       0.32277933 -0.11852029 -0.006377971 -0.19500966
000260 22 73 a0 be d1 e9 a7 be 67 7f 32 bd da 94 56 3d
       -0.3133784 -0.32795575 -0.04357853 0.05238805
000270 c0 97 83 3d f8 df 26 3e 18 dc 0f be 15 bb d4 bd
       0.064254284 0.16296375 -0.14048803 -0.103872456
000280 8a 6e cc be a9 6a f8 bd a7 c1 18 be 15 e6 00 be
       -0.39928085 -0.12129719 -0.14917623 -0.1258777
000290 31 00 00 bf 3b c5 1c be 9b 2c 01 bf c0 cd c9 bd
       -0.5000029 -0.15309612 -0.5045869 -0.09853697
0002a0 d8 f3 c0 bd 75 7f dc bd 8a 11 00 be 74 12 cb bc
       -0.094215095 -0.10766498 -0.1250669 -0.024789073
0002b0 bd 61 2a bd 21 e0 b4 be 55 06 66 be a7 21 9a be
       -0.041597117 -0.35327247 -0.22463353 -0.301038
0002c0 52 e8 11 be ce 72 37 3e d5 87 04 3c 3b 20 3b be
       -0.1424878 0.17914888 0.0080890255 -0.18274014
0002d0 e8 39 a8 be 3d b4 91 be 97 5c ac be 29 44 75 be
       -0.3285668 -0.28457823 -0.3366439 -0.23951782
0002e0 c9 aa 8f be df c8 9b be 4f 3e ac be 99 ab 40 be
       -0.28059986 -0.3042669 -0.33641288 -0.1881546
0002f0 c3 48 49 be 75 99 72 be 6c 19 85 be 50 eb 64 be
       -0.19656663 -0.23691352 -0.25995958 -0.2235539
000300 8f 28 af be 80 80 94 be ba cf 19 be dd 90 1a be
       -0.3421063 -0.29004288 -0.15020648 -0.15094323
000310 00 29 c3 3d 05 7f 3f be b1 fd e9 bd 99 33 4e be
       0.095293045 -0.18700798 -0.11425341 -0.2013687
000320 a2 1b 54 bd 23 e0 a1 bd cf 00 62 3d 14 30 37 be
       -0.051784165 -0.07904079 0.055176552 -0.17889434
000330 99 3c 1e 3e 39 e3 59 be db de 5c bb e5 45 4f be
       0.15452804 -0.21278085 -0.0033702168 -0.20241506
000340 2c 4d d2 be 4f ad 06 bd b1 fe 3e bd a2 bf 6d 3d
       -0.41074502 -0.032880124 -0.04662961 0.058044083
000350 ef 5d da bd c0 84 fe 3d bf bc f8 bd c4 16 ad 3d
       -0.10662448 0.12427664 -0.121453755 0.08451608
000360 f6 44 56 be 7c 6d 04 be ab 3d 0c be 7e bd 95 bc
       -0.20924744 -0.1293239 -0.136954 -0.018278833
000370 5c 6f 51 bd ed 4f c0 be 79 a7 a4 be 6f 4a 46 be
       -0.05113159 -0.3756098 -0.32159021 -0.19364332
000380 54 30 b5 be 92 f6 02 be a5 50 6b be 44 4b 5d be
       -0.35388434 -0.12789372 -0.22979982 -0.21610743
000390 61 40 be bd 70 c8 58 be 42 4b 10 be 80 14 a8 bc
       -0.09289623 -0.21170211 -0.14091209 -0.020517588
0003a0 10 9c c7 3d 2b 12 39 be b1 6c a5 bd 6b b8 a8 bb
       0.097465634 -0.18073337 -0.08077372 -0.0051489375
0003b0 8f af 28 be ed da 59 bd a5 f2 78 be a1 28 b7 be
       -0.1647322 -0.0531873 -0.24311312 -0.35773185
0003c0 43 88 0f be 2c 81 88 be a8 43 24 be 67 f1 1e bd
       -0.14016823 -0.2666105 -0.16041434 -0.038804438
0003d0 2a 76 1c bd 39 f5 fb bd 71 09 6a be 41 58 9e be
       -0.038198628 -0.12302632 -0.22855164 -0.30926707
0003e0 c4 a3 85 bd 78 7e 82 bd 67 75 99 be 89 c1 06 be
       -0.065253764 -0.06371778 -0.29972383 -0.13159765
0003f0 b9 79 ac bd c7 53 87 be 9f 79 74 bd b9 3c 53 be
       -0.08421654 -0.26431105 -0.0596863 -0.20628633

affine1.bias f4 [128]
000000 3b 90 8e bd 6f 62 4b be bf e9 89 bd f1 26 9e be
       -0.069611035 -0.19861768 -0.06734037 -0.30889085
000010 5e 6b 95 bd e3 54 ac be 83 3a d4 bb 1d ad 25 be
       -0.07295869 -0.33658513 -0.0064767017 -0.16179319
000020 66 b9 32 be cb 62 6a be df 6b 7b be 4a d8 95 be
       -0.17453536 -0.22889249 -0.24552868 -0.29266578
000030 a5 dd bd be 38 ed cd be 9f e8 9c be fc 94 6a be
       -0.37083164 -0.40220046 -0.30646226 -0.22908396
000040 bb 4d 94 be 4a 44 02 be 10 e8 8d be f7 5d 6b be
       -0.28965554 -0.12721363 -0.27716112 -0.22985063
000050 ef fd ab be 1a 21 19 bb 60 a6 6b be e4 bb 56 be
       -0.33592173 -0.0023365677 -0.23012686 -0.20970112
000060 56 82 58 3e 1a 07 85 bc b0 e4 51 be eb ca 37 be
       0.21143469 -0.016238738 -0.20497394 -0.17948501
000070 a9 4d 82 be 5f 9f e3 bd 95 2d 1b 3f a8 dd a1 be
       -0.25449875 -0.11114382 0.6061643 -0.31614423
000080 87 b7 9f be 4c 12 94 be 04 4f 7c be 9e db 34 be
       -0.31194708 -0.2892021 -0.24639517 -0.17661902
000090 7e 76 bd bd 37 bb 18 be ee 0b 8c be 28 86 d2 bd
       -0.09251116 -0.14915167 -0.27352852 -0.102794945
0000a0 23 2e a3 be d0 19 a8 3e 60 b4 53 3f 55 fb 6a bd
       -0.31871137 0.32832193 0.82697105 -0.057368595
0000b0 94 50 13 bd 8e fd ad be 3b 8d ba bc 6e 92 fd bc
       -0.035965517 -0.3398251 -0.022772422 -0.030953612
0000c0 db 82 ba bd 26 b7 a9 be 97 63 aa be b1 f6 90 bd
       -0.0910699 -0.33147544 -0.33279106 -0.07078303
0000d0 cf bf ec bd 18 0b 8c be a2 a6 b9 bd 19 b3 cc be
       -0.11560022 -0.27352214 -0.09064986 -0.3998039
0000e0 6a 9b 19 be eb ff 81 be 09 76 01 be 52 9c d9 bd
       -0.15000692 -0.25390562 -0.12642683 -0.10625519
0000f0 ea 8b 9c be b2 99 3e bd ba 5c cb bd ba dc a1 be
       -0.30575496 -0.046533294 -0.099297956 -0.31613714
000100 aa d3 30 be f7 10 df be e1 da 7f bc 6c 7f cf bc
       -0.17268243 -0.4356763 -0.01561615 -0.025329314
000110 8f b5 5f be 60 59 7a bd 85 38 52 be 8a 36 1e bd
       -0.21846603 -0.06112039 -0.20529373 -0.03862623
000120 2d 9b d6 3e b3 df f6 bd fe 73 85 be 63 4c 0e be
       0.41915265 -0.12054386 -0.26065058 -0.13896327
000130 f9 20 07 3f f9 3f d0 bd 17 84 f8 bd 52 77 ac be
       0.5278469 -0.10168452 -0.12134569 -0.33684784
000140 69 84 bb bd 64 a1 3c bd 9d b2 77 be ef b6 19 3c
       -0.091561146 -0.04605235 -0.2418923 0.009381994
000150 37 22 9d be 58 5f 95 bd cc d3 b9 bd 6d c0 a3 be
       -0.30690166 -0.07293576 -0.090736 -0.31982747
000160 c5 fb 42 be eb 26 e5 be c6 04 1a 3e f0 41 e3 be
       -0.19041355 -0.44756255 0.15040883 -0.44386244
000170 77 75 5a 3c d4 18 96 be be be 1e be 24 a4 b9 bd
       0.01333367 -0.29315817 -0.1550245 -0.090645105
000180 ed 4d c0 be ae b0 1d be 67 d8 b5 bd 25 bd 55 be
       -0.37559453 -0.15399429 -0.08879166 -0.20872934
000190 3d 4e b5 bd c1 81 7d bd 08 7d 9f be 54 62 f0 be
       -0.088528134 -0.06189132 -0.3115008 -0.46950018
0001a0 58 4e d0 bd 95 3a 3c be 47 47 0b be bc e0 7f be
       -0.10171193 -0.18381722 -0.13601409 -0.24988073
0001b0 e4 f3 8a be 7d d6 8c be d5 23 7f be cf f3 c4 bd
       -0.271392 -0.27507392 -0.24916013 -0.09616815
0001c0 a9 05 d0 be 9b 31 7f be 67 a0 2c be aa 3a 32 be
       -0.40629318 -0.24921267 -0.16858064 -0.17405191
0001d0 a0 8f 64 be 4e 1f 42 be 38 12 c9 be e4 bd 98 bd
       -0.22320414 -0.18957254 -0.39271712 -0.07458094
0001e0 be 03 70 3e b3 7d f6 bd 99 36 ca be d6 35 8c be
       0.23438928 -0.12035694 -0.3949478 -0.27384824
0001f0 07 1a 0b be 8c a0 2b be 68 c9 df bd 44 61 50 be
       -0.13584147 -0.16760463 -0.10927087 -0.20349604

action_head.weight f4 [7, 128]
000000 a4 9b 40 bd 99 f8 1d be fe b8 61 be 42 7f 1e be
       -0.04702343 -0.15426864 -0.22043225 -0.15478233
000010 13 44 86 be 93 e3 37 be 57 bd 2a be d9 0c bf be
       -0.26223812 -0.17957906 -0.1667379 -0.3731449
000020 ba 6f c4 3d a4 ec 70 be 1a 4c 82 be 95 5d a1 be
       0.09591623 -0.23527771 -0.25448686 -0.3151671
000030 6e c7 6a be 6d 36 3d be 1b 2c 10 be df d1 3a be
       -0.22927639 -0.18477793 -0.14079325 -0.18244122
000040 43 cb 63 be 44 65 10 be ff a6 7e 3d f5 bc 0e 3e
       -0.22245507 -0.1410113 0.06217098 0.13939269
000050 a5 42 0b be 8d 92 38 bf 68 51 11 3f 90 49 1f 3c
       -0.13599642 -0.7209862 0.5676484 0.0097221285
000060 e9 55 a5 3f 40 ee 1a 3e e6 fa 60 3e d0 72 6c be
       1.2916843 0.15129948 0.2197071 -0.23090672
000070 7b d2 11 be e4 ba 41 3f 55 49 b0 bf 3e 69 65 be
       -0.14240448 0.756758 -1.3772379 -0.22403428
000080 44 2b 79 be ee 2c fa 3d d3 d1 61 3e 19 27 03 3e
       -0.24332911 0.12215601 0.22052698 0.12807883
000090 51 ed 38 be be ed 9c bd 04 88 e9 be 0e 4b 1e be
       -0.18059279 -0.07662533 -0.45611584 -0.15458319
0000a0 1b b2 f9 3d 08 fa 91 3f f1 d8 ac 3f a3 2a ab be
       0.12192174 1.1404428 1.3503705 -0.33430967
0000b0 8c b2 4c be f8 e9 0c be 8f 9f 0b be 82 80 cf bd
       -0.19989985 -0.13761127 -0.13635086 -0.10131933
0000c0 4f 61 9d be 15 a3 d0 bd bf 2f 2e 3e 49 85 d0 bd
       -0.30738303 -0.101873554 0.17010401 -0.10181672
0000d0 9c 1d 07 be ee 77 07 be ef f0 72 be 74 ea be 3c
       -0.13194889 -0.13229343 -0.23724721 0.023305155
0000e0 15 dc 2d be 13 64 87 3e 78 6a 1b be d1 cb 22 3e
       -0.16978486 0.26443538 -0.15177333 0.15898062
0000f0 79 8e cf 3e 67 dc 38 be 49 98 5b 3e 4e 02 26 be
       0.40538386 -0.18052827 0.21444811 -0.16211817
000100 b2 4b 9c be 8a 51 75 be a9 74 d7 bd 28 32 f4 bd
       -0.305265 -0.23956886 -0.10520298 -0.11923629
000110 f2 57 47 bd 7f 1e 50 be b1 9f 5e be 13 a7 c7 bd
       -0.048667856 -0.20324133 -0.21740605 -0.09748664
000120 07 48 a6 3f d5 36 5b be 9b cf ca 3d 58 ae 9c bd
       1.2990731 -0.21407636 0.09902879 -0.07650441
000130 69 6c b8 3f ff d3 37 be 90 a8 59 be a7 e9 2f 3e
       1.4408084 -0.17951964 -0.21255708 0.17178975
000140 c5 d2 76 3e 6c 85 2f be ca 59 95 be a0 cc 6d be
       0.2410384 -0.1714074 -0.29170066 -0.2322259
000150 57 32 51 be 2b ab 79 be 52 e1 2b 3f 7f 33 33 be
       -0.2042936 -0.24381702 0.67140687 -0.17500113
000160 d5 1d cb bd f7 05 3c 3e bf e8 b3 3e 9d 12 6b be
       -0.099177994 0.1836165 0.3513851 -0.22956319
000170 6c 6d 74 be bb 21 26 be a0 18 8f be b4 31 6e bd
       -0.23869866 -0.16223805 -0.27948475 -0.05815287
000180 aa c5 45 be 7c 3e 37 3e ad 57 a4 bd f5 a2 bc bd
       -0.19313684 0.1789493 -0.08024535 -0.09210769
000190 ba 9a 74 be c1 64 01 bd 64 89 57 be 20 f9 0d be
       -0.23887148 -0.031590227 -0.21048504 -0.13864565
0001a0 46 35 75 be f0 e4 05 be 24 ab 6a be aa 84 0b be
       -0.23946103 -0.13075614 -0.22916847 -0.13624826
0001b0 09 ba 49 3e d1 ca 59 be f6 95 34 3d 23 0f 0f be
       0.19699873 -0.21268775 0.044088326 -0.13970618
0001c0 b0 97 7b be 9f 78 33 be b5 22 1c 3f fc fe 49 3e
       -0.24569583 -0.17526482 0.6099046 0.19726175
0001d0 8a 0d 58 be 8f 4d 45 be ac 7b 3e be 3a 4b 44 3e
       -0.21098915 -0.19267868 -0.18601865 0.19169322
0001e0 e6 f7 5f 3f 14 ef f7 3c 9c e3 30 be 39 73 b5 bd
       0.8748764 0.030265369 -0.17274326 -0.088598676
0001f0 37 87 eb bd ba a8 e9 3d 6f 36 36 3e fb 56 ea bd
       -0.115003996 0.11409135 0.17794202 -0.114423715
000200 78 66 86 be 4a bc d8 3d 1c 25 2e bd 5a 3d 0f bd
       -0.26250052 0.10582788 -0.04251586 -0.03497062
000210 79 6a 47 be 89 db 0b 3e 1c a9 27 3e 9a c7 21 3e
       -0.1947421 0.13657965 0.16373104 0.15798798
000220 63 be 31 3e 3d 8e 37 3e a7 fe f0 bd 39 2e e2 3c
       0.17357783 0.17925353 -0.11767321 0.027609931
000230 6f 28 21 be 8f 26 57 be 61 32 1d 3e 26 3c a1 3d
       -0.1573808 -0.21010803 0.1535125 0.078728005
000240 57 14 f9 bd ce 72 e2 3d 75 e4 31 be 7f 40 f2 3d
       -0.12162083 0.110570535 -0.17372306 0.11828708
000250 ea f2 34 be 00 cb 96 bc 0f ea 2e 3e 9a d5 ff 3d
       -0.1767079 -0.018407345 0.17081474 0.12491913
000260 de d9 17 be 7a 93 0a 3d a2 d1 9f be 6a 88 20 3e
       -0.14829203 0.03383205 -0.31214625 0.15677038
000270 fa 01 40 3e 06 e7 d8 3e 8e 77 45 be 6b 40 74 be
       0.18750754 0.42363757 -0.19283888 -0.23852699
000280 20 c7 17 3e e8 7c 7d 3d 47 16 d1 3d 71 5f 50 3e
       0.14822054 0.061886698 0.10209327 0.20348908
000290 1c 67 d0 bd 8f 6c 29 be 9e 37 75 3e 9c 9d 2b 3e
       -0.101759166 -0.16545318 0.23946998 0.16759342
0002a0 1b 2f 35 3e 10 78 e4 bc 1f 8c 1d bf ab a5 4d bd
       0.1769375 -0.027889282 -0.6154193 -0.05020682
0002b0 76 78 2d be 72 50 cf 3d 23 1c 39 3e ec a5 19 3d
       -0.16940483 0.101227656 0.1807714 0.03751175
0002c0 35 ec 04 be fd b6 88 be b2 a2 c5 3d e3 d0 7d 3d
       -0.12980731 -0.2670211 0.09650172 0.061966788
0002d0 0c 32 10 3e 8c e8 7c 3e bf 78 2c 3e 5d 01 94 3e
       0.14081591 0.24698085 0.16842936 0.2890729
0002e0 6b a0 6b be 9a ba 0d 3e d0 81 d3 bd ec 9d 62 3e
       -0.23010413 0.13840714 -0.10327494 0.22130555
0002f0 e1 1e cf bd 17 ca be 3e 1a aa c7 3d ca 18 0a 3e
       -0.101133116 0.37263557 0.09749241 0.13486019
000300 15 73 14 be 6f dc 3a 3d f1 55 0c be b8 69 c1 3c
       -0.14497025 0.045620378 -0.13704659 0.023609981
000310 14 ce 05 be cb db f7 3d d2 a6 6f 3e 98 1c a8 bd
       -0.13066894 0.12102469 0.2340348 -0.08208579
000320 3a 5c 12 be f9 96 81 be 0f 50 86 bd c2 c0 eb 3e
       -0.14292994 -0.25310495 -0.06558239 0.460455
000330 fa a4 61 be 77 3a 10 bd 39 21 49 be 65 ab 24 be
       -0.2203559 -0.035212006 -0.1964158 -0.16081007
000340 b0 54 1b 3e 30 6a 72 bd fb 4a bd bc b6 16 3a be
       0.15169024 -0.0591833 -0.023107043 -0.18172726
000350 5c e8 97 bd a8 48 9e bc 5c 84 a4 3e de 20 41 bd
       -0.07417366 -0.019321755 0.32132232 -0.047150485
000360 d6 05 09 3d fe b9 3c 3e a4 cc 07 40 9d b3 0d 3e
       0.03345283 0.18430325 2.1218653 0.13838048
000370 ae 22 1e 3e 12 88 1b be 7b 0a 89 3d 37 6e eb bd
       0.15442917 -0.15188625 0.06691452 -0.11495631
000380 7a 6a a5 3e 2b 73 cc bd 2e f3 ec bd 6c 69 9d 3d
       0.32307798 -0.09982904 -0.1156982 0.07686123
000390 a4 1f ec 3d 85 9f 57 3e 88 97 88 bd 7c 39 24 be
       0.115294725 0.21056946 -0.06669527 -0.16037554
0003a0 fa c4 ef 3d f2 3a 86 be 75 88 c0 3d 15 f5 e5 3c
       0.11707492 -0.26216847 0.09401027 0.028070966
0003b0 ac 56 0f be 06 1a 04 be da 40 0a 3d 7e 99 65 be
       -0.13997906 -0.12900552 0.033753254 -0.22421834
0003c0 93 7a ce bd 26 df bb be 58 08 07 3f 88 a9 6b be
       -0.10081973 -0.36693686 0.52747107 -0.2301389
0003d0 84 c6 2c bd 01 7f dc 3d e8 fa 98 bd a8 41 5c 3e
       -0.042181507 0.107664116 -0.074697316 0.21509421
0003e0 3d 87 87 3f 39 53 48 3d 5c 3c 61 3e 18 e0 80 3e
       1.0588146 0.048907492 0.21995682 0.2517097
0003f0 86 b4 2e be 62 31 33 3e c8 fc 09 3e 9a 12 06 3e
       -0.17061052 0.17499307 0.13475335 0.13093033

action_head.bias f4 [7]
000000 ca a4 82 bf f1 dd 3b be f0 b6 2c be b4 62 ed 3c
       -1.020654 -0.18346383 -0.1686666 0.02897773
000010 c9 fe d4 3f 9a 6a 60 be 99 a1 3d bf
       1.6640254 -0.21915665 -0.74074703

value_head.weight f4 [1, 128]
000000 2d 08 10 3e e3 dc 22 3e e1 97 11 be d2 2c e8 bd
       0.14065619 0.15904574 -0.14218093 -0.11336674
000010 00 8e 2b be 61 d0 76 bc 4c e6 e3 3d 58 77 41 bb
       -0.16753387 -0.01506433 0.1112791 -0.0029520597
000020 7b 3a 13 3e 81 5b 26 3e 21 2c 19 be f1 3f 36 be
       0.14377777 0.16245843 -0.1495824 -0.17797829
000030 e2 1f 1a be 6f d5 0b be d6 95 2d 3e 52 e4 7e bd
       -0.15051225 -0.13655637 0.16951689 -0.062229462
000040 dd 9f f4 bd fd 8b dc 3d 1c 9a ab bc 42 d2 1c 3e
       -0.11944554 0.10768888 -0.020947509 0.15314582
000050 83 22 b8 bd b8 27 46 3b c0 1a 24 be 18 42 29 3e
       -0.089909576 0.0030236077 -0.1602583 0.16529119
000060 f0 e7 52 3b a7 2c b2 be 91 0e 04 3e dc f5 01 be
       0.0032181703 -0.34799692 0.12896182 -0.12691444
000070 a1 8e fb 3d 4f 31 c5 bd f7 7c 8d 3c 81 b7 1d bd
       0.12283064 -0.096285455 0.017271502 -0.03850508
000080 6d 8f 1a 3e 3a 2d 2e bd 1b b7 39 3e 27 dc 0c 3e
       0.15093775 -0.0425236 0.18136255 0.13755856
000090 c7 05 2e be e7 90 ef bd e0 c4 04 bd 9b 67 f7 3d
       -0.16994391 -0.1169756 -0.032414317 0.12080308
0000a0 91 8e 09 be 1e b5 86 3c 55 19 0d be 81 41 f9 3d
       -0.13433291 0.016443785 -0.13779195 0.12170697
0000b0 c6 4d f1 bd 6a 2c 39 3e 99 0a 0d 3e a9 4a c3 3d
       -0.11782412 0.18083349 0.13773574 0.09535725
0000c0 a6 80 30 be 17 e7 b1 bd 5f 6f 0d 3e 71 0e 3b 3e
       -0.17236575 -0.08686655 0.13812016 0.18267228
0000d0 11 c3 33 3e 29 4c f0 3d d1 3b c8 3d 3c 13 9e bc
       0.1755488 0.117332764 0.09777034 -0.019296281
0000e0 61 73 82 bd 38 3a 5c 3e 58 7c 0c be 61 36 05 3e
       -0.06369663 0.21506584 -0.13719308 0.13009025
0000f0 d5 23 16 be 8a 46 12 be 9e 0b bd 3d 7a 78 1c 3e
       -0.14662106 -0.14284721 0.092307314 0.15280333
000100 5d 15 ce bd 13 26 eb 3e a2 96 2d be 0f ce 14 be
       -0.100626685 0.45927486 -0.16951993 -0.1453173
000110 ee c0 04 be 4d 1a e6 3d 21 d7 c2 3d f1 e4 16 be
       -0.12964222 0.11235485 0.09513689 -0.14735772
000120 b5 b5 be 3c 2b d1 11 be 82 c7 dd bd de d4 bb 3d
       0.023280004 -0.14239947 -0.10829069 0.091714606
000130 44 d7 a6 bc 07 d5 31 be f6 3d 93 3b 00 43 10 3e
       -0.020366319 -0.1736642 0.0044934703 0.14088058
000140 84 5c fe 3d 9a 86 e3 3d 8f f6 9a bc 2b 10 d4 bd
       0.1241999 0.111096576 -0.018916396 -0.10354646
000150 96 30 3b be 37 10 03 be e6 8b de bd 49 e3 2b be
       -0.18280253 -0.12799154 -0.10866527 -0.16785921
000160 d6 79 cc 3a 83 c9 c6 3d 98 3d 78 bd f0 f3 25 3e
       0.0015600275 0.09706404 -0.060605615 0.16206336
000170 26 7e 04 3e 23 cb 32 be e1 17 fd bd 86 ba d0 bd
       0.12938747 -0.17460303 -0.1235807 -0.101918265
000180 26 0d 28 be fd 09 e1 3c ee b7 3c be c5 47 04 3e
       -0.16411266 0.027470583 -0.18429539 0.12918003
000190 fa 98 d8 3d 6a 24 da 3d 96 39 11 be 6f 24 09 bd
       0.10576053 0.10651477 -0.14182124 -0.03348201
0001a0 93 0d 21 3e 9f ef 08 be 8a fa e5 bd 47 03 d7 bd
       0.15727834 -0.13372658 -0.11229427 -0.10498672
0001b0 d2 bb 07 be 73 1e af bd cd 5c b4 bd 82 67 ff bc
       -0.13255242 -0.085507296 -0.08806763 -0.031177286
0001c0 1f 03 8e bc a7 98 3d 3e 53 b8 df bc 43 ec c5 3d
       -0.017335473 0.18515263 -0.027309572 0.09664204
0001d0 5c 0f fb bd 3c 98 3b 3e d0 26 3c 3e 1a ef e5 3d
       -0.12258789 0.18319792 0.18374181 0.11227246
0001e0 d5 05 e1 be 6b 15 58 bd 77 9d 05 3e 3c bc a7 bd
       -0.43949762 -0.0527548 0.1304835 -0.081902
0001f0 b2 a5 04 be 69 b2 fa 3d ca 55 7e 3c 74 fc 1f 3e
       -0.12953833 0.1224106 0.015523383 0.15623647
