Backup/Video_Streaming_A2C_40m/models_650000.pth (torch, 21255 bytes, 5 tensors)

affine1.weight f4 [128, 28]
0	0x3d1cd155	0.038285572
1	0xbe24e5d7	-0.16103302
2	0xbe9007a2	-0.28130823
3	0xbea0dfe4	-0.31420815
4	0xbe90a526	-0.28250998
5	0xbe9d78ab	-0.30756125
6	0xbe8cdfa7	-0.27514383
7	0xbe0d8980	-0.13821983
8	0x3e05a944	0.13052851
9	0x3e91c8cc	0.28473508
10	0xbe4eb71c	-0.20187038
11	0xbd25f503	-0.040516865
12	0xbedb0722	-0.4277888
13	0xbe4fad5f	-0.2028098
14	0xbdd57542	-0.10422756
15	0xbdd6a1e2	-0.104800954
16	0xbddb3722	-0.10703875
17	0xbe7838fb	-0.24240486
18	0xbdb65983	-0.08903792
19	0xbe4620a7	-0.19348393
20	0xbe0ca26a	-0.13733831
21	0xbe89c79e	-0.26910108
22	0x3d3083ba	0.043094374
23	0xbbe13633	-0.006872916
24	0x3c18cefc	0.009326693
25	0x3d934793	0.07191386
26	0xbe27a2c0	-0.16370678
27	0xbc10ed45	-0.008845632
28	0xbe9798d9	-0.296088
29	0xbe9cb920	-0.3060999
30	0xbc611a33	-0.013739157
31	0xbe6a767f	-0.22896765
32	0xbe38b64d	-0.18038292
33	0xbe2a1e7c	-0.16613191
34	0xbe3cc1ca	-0.184333
35	0xbdd20994	-0.10255733
36	0xbe8eaa7c	-0.27864444
37	0xbe23b629	-0.15987457
38	0x3e2218d3	0.15829782
39	0x3d8dc00e	0.06921397
40	0x3d8bed1e	0.06832336
41	0x3e02a1df	0.12757061
42	0xbebb33ca	-0.3656295
43	0xbc8ac8b3	-0.016941404
44	0xbea1c2a8	-0.31593823
45	0xbdfff4ff	-0.12497901
46	0xbd196064	-0.03744544
47	0xb95b9800	-0.00020942092
48	0xbe7c9201	-0.24665071
49	0xbe5a6fba	-0.21331683
50	0xbd84a32b	-0.06476434
51	0xbe572219	-0.21009101
52	0xbea06e7c	-0.31334293
53	0xbeaba09a	-0.33520967
54	0xbc9297f8	-0.01789473
55	0xbeaa30d1	-0.3324037
56	0xbd9c76f9	-0.0763988
57	0xbe40a3a5	-0.18812425
58	0xbede6a5c	-0.4344052
59	0xbd1e71d5	-0.038682777
60	0xbd9610e9	-0.07327444
61	0xbe89f70f	-0.26946303
62	0xbe1bb775	-0.15206702
63	0xbea1e860	-0.316226
64	0xbe819b26	-0.2531368
65	0xbd5cd3a8	-0.05391279
66	0xbcdb138e	-0.026742723
67	0x3d85bc06	0.06530003
68	0x3bb5d561	0.0055491184
69	0xbd6947fa	-0.056953408
70	0xbda62f9f	-0.08114552
71	0xbe848ea2	-0.2589007
72	0xbe8d471e	-0.2759332
73	0xbdc25924	-0.094896585
74	0xbd7d0753	-0.061774563
75	0xbdc97b5a	-0.098379806
76	0xbde61802	-0.11235048
77	0xbe5aad1e	-0.21355101
78	0xbe98bc58	-0.29831195
79	0xbe22f875	-0.15915091
80	0xbe7926bc	-0.24331182
81	0xbe53cd1d	-0.20683713
82	0xbe437216	-0.19086489
83	0xbe2cba74	-0.16868001
84	0xbde7f7d5	-0.11326567
85	0xbee6f199	-0.451062
86	0xbf1fbf4e	-0.6240128
87	0xbf2bfef0	-0.6718588
88	0xbe3db18a	-0.18524757
89	0xbdd6f445	-0.104958095
90	0xbceafd8b	-0.028685352
91	0xbe30ef00	-0.17278671
92	0x3d0e0b19	0.034678552
93	0xbf223d75	-0.63375026
94	0xbdf41f48	-0.11920029
95	0xbe54cd58	-0.20781457
96	0x3e9ce494	0.3064314
97	0xbe500ca0	-0.20317316
98	0xbe5a8b76	-0.21342263
99	0xbe07f02b	-0.1327521
100	0xbde996bc	-0.114057034
101	0xbe56d0fe	-0.20978162
102	0xbdba0ee5	-0.09084872
103	0xbed0dd64	-0.40793908
104	0xbf0579ed	-0.5213917
105	0xbec4ee47	-0.3846304
106	0xbe8cd8a8	-0.27509046
107	0xbe801caa	-0.2502187
108	0xbea1d225	-0.3160564
109	0xbea7d1bf	-0.3277721
110	0xbec88c1f	-0.39169404
111	0xbedf4a3f	-0.43611333
112	0xbd7a1722	-0.061057217
113	0xbdf0ddc9	-0.11761052
114	0xbeb98685	-0.36235443
115	0xbe16418d	-0.14673443
116	0xbe23893c	-0.1597032
117	0xbde50520	-0.11182618
118	0xbe63b978	-0.2223872
119	0xbeb8b8e5	-0.36078563
120	0xbea51d8e	-0.3224911
121	0xbb0a88f0	-0.002113875
122	0xbe5b1edb	-0.21398489
123	0xbdeedfe6	-0.11663799
124	0x3d8483c2	0.06470443
125	0x3d9e1b86	0.077200934
126	0xbeb09e3e	-0.3449573
127	0xbdbdd374	-0.09268847
128	0xbe4a9458	-0.19783151
129	0x3c8a74bb	0.016901365
130	0xbe8fe426	-0.2810375
131	0xbcfe7328	-0.03106077
132	0xbe2f8d04	-0.17143637
133	0xbebab26f	-0.3646426
134	0xbdaef022	-0.085418954
135	0xbe65b477	-0.22432123
136	0xbe175df5	-0.14781936
137	0xbe274e32	-0.16338423
138	0xbec1cea4	-0.37852967
139	0xbe440005	-0.19140632
140	0xbe696cf9	-0.22795476
141	0xbd11d0cb	-0.03559951
142	0xbe9a35f7	-0.30119297
143	0xbe085e84	-0.13317305
144	0xbe940fbf	-0.28918263
145	0xbec1dc03	-0.37863168
146	0xbeb9726b	-0.36220106
147	0xbe4c3620	-0.19942522
148	0x3ea54355	0.32277933
149	0xbe17cb2f	-0.14823602
150	0xbbd0fe4c	-0.006377971
151	0xbe4f0d4a	-0.20219913
152	0xbea07322	-0.3133784
153	0xbea7e9d1	-0.32795575
154	0xbda24ead	-0.079251625
155	0x3c32d205	0.01091433
156	0x3ca9bae7	0.020719005
157	0x3de12919	0.10994167
158	0xbe2713ca	-0.16316143
159	0xbdf05366	-0.11734657
160	0xbed2692b	-0.41095862
161	0xbe08db40	-0.13364887
162	0xbe22d414	-0.15901214
163	0xbe0bbb9b	-0.13645785
164	0xbf024cc3	-0.5089838
165	0xbe252a95	-0.16129525
166	0xbf0307d0	-0.51183796
167	0xbdce5fd8	-0.100768745
168	0xbdc0f3d8	-0.094215095
169	0xbddc7f75	-0.10766498
170	0xbe00118a	-0.1250669
171	0xbccb1274	-0.024789073
172	0xbd2a61bd	-0.041597117
173	0xbeb4e021	-0.35327247
174	0xbe660655	-0.22463353
175	0xbe9a21a7	-0.301038
176	0xbe11e852	-0.1424878
177	0x3e3772ce	0.17914888
178	0x3c0487d5	0.0080890255
179	0xbe3b203b	-0.18274014
180	0xbea839e8	-0.3285668
181	0xbe91b43d	-0.28457823
182	0xbeac5c97	-0.3366439
183	0xbe754429	-0.23951782
184	0xbe8faac9	-0.28059986
185	0xbe9bc8df	-0.3042669
186	0xbeac3e4f	-0.33641288
187	0xbe40ab99	-0.1881546
188	0xbe4948c3	-0.19656663
189	0xbe729975	-0.23691352
190	0xbe85196c	-0.25995958
191	0xbe64eb50	-0.2235539
192	0xbeaf288f	-0.3421063
193	0xbe948080	-0.29004288
194	0xbe19cfba	-0.15020648
195	0xbe1a90dd	-0.15094323
196	0x3c095985	0.0083831595
197	0xbe4fe9ba	-0.20304003
198	0xbe03f41c	-0.12886089
199	0xbe5f26d8	-0.21792161
200	0xbd86fa7e	-0.06590746
201	0xbdc6fe2b	-0.097164474
202	0x3bc69fa0	0.0060615093
203	0xbe373014	-0.17889434
204	0x3e16e5b9	0.1473607
205	0xbe59d800	-0.21273804
206	0xbe02c52d	-0.12770529
207	0xbe75213b	-0.23938458
208	0xbed24d2c	-0.41074502
209	0xbd06ad4f	-0.032880124
210	0xbd987204	-0.07443622
211	0xbcf48606	-0.029849064
212	0xbe27742b	-0.16352908
213	0xbd01890c	-0.03162484
214	0xbe5605e3	-0.20900683
215	0xbda3879c	-0.0798485
216	0xbe8411d8	-0.25794864
217	0xbe3c7bae	-0.18406555
218	0xbe389aae	-0.18027756
219	0xbd82f425	-0.06394223
220	0xbdbd5528	-0.09244758
221	0xbed5394e	-0.41645283
222	0xbeb8c63c	-0.3608874
223	0xbe875b5b	-0.26436886
224	0xbeb53054	-0.35388434
225	0xbe02f692	-0.12789372
226	0xbe6b50a5	-0.22979982
227	0xbe5d4b44	-0.21610743
228	0xbdbe4061	-0.09289623
229	0xbe58c870	-0.21170211
230	0xbe104b42	-0.14091209
231	0xbca81480	-0.020517588
232	0x3dc79c10	0.097465634
233	0xbe39122b	-0.18073337
234	0xbda56cb1	-0.08077372
235	0xbba8b86b	-0.0051489375
236	0xbe28af8f	-0.1647322
237	0xbd59daed	-0.0531873
238	0xbe78f2a5	-0.24311312
239	0xbeb728a1	-0.35773185
240	0xbe0f8843	-0.14016823
241	0xbe88812c	-0.2666105
242	0xbe2443a8	-0.16041434
243	0xbd1ef167	-0.038804438
244	0xbd1c762a	-0.038198628
245	0xbdfbf539	-0.12302632
246	0xbe6a0971	-0.22855164
247	0xbe9e5841	-0.30926707
248	0xbd85a3c4	-0.065253764
249	0xbd827e78	-0.06371778
250	0xbe997567	-0.29972383
251	0xbe06c189	-0.13159765
252	0xbdac79b9	-0.08421654
253	0xbe8753c7	-0.26431105
254	0xbd74799f	-0.0596863
255	0xbe533cb9	-0.20628633

affine1.bias f4 [128]
0	0xbd8e903b	-0.069611035
1	0xbe4b626f	-0.19861768
2	0xbd89e9bf	-0.06734037
3	0xbee7b4e3	-0.45255193
4	0xbd956b5e	-0.07295869
5	0xbeb19f23	-0.34691724
6	0xbbd43a83	-0.0064767017
7	0xbe66af20	-0.22527742
8	0xbe32b966	-0.17453536
9	0xbe6a62cb	-0.22889249
10	0xbe7b6bdf	-0.24552868
11	0xbe95d84a	-0.29266578
12	0xbebddda5	-0.37083164
13	0xbecded38	-0.40220046
14	0xbe9ce89f	-0.30646226
15	0xbe6a94fc	-0.22908396
16	0xbe944dbb	-0.28965554
17	0xbe02444a	-0.12721363
18	0xbe8de810	-0.27716112
19	0xbe6b5df7	-0.22985063
20	0xbeabfdef	-0.33592173
21	0xbe434760	-0.19070196
22	0xbe6ba660	-0.23012686
23	0xbe56bbe4	-0.20970112
24	0xbf3c9003	-0.73657244
25	0xbf3267d1	-0.6968966
26	0xbe51e4b0	-0.20497394
27	0xbe37caeb	-0.17948501
28	0xbe824da9	-0.25449875
29	0xbde39f5f	-0.11114382
30	0xbd2e46f6	-0.042548142
31	0xbea1dda8	-0.31614423
32	0xbe9fb787	-0.31194708
33	0xbe94124c	-0.2892021
34	0xbe7c4f04	-0.24639517
35	0xbe34db9e	-0.17661902
36	0xbdbd767e	-0.09251116
37	0xbe1fed0c	-0.1561777
38	0xbe8c0bee	-0.27352852
39	0xbdd28628	-0.102794945
40	0xbea32e23	-0.31871137
41	0xbe4d0277	-0.20020472
42	0x3fdd5797	1.7292355
43	0xbd6afb55	-0.057368595
44	0xbd135094	-0.035965517
45	0xbeadfd8e	-0.3398251
46	0xbcba8d3b	-0.022772422
47	0xbcfd926e	-0.030953612
48	0xbdba82db	-0.0910699
49	0xbea9b726	-0.33147544
50	0xbeaa6397	-0.33279106
51	0xbd90f6b1	-0.07078303
52	0xbdecbfcf	-0.11560022
53	0xbe8c0b18	-0.27352214
54	0xbdb9a6a2	-0.09064986
55	0xbeccb319	-0.3998039
56	0xbe199b6a	-0.15000692
57	0xbe81ffeb	-0.25390562
58	0xbe017609	-0.12642683
59	0xbdd99c52	-0.10625519
60	0xbf4efdb4	-0.8085587
61	0xbd3e99b2	-0.046533294
62	0xbdcb5cba	-0.099297956
63	0xbea1dcba	-0.31613714
64	0xbe30d3aa	-0.17268243
65	0xbedf10f7	-0.4356763
66	0xbc7fdae1	-0.01561615
67	0xbccf7f6c	-0.025329314
68	0xbe5fb58f	-0.21846603
69	0xbd7a5960	-0.06112039
70	0xbe523885	-0.20529373
71	0xbd1e368a	-0.03862623
72	0xbeb7243d	-0.35769835
73	0xbdf6dfb3	-0.12054386
74	0xbe8573fe	-0.26065058
75	0xbe3dd268	-0.18537295
76	0xbe7ac127	-0.24487744
77	0xbdd03ff9	-0.10168452
78	0xbe00c980	-0.12576866
79	0xbeac7752	-0.33684784
80	0xbdbb8469	-0.091561146
81	0xbd3ca164	-0.04605235
82	0xbebb6515	-0.36600557
83	0x3c19b6ef	0.009381994
84	0xbe9d2237	-0.30690166
85	0xbd955f58	-0.07293576
86	0xbdb9d3cc	-0.090736
87	0xbea3c06d	-0.31982747
88	0xbe42fbc5	-0.19041355
89	0xbee526eb	-0.44756255
90	0x3faf4651	1.3693334
91	0xbee341f0	-0.44386244
92	0x3c5a7577	0.01333367
93	0xbe9618d4	-0.29315817
94	0xbe1ebebe	-0.1550245
95	0xbdb9a424	-0.090645105
96	0xbec04ded	-0.37559453
97	0xbe233721	-0.15938999
98	0xbdb5d867	-0.08879166
99	0xbe55bd25	-0.20872934
100	0xbdb54e3d	-0.088528134
101	0xbd7d81c1	-0.06189132
102	0xbe9f7d08	-0.3115008
103	0xbef06254	-0.46950018
104	0xbdd04e58	-0.10171193
105	0xbe3c3a95	-0.18381722
106	0xbe0b4747	-0.13601409
107	0xbe7fe0bc	-0.24988073
108	0xbe8af3e4	-0.271392
109	0xbe8cd67d	-0.27507392
110	0xbe7f23d5	-0.24916013
111	0xbdc4f3cf	-0.09616815
112	0xbf7854e5	-0.9700454
113	0xbecdb3d1	-0.40176252
114	0xbe37bc52	-0.17942932
115	0xbe323aaa	-0.17405191
116	0xbe648fa0	-0.22320414
117	0xbe421f4e	-0.18957254
118	0xbec91238	-0.39271712
119	0xbd98bde4	-0.07458094
120	0x3f972e18	1.1810942
121	0xbdf67db3	-0.12035694
122	0xbeca3699	-0.3949478
123	0xbe8c35d6	-0.27384824
124	0xbe0b1a07	-0.13584147
125	0xbe2ba08c	-0.16760463
126	0xbddfc968	-0.10927087
127	0xbe506144	-0.20349604

action_head.weight f4 [7, 128]
0	0xbd409ba4	-0.04702343
1	0xbe1df899	-0.15426864
2	0xbe61b8fe	-0.22043225
3	0xbe1e88d7	-0.15481888
4	0xbe864413	-0.26223812
5	0xbe37e393	-0.17957906
6	0xbe2abd57	-0.1667379
7	0xbebf193f	-0.3732395
8	0x3dc46fba	0.09591623
9	0xbe70eca4	-0.23527771
10	0xbe824c1a	-0.25448686
11	0xbea15d95	-0.3151671
12	0xbe6ac76e	-0.22927639
13	0xbe3d366d	-0.18477793
14	0xbe102c1b	-0.14079325
15	0xbe3ad1df	-0.18244122
16	0xbe63cb43	-0.22245507
17	0xbe106544	-0.1410113
18	0x3d7ea6ff	0.06217098
19	0x3e0ebcf5	0.13939269
20	0xbe0b42a5	-0.13599642
21	0xbf381946	-0.71913564
22	0x3f115168	0.5676484
23	0x3c1f4990	0.0097221285
24	0x4007df7b	2.1230152
25	0x3f3d622f	0.7397794
26	0x3e60fae6	0.2197071
27	0xbe6c72d0	-0.23090672
28	0xbe11d27b	-0.14240448
29	0x3f41bae4	0.756758
30	0xc01d4a5f	-2.4576643
31	0xbe65693e	-0.22403428
32	0xbe792b44	-0.24332911
33	0x3dfa2cee	0.12215601
34	0x3e61d1d3	0.22052698
35	0x3e032719	0.12807883
36	0xbe38ed51	-0.18059279
37	0xbd9cedbe	-0.07662533
38	0xbee98804	-0.45611584
39	0xbe1e4b0e	-0.15458319
40	0x3df9b21b	0.12192174
41	0x3f900ee2	1.1254542
42	0x3f4d67f3	0.8023674
43	0xbeab2aa3	-0.33430967
44	0xbe4cb28c	-0.19989985
45	0xbe0ce9f8	-0.13761127
46	0xbe0b9f8f	-0.13635086
47	0xbdcf8082	-0.10131933
48	0xbe9d614f	-0.30738303
49	0xbdd0a315	-0.101873554
50	0x3e2e2fbf	0.17010401
51	0xbdd08549	-0.10181672
52	0xbe071d9c	-0.13194889
53	0xbe0777ee	-0.13229343
54	0xbe72f0ef	-0.23724721
55	0x3cbeea74	0.023305155
56	0xbe2ddc15	-0.16978486
57	0x3e876413	0.26443538
58	0xbe1b6a78	-0.15177333
59	0x3e22cbd1	0.15898062
60	0x3ecf8e79	0.40538386
61	0xbe38dc67	-0.18052827
62	0x3e5b9849	0.21444811
63	0xbe26024e	-0.16211817
64	0xbe9c4bb2	-0.305265
65	0xbe75518a	-0.23956886
66	0xbdd774a9	-0.10520298
67	0xbdf43228	-0.11923629
68	0xbd4757f2	-0.048667856
69	0xbe501e7f	-0.20324133
70	0xbe5e9fb1	-0.21740605
71	0xbdc7a713	-0.09748664
72	0x3f9d10cc	1.2270751
73	0xbe5b36d5	-0.21407636
74	0x3dcacf9b	0.09902879
75	0xbd9ca2f5	-0.07648269
76	0x4020c657	2.5121057
77	0xbe37d3ff	-0.17951964
78	0xbe59a890	-0.21255708
79	0x3e2fe9a7	0.17178975
80	0x3e76d2c5	0.2410384
81	0xbe2f856c	-0.1714074
82	0xbe89da4d	-0.26924363
83	0xbe6dcca0	-0.2322259
84	0xbe513257	-0.2042936
85	0xbe79ab2b	-0.24381702
86	0x3f2be152	0.67140687
87	0xbe33337f	-0.17500113
88	0xbdcb1dd5	-0.099177994
89	0x3e3c05f7	0.1836165
90	0x3e397dda	0.18114415
91	0xbe6b129d	-0.22956319
92	0xbe746d6c	-0.23869866
93	0xbe2621bb	-0.16223805
94	0xbe8f18a0	-0.27948475
95	0xbd6e31b4	-0.05815287
96	0xbe45c5aa	-0.19313684
97	0x3e373e7c	0.1789493
98	0xbda457ad	-0.08024535
99	0xbdbca2f5	-0.09210769
100	0xbe749aba	-0.23887148
101	0xbd0164c1	-0.031590227
102	0xbe578964	-0.21048504
103	0xbe0df920	-0.13864565
104	0xbe753546	-0.23946103
105	0xbe05e4f0	-0.13075614
106	0xbe6aab24	-0.22916847
107	0xbe0b84aa	-0.13624826
108	0x3e49ba09	0.19699873
109	0xbe59cad1	-0.21268775
110	0x3d3495f6	0.044088326
111	0xbe0f0f23	-0.13970618
112	0xbe7b81f8	-0.24561298
113	0xbe337a98	-0.17527235
114	0x3f1c22b5	0.6099046
115	0x3e49fefc	0.19726175
116	0xbe580d8a	-0.21098915
117	0xbe454d8f	-0.19267868
118	0xbe3e7bac	-0.18601865
119	0x3e444b3a	0.19169322
120	0x3faed2ac	1.3658042
121	0x3cf7ef14	0.030265369
122	0xbe30e39c	-0.17274326
123	0xbdb57339	-0.088598676
124	0xbdeb8737	-0.115003996
125	0x3de9a8ba	0.11409135
126	0x3e36366f	0.17794202
127	0xbdea56fb	-0.114423715
128	0xbe866678	-0.26250052
129	0x3dd8bc4a	0.10582788
130	0xbd2e251c	-0.04251586
131	0xbd0f5311	-0.034991328
132	0xbe476a79	-0.1947421
133	0x3e0bdb89	0.13657965
134	0x3e27a91c	0.16373104
135	0x3e213b9d	0.15745397
136	0x3e31be63	0.17357783
137	0x3e378e3d	0.17925353
138	0xbdf0fea7	-0.11767321
139	0x3ce22e39	0.027609931
140	0xbe21286f	-0.1573808
141	0xbe57268f	-0.21010803
142	0x3e1d3261	0.1535125
143	0x3da13c26	0.078728005
144	0xbdf91457	-0.12162083
145	0x3de272ce	0.110570535
146	0xbe31e475	-0.17372306
147	0x3df2407f	0.11828708
148	0xbe34f2ea	-0.1767079
149	0xbc259258	-0.010105692
150	0x3e2eea0f	0.17081474
151	0x3dffd59a	0.12491913
152	0xbee7ceea	-0.4527505
153	0xbf11fd53	-0.5702717
154	0xbe9fd1a2	-0.31214625
155	0x3e20886a	0.15677038
156	0x3e4001fa	0.18750754
157	0x3ed8e706	0.42363757
158	0xbf598aa9	-0.84977204
159	0xbe74406b	-0.23852699
160	0x3e17c720	0.14822054
161	0x3d7d7ce8	0.061886698
162	0x3dd11647	0.10209327
163	0x3e505f71	0.20348908
164	0xbdd0671c	-0.101759166
165	0xbe296c8a	-0.1654531
166	0x3e75379e	0.23946998
167	0x3e2b9d9c	0.16759342
168	0x3e352f1b	0.1769375
169	0xbbba46e3	-0.00568472
170	0xbfbb8567	-1.4650086
171	0xbd4da5ab	-0.05020682
172	0xbe2d7876	-0.16940483
173	0x3dcf5072	0.101227656
174	0x3e391c23	0.1807714
175	0x3d19a5ec	0.03751175
176	0xbe04ec35	-0.12980731
177	0xbe88b6fd	-0.2670211
178	0x3dc5a2b2	0.09650172
179	0x3d7dd0e3	0.061966788
180	0x3e10320c	0.14081591
181	0x3e7ce88c	0.24698085
182	0x3e2c78bf	0.16842936
183	0x3e94015d	0.2890729
184	0xbe6ba06b	-0.23010413
185	0x3e0dba9a	0.13840714
186	0xbdd381d0	-0.10327494
187	0x3e629dec	0.22130555
188	0xbdcf1ee1	-0.101133116
189	0x3ebeca17	0.37263557
190	0x3dc7aa1a	0.09749241
191	0x3e0a18ca	0.13486019
192	0xbe147315	-0.14497025
193	0x3d3adc6f	0.045620378
194	0xbe0c55f1	-0.13704659
195	0x3cc169b8	0.023609981
196	0xbe05ce14	-0.13066894
197	0x3df7dbcb	0.12102469
198	0x3e6fa6d2	0.2340348
199	0xbda81c98	-0.08208579
200	0xbe1c414e	-0.15259287
201	0xbe8196f9	-0.25310495
202	0xbd86500f	-0.06558239
203	0x3eebbf30	0.46044302
204	0xbf0f03a2	-0.5586492
205	0xbd103a77	-0.035212006
206	0xbe492139	-0.1964158
207	0xbe24ab65	-0.16081007
208	0x3e1b54b0	0.15169024
209	0xbd726a30	-0.0591833
210	0xbec14c06	-0.37753314
211	0xbe3a16b6	-0.18172726
212	0xbd97e85c	-0.07417366
213	0xbc9e48a8	-0.019321755
214	0x3ea4845c	0.32132232
215	0xbd4120de	-0.047150485
216	0x3d0905d6	0.03345283
217	0x3e3cb9fe	0.18430325
218	0x3ff085ce	1.8790834
219	0x3e0db39d	0.13838048
220	0x3e1e22ae	0.15442917
221	0xbe1b8812	-0.15188625
222	0x3d890a7b	0.06691452
223	0xbdeb6e37	-0.11495631
224	0x3ea56a7a	0.32307798
225	0xbdcc732b	-0.09982904
226	0xbdecf32e	-0.1156982
227	0x3d9d696c	0.07686123
228	0x3dec1fa4	0.115294725
229	0x3e579f85	0.21056946
230	0xbd889788	-0.06669527
231	0xbe24397c	-0.16037554
232	0x3defc4fa	0.11707492
233	0xbe863af2	-0.26216847
234	0x3dc08875	0.09401027
235	0x3ce5f515	0.028070966
236	0xbe0f56ac	-0.13997906
237	0xbe041a06	-0.12900552
238	0x3d0a40da	0.033753254
239	0xbe65997e	-0.22421834
240	0xbdce8ebd	-0.10085819
241	0xbebbe207	-0.36695883
242	0x3f070858	0.52747107
243	0xbe6ba988	-0.2301389
244	0xbd2cc684	-0.042181507
245	0x3ddc7f01	0.107664116
246	0xbd98fae8	-0.074697316
247	0x3e5c41a8	0.21509421
248	0x3f5add0c	0.8549354
249	0x3d485339	0.048907492
250	0x3e613c5c	0.21995682
251	0x3e80e018	0.2517097
252	0xbe2eb486	-0.17061052
253	0x3e333162	0.17499307
254	0x3e09fcc8	0.13475335
255	0x3e06129a	0.13093033

action_head.bias f4 [7]
0	0xc07e3f61	-3.9726183
1	0xc08ac999	-4.337109
2	0xbf7fb713	-0.99888724
3	0x410d72e4	8.840549
4	0x3e985c90	0.2975812
5	0xbfa25895	-1.2683283
6	0xc04e0115	-3.218816

value_head.weight f4 [1, 128]
0	0x3e10082d	0.14065619
1	0x3e22dce3	0.15904574
2	0xbe1197e1	-0.14218093
3	0xbde007d7	-0.10938995
4	0xbe2b8e00	-0.16753387
5	0xbd20a1d4	-0.03921683
6	0x3de3e64c	0.1112791
7	0x3b02cc31	0.0019958133
8	0x3e133a7b	0.14377777
9	0x3e265b81	0.16245843
10	0xbe192c21	-0.1495824
11	0xbe363ff1	-0.17797829
12	0xbe1a1fe2	-0.15051225
13	0xbe0bd56f	-0.13655637
14	0x3e2d95d6	0.16951689
15	0xbd7ee452	-0.062229462
16	0xbdf49fdd	-0.11944554
17	0x3ddc8bfd	0.10768888
18	0xbcab9a1c	-0.020947509
19	0x3e1cd242	0.15314582
20	0xbdb82283	-0.089909576
21	0x3d0e85fd	0.03479575
22	0xbe241ac0	-0.1602583
23	0x3e294218	0.16529119
24	0xbdefa2a3	-0.11700942
25	0xbc9258da	-0.017864633
26	0x3e040e91	0.12896182
27	0xbe01f5dc	-0.12691444
28	0x3dfb8ea1	0.12283064
29	0xbdc5314f	-0.096285455
30	0x3d0f56af	0.034994777
31	0xbd1db781	-0.03850508
32	0x3e1a8f6d	0.15093775
33	0xbd2e2d3a	-0.0425236
34	0x3e39b71b	0.18136255
35	0x3e0cdc27	0.13755856
36	0xbe2e05c7	-0.16994391
37	0xbdeac10e	-0.114626035
38	0xbd04c4e0	-0.032414317
39	0x3df7679b	0.12080308
40	0xbe098e91	-0.13433291
41	0xb8f7c6df	-0.000118149204
42	0xbf125798	-0.5716491
43	0x3df94181	0.12170697
44	0xbdf14dc6	-0.11782412
45	0x3e392c6a	0.18083349
46	0x3e0d0a99	0.13773574
47	0x3dc34aa9	0.09535725
48	0xbe3080a6	-0.17236575
49	0xbdb1e717	-0.08686655
50	0x3e0d6f5f	0.13812016
51	0x3e3b0e71	0.18267228
52	0x3e33c311	0.1755488
53	0x3df04c29	0.117332764
54	0x3dc83bd1	0.09777034
55	0xbc9e133c	-0.019296281
56	0xbd827361	-0.06369663
57	0x3e5c3a38	0.21506584
58	0xbe0c7c58	-0.13719308
59	0x3e053661	0.13009025
60	0x3b904159	0.0044023213
61	0xbe12468a	-0.14284721
62	0x3dbd0b9e	0.092307314
63	0x3e1c787a	0.15280333
64	0xbdce155d	-0.100626685
65	0x3eeb2613	0.45927486
66	0xbe2d96a2	-0.16951993
67	0xbe14ce0f	-0.1453173
68	0xbe04c0ee	-0.12964222
69	0x3de61a4d	0.11235485
70	0x3dc2d721	0.09513689
71	0xbe16e4f1	-0.14735772
72	0xbd452c50	-0.048137963
73	0xbe11d12b	-0.14239947
74	0xbdddc782	-0.10829069
75	0xbdbf5ae1	-0.09343506
76	0xbe43d451	-0.19123961
77	0xbe31d507	-0.1736642
78	0xba4b7be6	-0.0007762298
79	0x3e104300	0.14088058
80	0x3dfe5c84	0.1241999
81	0x3de3869a	0.111096576
82	0xbe78f6cb	-0.24312894
83	0xbdd4102b	-0.10354646
84	0xbe3b3096	-0.18280253
85	0xbe031037	-0.12799154
86	0xbdde8be6	-0.10866527
87	0xbe2be349	-0.16785921
88	0x3acc79d6	0.0015600275
89	0x3dc6c983	0.09706404
90	0x39dd8e39	0.0004225837
91	0x3e25f3f0	0.16206336
92	0x3e047e26	0.12938747
93	0xbe32cb23	-0.17460303
94	0xbdfd17e1	-0.1235807
95	0xbdd0ba86	-0.101918265
96	0xbe280d26	-0.16411266
97	0x3cdfa0f4	0.027298428
98	0xbe3cb7ee	-0.18429539
99	0x3e0447c5	0.12918003
100	0x3dd898fa	0.10576053
101	0x3dda246a	0.10651477
102	0xbe113996	-0.14182124
103	0xbd09246f	-0.03348201
104	0x3e210d93	0.15727834
105	0xbe08ef9f	-0.13372658
106	0xbde5fa8a	-0.11229427
107	0xbdd70347	-0.10498672
108	0xbe07bbd2	-0.13255242
109	0xbdaf1e73	-0.085507296
110	0xbdb45ccd	-0.08806763
111	0xbcff6782	-0.031177286
112	0x3f419d41	0.75630575
113	0x3e3e3d9c	0.1857819
114	0xbcdafeed	-0.026732886
115	0x3dc5ec43	0.09664204
116	0xbdfb0f5c	-0.12258789
117	0x3e3b983c	0.18319792
118	0x3e3c26d0	0.18374181
119	0x3de5ef1a	0.11227246
120	0xbf8856cd	-1.065149
121	0xbd58156b	-0.0527548
122	0x3e059d77	0.1304835
123	0xbda7bc3c	-0.081902
124	0xbe04a5b2	-0.12953833
125	0x3dfab269	0.1224106
126	0x3c7e55ca	0.015523383
127	0x3e1ffc74	0.15623647
